ppo_ckpt.pt (torch, 18425 bytes, 23 tensors)

actor.0.weight f4 [16, 8]
1.8337822 -0.3067836 -1.0222785 -0.06783564 -0.08202223 -0.19072755 -0.054381605 -1.1241037
-0.106638394 0.24860129 1.6791428 0.272017 0.36355457 0.071336 0.53972316 0.09613237
-1.9711744 -0.021740446 1.7246907 -0.09730507 -0.35835472 0.31385714 0.10305992 -0.54092
-1.7810346 0.90747327 0.64807206 -1.1793447 0.5242402 -0.34367427 0.0015289716 0.035796102
1.3679146 -0.5726199 -0.7542999 -0.5127294 -0.026199585 0.7376211 0.22125717 0.5786918
0.77695954 -1.0633086 0.18791087 0.021455811 -0.76046205 0.4775822 -0.023992108 -0.14836875
-0.08540521 -0.0410906 -0.3939454 -0.27027422 -0.5103657 -0.18448131 -0.39279768 -0.42616796
0.042595245 -0.9198407 0.30550537 -0.028021196 -0.6923025 0.7309556 0.10093986 -0.095016055
-1.1235355 -0.3271439 1.125766 -0.57793325 0.1310191 1.214824 -0.00043230018 -0.29535976
0.04852418 -0.20062119 -0.7153449 0.5349748 -0.46567503 0.0038093054 -0.34371766 0.08235106
-0.49487427 -0.15908955 -0.18672141 0.09639498 0.1397356 -0.56715167 0.5476363 -0.09542151
-0.7975907 0.42991358 0.3016883 -0.48079443 0.359318 -0.27108926 -0.21184939 0.24566798
-0.43787992 0.96543545 0.656915 -0.7694879 -0.027755233 -0.8950122 0.0014705689 0.07558638
0.16502327 1.933912 -1.7988213 -0.17444985 0.5009143 0.052096363 0.14761649 -0.42033482
0.08839044 -0.76698774 0.77144027 0.24319772 0.6751313 0.38764334 -0.5901325 0.047939084
-0.9389655 0.4068588 1.7849529 -0.22925349 -0.46585396 -0.115255624 -0.06548909 0.5161685
00000000: 60b9 ea3f bd12 9dbe 06da 82bf 69ed 8abd
00000010: 45fb a7bd 154e 43be 3fbf 5ebd a1e2 8fbf
00000020: 3b65 dabd 5691 7e3e 27ee d63f d045 8b3e
00000030: d323 ba3e 9c18 923d 4c2b 0a3f 0ce1 c43d
00000040: 714f fcbf 0519 b2bc aac2 dc3f e147 c7bd
00000050: 457a b7be e2b1 a03e 1411 d33d bc79 0abf
00000060: f1f8 e3bf 2b50 683f 0de8 253f c4f4 96bf
00000070: 9b34 063f 13f6 afbe c667 c83a ef9e 123d
00000080: d317 af3f 3897 12bf cc19 41bf 3c42 03bf
00000090: 83a0 d6bc bdd4 3c3f 3d91 623e 2525 143f
000000a0: d2e6 463f 7f1a 88bf b56b 403e 19c4 af3c
000000b0: a4ad 42bf a785 f43e 198b c4bc faed 17be
000000c0: ede8 aebd 9e4e 28bd 36b3 c9be 6261 8abe
000000d0: 54a7 02bf abe8 3cbe c71c c9be b032 dabe
000000e0: 5a78 2e3d ae7a 6bbf 336b 9c3e b58c e5bc
000000f0: bd3a 31bf e81f 3b3f 8fb9 ce3d c797 c2bd
00000100: 03d0 8fbf 687f a7be 1a19 903f 6ff3 13bf
00000110: df29 063e 5a7f 9b3f 59a6 e2b9 6539 97be
00000120: 4ac1 463d a46f 4dbe d820 37bf 1cf4 083f
00000130: f56c eebe 8aa5 793b c3fb afbe aca7 a83d
00000140: 2960 fdbe 5fe8 22be e633 3fbe bb6a c53d
00000150: d916 0f3e da30 11bf e431 0c3f 5a6c c3bd
00000160: e72e 4cbf a21d dc3e e476 9a3e b02a f6be
00000170: 87f8 b73e 36cc 8abe 0cef 58be 6390 7b3e
00000180: cc31 e0be c726 773f 952b 283f 29fd 44bf
00000190: f15e e3bc 851f 65bf 1bc0 c03a 08cd 9a3d
000001a0: dcfb 283e 6e8a f73f c73f e6bf fba2 32be
000001b0: eb3b 003f ff62 553d c728 173e 2036 d7be
000001c0: 0c06 b53d 4f59 44bf 1c7d 453f d308 793e
000001d0: 68d5 2c3f 3079 c63e ec12 17bf c65b 443d
000001e0: 0b60 70bf cc4f d03e 5679 e43f 6dc1 6abe
000001f0: 6984 eebe 240b ecbd 251f 86bd 9e23 043f

actor.0.bias f4 [16]
-0.0039092647 -0.001558912 -0.038128577 -0.038180344 -0.00065528613 0.009515825 -0.027935797 0.0025928766
0.03900364 -0.03060676 0.026804326 -0.01076939 0.0019377912 -0.04403448 0.0037899949 -0.015493494
00000000: 4a19 80bb 6854 ccba b62c 1cbd fe62 1cbd
00000010: 82c7 2bba 43e8 1b3c 9dd9 e4bc 40ed 293b
00000020: 48c2 1f3d 07bb fabc bf94 db3c 1872 30bc
00000030: 7cfd fd3a 805d 34bd 9061 783b 6dd8 7dbc

actor.2.weight f4 [16, 16]
-1.023544 0.23773006 0.29333523 0.654137 -0.003062406 -0.25033253 0.5946285 0.47369197
-0.38830152 0.16141488 0.42485872 0.57914895 0.14222181 0.93326014 -0.057647556 0.1982221
0.41713843 0.2590062 -0.16762535 1.3873587 -0.07791073 -0.52160734 0.12463416 -0.4011354
0.18333337 -0.5974467 0.20962383 0.5088352 0.24110936 -0.13374619 -0.55768365 0.45290193
0.39372292 -0.25345087 0.85578066 0.4664967 0.5733818 0.1474498 -0.27449584 0.13913146
-0.18102361 0.15779649 0.4167634 0.61970395 -0.1736539 -0.26051807 0.55044824 -0.16136238
-0.12825474 -0.5681545 0.26362485 -0.61071473 0.5715322 0.8512839 0.4093714 -0.67351544
0.22571947 -0.62077534 -0.3615845 0.22910787 -0.098654464 0.29198965 -0.15979733 0.24103817
-0.44317856 -0.46530476 -0.76339346 -0.3735764 -0.023931306 0.28782845 -0.5694286 -0.19118217
-0.9098425 -0.01720446 0.03764558 0.40555182 -0.27818507 -0.57724065 -0.5580583 -0.24610624
0.38877973 0.14415328 0.4795736 -0.6951348 -0.3095617 -0.3568508 0.27721998 -0.19651963
-0.56515163 0.52333045 -0.14522329 0.20991014 -0.4298199 0.14872047 -0.88973224 0.09710414
-0.7404927 0.14075859 0.94007987 0.29559 -0.39089358 -0.4895049 -0.2911303 0.1205025
0.8055951 -0.32280263 -0.29517958 0.5611352 0.056939907 -0.49947184 0.0719868 0.027423851
0.14345509 -0.8037888 -0.07600099 -0.029967349 0.13514858 -1.2788851 -0.14536338 -0.3606957
-0.41183704 -0.13702638 0.36503047 0.03535237 0.8172346 0.45491898 0.025135297 -0.56991285
-0.35673627 -0.5771807 0.4282557 0.78598535 -0.7873886 -0.045011073 -0.3603196 -0.32884604
0.14245726 0.13188039 0.47157314 -0.45530406 -0.06099039 0.1999127 0.1216256 0.90637106
-0.5188568 0.0755099 0.15938936 -0.01185487 0.69952244 -0.38644043 0.48466906 -0.42408958
-0.06520685 0.35142568 0.34340525 -0.62333125 -0.6056796 -0.48661223 0.047181536 -0.31148955
-0.8595334 -0.25106776 0.5754666 0.63037455 0.20569983 -0.5427799 0.412524 0.6310511
0.04854984 0.21991488 -0.3110627 0.013175136 0.8167889 -0.7586491 -0.07213048 1.03814
-0.6565932 0.39606014 -0.2230763 0.034559574 -0.3711883 -0.3831078 0.30583647 -0.7062083
0.27119595 0.23806135 0.031063318 0.84621996 0.50300854 -0.1738037 0.7506827 0.62824917
-0.08037632 0.17763847 0.5343992 0.33069026 -0.75424796 0.56383884 0.49954498 -0.45383012
-0.35755002 0.06093945 -0.2678033 -0.14503257 0.63471085 -0.5528098 0.14469881 -0.43597665
0.29708767 -0.28075185 -0.14293855 -0.806018 -0.3910563 0.34415036 0.6390748 0.45555475
0.2145824 -0.71702635 0.7652085 -0.025206642 -0.46634427 -0.5368201 0.16117848 -0.113637775
-0.06759651 -0.26141816 -0.2482457 0.12129862 -0.12084919 -0.7173108 0.14932992 0.026104614
-0.805972 -0.5082949 -0.6366867 -0.07317236 -0.8268354 0.47737548 0.36480615 -0.23030263
-0.32332757 0.82063615 0.5609421 -0.19617434 0.226973 -0.44820532 -0.33684826 0.021423267
-0.86203676 -0.65468735 0.096723504 -0.3415722 0.40149236 -0.19351609 0.19266236 0.947818
00000000: 7d03 83bf 826f 733e 0930 963e 8675 273f
00000010: a6b2 48bb 962b 80be 9339 183f c187 f23e
00000020: 75cf c6be f149 253e 1587 d93e 1b43 143f
00000030: 98a2 113e 23ea 6e3f d81f 6cbd bcfa 4a3e
00000040: 2b93 d53e 769c 843e fba5 2bbe f894 b13f
00000050: a98f 9fbd 0f88 05bf 3240 ff3d 9f61 cdbe
00000060: bebb 3b3e 44f2 18bf a1a7 563e 0643 023f
00000070: 5fe5 763e c3f4 08be 5bc4 0ebf c3e2 e73e
00000080: 0d96 c93e 50c4 81be 7114 5b3f a8d8 ee3e
00000090: 26c9 123f 15fd 163e b88a 8cbe 7a78 0e3e
000000a0: 415e 39be 6795 213e 0362 d53e eba4 1e3f
000000b0: 54d2 31be a062 85be 2dea 0c3f 2e3c 25be
000000c0: 3655 03be 9372 11bf d6f9 863e cd57 1cbf
000000d0: ef4f 123f beed 593f 2199 d13e 826b 2cbf
000000e0: 0123 673e 22eb 1ebf 9b21 b9be 419b 6a3e
000000f0: 5a0b cabd ab7f 953e e9a1 23be b6d2 763e
00000100: 4de8 e2be 6d3c eebe c16d 43bf 6845 bfbe
00000110: 960b c4bc 405e 933e 13c6 11bf 42c5 43be
00000120: 70eb 68bf 5ef0 8cbc 4032 1a3d 7da4 cf3e
00000130: 466e 8ebe 0bc6 13bf e9dc 0ebf 4603 7cbe
00000140: 230e c73e eb9c 133e ac8a f53e 5bf4 31bf
00000150: df7e 9ebe 26b5 b6be c7ef 8d3e 713c 49be
00000160: c7ad 10bf fcf8 053f 6ab5 14be aff2 563e
00000170: 5b11 dcbe 2e4a 183e 7ec5 63bf 89de c63d
00000180: ee90 3dbf 0523 103e 13a9 703f 9357 973e
00000190: 3423 c8be 63a0 fabe 080f 95be 04ca f63d
000001a0: 7b3b 4e3f 6346 a5be c721 97be 8ea6 0f3f
000001b0: d239 693d c6ba ffbe d16d 933d fca7 e03c
000001c0: e4e5 123e 1ac5 4dbf 68a6 9bbd 167e f5bc
000001d0: 6464 0a3e 82b2 a3bf 23da 14be 1bad b8be
000001e0: 4edc d2be a550 0cbe 46e5 ba3e a6cd 103d
000001f0: 4936 513f 24eb e83e 8ae8 cd3c cfe5 11bf
00000200: 23a6 b6be 1dc2 13bf 5544 db3e 5636 493f
00000210: 4d92 49bf 885d 38bd d07b b8be 825e a8be
00000220: 51e0 113e a70b 073e 0972 f13e 9d1d e9be
00000230: 0fd1 79bd eab5 4c3e d816 f93d ef07 683f
00000240: cdd3 04bf efa4 9a3d f736 233e ee3a 42bc
00000250: e713 333f 85db c5be 8b26 f83e 4522 d9be
00000260: 2b8b 85bd 11ee b33e d0d2 af3e a392 1fbf
00000270: d10d 1bbf 3d25 f9be 6d41 413d 8f7b 9fbe
00000280: 620a 5cbf f48b 80be c751 133f 3a60 213f
00000290: faa2 523e a0f3 0abf 5936 d33e 918c 213f
000002a0: 32dc 463d 5e31 613e 9c43 9fbe 87dc 573c
000002b0: 1419 513f d436 42bf 25b9 93bd c6e1 843f
000002c0: 7e16 28bf 65c8 ca3e 1d6e 64be 578e 0d3d
000002d0: 650c bebe b526 c4be 9996 9c3e 11ca 34bf
000002e0: 32da 8a3e 5bc6 733e 8078 fe3c dfa1 583f
000002f0: 2bc5 003f 99f9 31be be2c 403f f0d4 203f
00000300: 579c a4bd dce6 353e 63ce 083f 3c50 a93e
00000310: 6516 41bf be57 103f 5cc4 ff3e 6c5c e8be
00000320: cc10 b7be a59b 793d 841d 89be 6b83 14be
00000330: 697c 223f f184 0dbf ed2b 143e 5538 dfbe
00000340: e01b 983e b5be 8fbe 7c5e 12be 3257 4ebf
00000350: 8838 c8be 7a34 b03e 689a 233f 793e e93e
00000360: 7dbb 5b3e 0a8f 37bf b4e4 433f 297e cebc
00000370: adc4 eebe 0b6d 09bf f90b 253e ecba e8bd
00000380: 0a70 8abd 9ad8 85be 1f34 7ebe 696b f83d
00000390: c87f f7bd aea1 37bf f1e9 183e 58d9 d53c
000003a0: 2e54 4ebf 9d1f 02bf e6fd 22bf 64db 95bd
000003b0: 7cab 53bf 8f6a f43e dfc7 ba3e 74d4 6bbe
000003c0: 318b a5be 3615 523f e799 0f3f ede1 48be
000003d0: 9c6b 683e 2b7b e5be 6077 acbe d97f af3c
000003e0: 71ae 5cbf 9799 27bf f916 c63d 8de2 aebe
000003f0: 6890 cd3e 1529 46be 4849 453e 33a4 723f

actor.2.bias f4 [16]
-0.036802974 -0.040352184 0.08286617 -0.002608443 -0.0065448643 0.026125638 -0.005206002 0.013596824
-0.011473016 0.067943834 -0.021992203 0.010921242 -0.07448925 0.010526661 0.048714288 0.018214349
00000000: b7be 16bd 5548 25bd bdb5 a93d 69f2 2abb
00000010: 4d76 d6bb 6f05 d63c 1c97 aabb 37c5 5e3c
00000020: 51f9 3bbc 2326 8b3d fe28 b4bc 02ef 323c
00000030: d28d 98bd 0478 2c3c a288 473d 4236 953c

actor.4.weight f4 [16, 16]
0.62905425 0.35453513 0.09199394 -0.19471087 -0.57184833 0.025280684 0.25175777 -1.2119226
0.26010203 -0.19041039 0.76415265 0.17989868 -0.55265564 -0.38894117 -0.38405782 -0.24331515
-0.5099627 0.2700838 -0.34900653 0.109223455 -1.1199894 -0.079010285 0.08808267 -0.26578072
0.23498283 0.50232077 0.63436866 -0.35589874 0.4276538 -0.09559581 0.2019073 0.26574636
-0.23844858 0.56268984 -0.23323347 -0.13887997 0.015473607 -0.5181766 0.57566375 0.32519764
0.45738584 -0.7304989 0.38733545 0.38626942 -0.20721468 -0.9383295 0.082892865 0.8149231
0.12337262 0.3660249 0.22768879 -1.0737442 -0.5637044 -0.48331657 0.19623494 0.37257263
0.31195992 -0.45184872 0.33504358 -0.2934787 0.44529876 0.2432269 -0.52085245 -0.17536925
-0.54116744 0.20556888 -0.85528326 -0.12824488 0.53657436 0.19855826 0.43963262 -0.19150338
-0.57160604 -0.07349784 0.24422534 -0.2101107 -0.4864084 0.6263374 0.21733104 -0.48875946
-0.19725694 -0.4581043 0.004390166 -0.037386324 -0.0027861935 0.20130838 -0.34537318 1.2242221
0.37097582 0.23398909 0.32524118 -0.18208614 -0.58881223 -0.69833094 -0.07593722 -0.64635
-0.41574502 0.42392004 -0.2923217 -0.23392963 0.6254427 0.07923255 -0.54783386 0.07041765
-0.37034017 -0.033968657 -0.6361647 0.17473012 0.297113 -0.6768795 -0.28884533 -0.79970855
0.09918118 0.8759876 0.08450359 0.7342977 -0.27361834 0.04154606 1.0159758 -0.028311877
1.1066676 -0.21437585 0.004490713 -0.06514714 0.2059628 0.034630485 -0.6759958 -0.22873096
-0.8099519 -0.08260374 0.33139324 -0.53979665 -0.06327394 -0.078359134 0.6543484 -0.88541734
0.34029976 0.8250343 0.002774217 0.5166181 -0.2503973 0.32645273 -0.50787884 0.31501758
-0.62154984 -0.7512443 0.24468063 0.19986124 0.5139977 0.004544376 0.047080137 -1.1624806
0.13012709 -0.31626222 0.25735617 -1.0381938 0.3295872 -0.03657083 -0.19710152 0.012918524
0.008015053 -0.36253262 -0.64301956 -0.19330193 -0.48684227 -0.38498572 -0.07765778 -0.87159014
0.81886846 -0.26401868 -0.68981516 -0.09519042 -0.03198621 0.18923563 0.2189212 -0.11213407
-0.17271517 -0.37955698 -0.5212418 0.2951417 0.82197565 -0.40710017 -1.130604 0.07517673
0.026430676 -0.08299988 0.28319374 0.20513423 -0.12471046 0.7365773 -0.529917 0.17182355
-0.05769119 -0.77162236 -0.14220682 0.5386387 -0.60229707 -0.592337 0.46110713 -0.59085053
-0.65945137 0.05222161 0.13118903 0.1983085 0.4265926 0.08086454 -0.8097402 -0.09127134
-0.6701414 -0.5448273 -0.07236545 0.16883245 -0.26402944 0.7176839 -0.41004616 -0.18062264
-0.3504011 -0.75130224 -0.4768436 0.07330564 -0.28340396 0.4268976 -0.3650551 0.24309188
-0.04942761 -0.73613536 0.13878252 0.020001179 0.3345643 0.15984452 0.52856225 -0.19842674
0.68790936 -0.22462003 0.75112706 0.6775415 0.54746085 0.27407545 0.3401478 -0.20072721
0.5833919 0.18178196 -0.85824364 -0.56135285 0.046955686 0.84047824 0.43466136 0.116688065
0.3329415 0.3617762 0.21961148 0.28192174 0.57903683 -0.6212278 -0.35238135 0.49033827
00000000: b309 213f a185 b53e 5267 bc3d 4962 47be
00000010: a764 12bf 7019 cf3c 65e6 803e 4820 9bbf
00000020: 182c 853e f1fa 42be 829f 433f 5c37 383e
00000030: d77a 0dbf 4c23 c7be 3aa3 c4be 9b27 79be
00000040: ea8c 02bf 6d48 8a3e fcb0 b2be 8cb0 df3d
00000050: d05b 8fbf 25d0 a1bd b064 b43d 6914 88be
00000060: 579f 703e 1898 003f fc65 223f 5c38 b6be
00000070: 70f5 da3e bcc7 c3bd cac0 4e3e e80f 883e
00000080: dd2b 74be 710c 103f c1d4 6ebe 8d36 0ebe
00000090: 0385 7d3c 39a7 04bf b35e 133f 4e80 a63e
000000a0: 7a2e ea3e fa01 3bbf d550 c63e 1bc5 c53e
000000b0: 1630 54be 5d36 70bf bcc3 a93d cd9e 503f
000000c0: c9aa fc3d 9e67 bb3e 4027 693e 7370 89bf
000000d0: ee4e 10bf 4575 f7be d0f1 483e d7c1 be3e
000000e0: 36b9 9f3e b758 e7be d58a ab3e d742 96be
000000f0: 33fe e33e 7910 793e 9656 05bf ff93 33be
00000100: f389 0abf a680 523e d8f3 5abf a052 03be
00000110: f05c 093f db52 4b3e 8717 e13e 7619 44be
00000120: c654 12bf 0986 96bd 3516 7a3e 4227 57be
00000130: 860a f9be a657 203f 078c 5e3e ae3e fabe
00000140: b9fd 49be a68c eabe 62db 8f3b 6722 19bd
00000150: 9298 36bb c923 4e3e c1d4 b0be 4fb3 9c3f
00000160: 8bf0 bd3e d69a 6f3e 0386 a63e ca74 3abe
00000170: 66bc 16bf d1c5 32bf f984 9bbd 3277 25bf
00000180: 88dc d4be 0c0c d93e 31ab 95be 408b 6fbe
00000190: 031d 203f ad44 a23d d73e 0cbf 2137 903d
000001a0: 3a9d bdbe b822 0bbd b1db 22bf 74ec 323e
000001b0: 321f 983e fa47 2dbf 89e3 93be b3b9 4cbf
000001c0: 811f cb3d b940 603f 3810 ad3d effa 3b3f
000001d0: b417 8cbe 342c 2a3d 7f0b 823f 4fee e7bc
000001e0: 49a7 8d3f 5885 5bbe d526 933b dd6b 85bd
000001f0: eae7 523e b2d8 0d3d 100e 2dbf 7338 6abe
00000200: 0259 4fbf 262c a9bd 60ac a93e 1d30 0abf
00000210: c495 81bd c17a a0bd 6083 273f b6aa 62bf
00000220: c53b ae3e 7335 533f a3cf 353b 1541 043f
00000230: 1334 80be d024 a73e 5904 02bf fc49 a13e
00000240: e41d 1fbf 8c51 40bf 8f8d 7a3e 6da8 4c3e
00000250: 5a95 033f fde8 943b 1ad7 403d 2acc 94bf
00000260: 0940 053e 1fed a1be 30c4 833e 89e3 84bf
00000270: a7bf a83e 4bcb 15bd fbd4 49be 38a8 533c
00000280: 9251 033c e09d b9be ee9c 24bf f1f0 45be
00000290: 6443 f9be d91c c5be 0b0b 9fbd 8820 5fbf
000002a0: 5da1 513f 752d 87be ba97 30bf 32f3 c2bd
000002b0: f903 03bd fcc6 413e e12c 603e 8ca6 e5bd
000002c0: 3fdc 30be 4b55 c2be 1a70 05bf d01c 973e
000002d0: ff6c 523f 6f6f d0be a2b7 90bf 42f6 993d
000002e0: 2585 d83c d7fb a9bd c5fe 903e b50e 523e
000002f0: 3368 ffbd 5490 3c3f a4a8 07bf 83f2 2f3e
00000300: 994d 6cbd 0b89 45bf aa9e 11be 3ae4 093f
00000310: 2430 1abf 66a3 17bf 3c16 ec3e fb41 17bf
00000320: ced1 28bf 54e6 553d 6b56 063e 6211 4b3e
00000330: 586a da3e 4f9c a53d 224b 4fbf 78ec babd
00000340: 638e 2bbf cd79 0bbf 5634 94bd 6ae2 2c3e
00000350: de2e 87be 22ba 373f 92f1 d1be 24f5 38be
00000360: c667 b3be 5855 40bf d824 f4be 4421 963d
00000370: 531a 91be 5292 da3e 81e8 babe 14ed 783e
00000380: 9b74 4abd 5e73 3cbf 011d 0e3e 83d9 a33c
00000390: 034c ab3e 48ae 233e db4f 073f 6130 4bbe
000003a0: d41a 303f cb02 66be dd49 403f 5c73 2d3f
000003b0: 6526 0c3f 9e53 8c3e da27 ae3e 6f8b 4dbe
000003c0: 2c59 153f 0d25 3a3e dbb5 5bbf d2b4 0fbf
000003d0: 9b54 403d 9529 573f ef8b de3e 27fa ee3d
000003e0: 4f77 aa3e bb3a b93e d5e1 603e 0c58 903e
000003f0: c23b 143f c908 1fbf 546b b4be 9e0d fb3e

actor.4.bias f4 [16]
-0.014571751 0.027942928 -0.0074957474 0.0039934926 -0.005353877 -0.062728465 0.060433067 -0.016510213
-0.008792153 -0.107650876 -0.07613353 0.00075771403 -0.028763318 0.017558398 -0.07532719 -0.019502722
00000000: 5abe 6ebc 91e8 e43c e39e f5bb d8db 823b
00000010: 936f afbb c877 80bd aa88 773d 6d40 87bc
00000020: f60c 10bc 1078 dcbd e5eb 9bbd 54a1 463a
00000030: 0da1 ebbc a1d6 8f3c 2445 9abd 2cc4 9fbc

actor.6.weight f4 [16, 16]
0.20058186 0.6114292 -0.23600239 -1.0721755 -0.082274444 -0.26566312 -0.024388595 -0.15908189
-0.039304506 1.2134548 0.32023638 -0.051131744 -0.1106456 0.16400997 0.22510876 -0.021247005
-0.24232714 0.12758821 -0.91124856 -0.3884743 -0.084393874 0.426758 -0.7305104 -0.5363666
-0.21903653 0.32583877 -0.9046848 0.42080832 -0.12483993 0.0714254 -0.69074255 -0.43745968
0.32339418 0.34225088 0.2941161 -0.5435001 0.08359775 -0.01191376 -0.036030207 0.24084704
0.890272 0.2219489 0.05212067 0.19244942 1.2664834 0.6611982 -0.105429836 -0.4194655
0.20202829 0.18154298 -0.2609388 -0.13374865 0.14522056 -0.009133272 -0.03306549 -0.20885086
0.5073473 0.30534577 0.038318522 -0.7432549 -0.029038565 0.4126063 -0.75267434 1.0011725
-1.2691133 -0.11452893 0.12776886 -0.34777778 -0.81848556 0.19216903 0.098546416 -0.18063445
-0.23901407 -0.4372112 -0.029608142 0.5165614 -0.080308 -6.138891e-05 -0.09353325 0.48825538
-0.36213806 -0.78829354 -0.1442303 -0.1406554 0.12952629 0.12983914 0.4385075 -0.802156
0.12520158 0.40945625 -0.7158873 0.7116737 -0.5346906 0.64082986 0.3749424 0.21178345
0.17571974 -0.41572613 0.55567306 0.102639966 -0.07274633 -0.025934175 0.18093137 0.5933412
0.039319664 1.2436397 0.16740787 0.14603367 0.09285414 0.14190668 -0.34704316 -0.26421818
0.48658895 0.3983847 -0.22411664 0.39291105 0.11126184 -1.0045785 -0.29818344 0.6799463
0.88537836 0.28891537 0.43108565 0.53584033 -0.194051 0.30107772 -0.27811342 0.15380809
-0.1739952 0.370335 -0.40284917 0.5212487 -0.19885781 -0.016634692 -0.11490101 -0.6198918
-0.7199336 0.79118586 0.16522448 0.45448846 0.81109416 0.7516146 0.030150626 0.1244919
0.16663298 -0.21716093 0.24769115 0.020213202 0.2044339 -0.98408204 -0.6529803 1.1457372
0.07161975 0.022644093 -0.40091622 -0.73978096 0.63566816 0.064948365 0.30014884 0.34638193
-0.10625415 -0.5242595 -1.2236698 -0.74072295 0.42783052 0.2891565 0.4461043 0.022203749
-0.5858208 0.104860954 0.34392405 0.55530447 -0.042203598 0.6671472 0.19198221 0.07528692
0.9077409 0.2565591 0.63954085 0.17283139 -0.22806889 0.2583921 -0.635866 0.45482817
0.33514816 -0.14060137 -0.038753238 0.21036792 0.11192592 -0.49169213 0.64752567 0.8279109
0.75712126 -0.15694852 0.5966957 0.04297644 -0.7626003 0.014318274 -0.14103885 0.22035585
-0.98136955 -0.99679756 -0.036158487 -0.31087583 -0.51413697 0.36931416 -0.5380231 0.11936208
-0.40211326 0.31726608 0.76620024 -0.11673329 0.80921286 0.056614745 0.5543094 0.051884834
-0.5585487 -0.61391574 -0.5087184 0.59202003 -0.58713865 -0.13779508 -0.36943322 0.22359116
0.58279276 -0.35369548 -0.5848215 -0.3727252 -0.14359151 -0.74746174 0.47030863 -0.57524294
0.13549216 0.5596753 -0.10701489 0.4550299 0.926977 -0.46749508 -0.32115832 0.0049165175
-0.47197264 -0.4791471 -0.17627804 -0.67777294 0.43771058 -0.4446108 -0.4649616 -1.2671968
-0.29117867 0.011284458 0.39327073 0.47446203 -0.26562083 0.50625306 0.12038106 -0.5236773
00000000: 5565 4d3e a086 1c3f 9caa 71be 0c3d 89bf
00000010: 817f a8bd ff04 88be 97ca c7bc 5de6 22be
00000020: c3fd 20bd 7d52 9b3f 06f6 a33e 856f 51bd
00000030: 299a e2bd 3bf2 273e e982 663e 330e aebc
00000040: 9b24 78be 7ca6 023e 9647 69bf 1ae6 c6be
00000050: b2d6 acbd 0680 da3e bb02 3bbf 524f 09bf
00000060: 1d4b 60be 57d4 a63e 6c99 67bf 3074 d73e
00000070: 14ac ffbd 7b47 923d 81d4 30bf b7fa dfbe
00000080: ec93 a53e 823b af3e 6396 963e d322 0bbf
00000090: 4c35 ab3d ee31 43bc 6994 13bd 9ba0 763e
000000a0: dee8 633f 9346 633e 7c7c 553d 7611 453e
000000b0: 211c a23f 4944 293f 99eb d7bd 2fc4 d6be
000000c0: 81e0 4e3e 67e6 393e c599 85be 68f5 08be
000000d0: b3b4 143e b8a3 15bc ae6f 07bd 00dd 55be
000000e0: 83e1 013f 4856 9c3e e2f3 1c3d f445 3ebf
000000f0: 49e2 edbc 2241 d33e 44af 40bf 6c26 803f
00000100: 4e72 a2bf 258e eabd d7d5 023e ee0f b2be
00000110: 4588 51bf f5c7 443e b4d2 c93d 3df8 38be
00000120: 1bc0 74be 25da dfbe c68c f2bc 5e3d 043f
00000130: 8578 a4bd ecbd 80b8 5c8e bfbd 9cfc f93e
00000140: 296a b9be 9bcd 49bf 1cb1 13be f807 10be
00000150: 8aa2 043e 8df4 043e 0e84 e03e 185a 4dbf
00000160: d834 003e 40a4 d13e 6444 37bf 3f30 363f
00000170: 7ce1 08bf 6d0d 243f 73f8 bf3e c3dd 583e
00000180: e0ef 333e 0eda d4be 9740 0e3f e734 d23d
00000190: 07fc 94bd e873 d4bc 1346 393e 35e5 173f
000001a0: a80d 213d 962f 9f3f f86c 2b3e da89 153e
000001b0: 502a be3d fc4f 113e a4af b1be 9b47 87be
000001c0: 3022 f93e 14f9 cb3e d57e 65be a32b c93e
000001d0: 3fdd e33d 0796 80bf 80ab 98be f610 2e3f
000001e0: 28a8 623f b7ec 933e 42b7 dc3e d52c 093f
000001f0: 4eb5 46be dc26 9a3e e264 8ebe de7f 1d3e
00000200: cc2b 32be 8d9c bd3e 3f42 cebe 8e70 053f
00000210: 62a1 4bbe 7a45 88bc 3951 ebbd 3bb1 1ebf
00000220: 924d 38bf 288b 4a3f 9b30 293e b6b2 e83e
00000230: dea3 4f3f d069 403f 72fe f63c 9cf5 fe3d
00000240: d6a1 2a3e 6f5f 5ebe c0a2 7d3e 2896 a53c
00000250: 1f57 513e cdec 7bbf b829 27bf 84a7 923f
00000260: 60ad 923d 1b80 b93c e444 cdbe 4962 3dbf
00000270: 26bb 223f a603 853d 1cad 993e f958 b13e
00000280: c79b d9bd df35 06bf 36a1 9cbf 05a0 3dbf
00000290: 9a0c db3e 520c 943e c867 e43e a3e4 b53c
000002a0: 5af8 15bf 57c1 d63d d016 b03e 6f28 0e3f
000002b0: aedd 2cbd 29ca 2a3f fc96 443e 0730 9a3d
000002c0: b561 683f b75b 833e f3b8 233f b6fa 303e
000002d0: e48a 69be f84b 843e 1dc8 22bf 3ddf e83e
000002e0: 8a98 ab3e cef9 0fbe b7bb 1ebd b06a 573e
000002f0: 6b39 e53d 12bf fbbe 3ec4 253f f8f1 533f
00000300: b3d2 413f 1db7 20be 0dc1 183f 1008 303d
00000310: c639 43bf 3297 6a3c 7d6c 10be f7a4 613e
00000320: 093b 7bbf 202e 7fbf ec1a 14bd 1e2b 9fbe
00000330: 7b9e 03bf bf16 bd3e e2bb 09bf 1b74 f43d
00000340: cae1 cdbe b370 a23e b325 443f dd11 efbd
00000350: 9328 4f3f dde4 673d 39e7 0d3f 3185 543d
00000360: 0cfd 0ebf 9529 1dbf 5e3b 02bf a08e 173f
00000370: b84e 16bf 271a 0dbe 5a26 bdbe 15f5 643e
00000380: e831 153f 9317 b5be ddb6 15bf d6d5 bebe
00000390: a709 13be a759 3fbf 4bcc f03e 1f43 13bf
000003a0: 75be 0a3e e146 0f3f 9f2a dbbd aef9 e83e
000003b0: 5d4e 6d3f 845b efbe dd6e a4be bd1a a13b
000003c0: 66a6 f1be c552 f5be 3b82 34be 8782 2dbf
000003d0: 9a1b e03e 07a4 e3be 720f eebe 8133 a2bf
000003e0: 5f15 95be 73e2 383c c85a c93e b0ec f23e
000003f0: 74ff 87be cd99 013f 588a f63d b70f 06bf

actor.6.bias f4 [16]
0.025702659 0.021543702 -0.0089508835 0.0067206207 0.039048918 0.08202123 -0.095167875 0.06018888
0.016228335 0.02355949 0.052791826 -0.11731987 0.03101702 0.02582189 -0.04292672 -0.06456355
00000000: 628e d23c 6b7c b03c baa6 12bc a738 dc3b
00000010: c2f1 1f3d bffa a73d 60e7 c2bd 9d88 763d
00000020: 49f1 843c d5ff c03c 3e3c 583d 6645 f0bd
00000030: 6817 fe3c 6e88 d33c eed3 2fbd e539 84bd

actor.8.weight f4 [16, 16]
-0.33312353 0.18910962 0.48543572 0.06547491 -0.16584292 0.12587687 0.12496624 -0.035980154
1.6049813 -0.47925705 0.2891912 0.018350106 -0.26930967 -0.006284995 1.284694 0.16898285
-0.858266 -0.12141056 -0.3214891 -0.10243571 0.067054145 -0.61178017 -0.55213875 -0.049187277
-0.7424067 0.21366225 -0.1460758 -0.4898426 1.0271564 0.7689302 -0.090926655 -0.9563351
0.06899017 -0.13344114 -0.9685022 0.72716343 0.47470167 0.29706308 -0.21652731 -0.5067389
-0.08847722 -0.23895498 -0.51450795 -0.09299922 -0.07620446 0.42012995 -0.5948411 -1.0737491
-0.05540233 -0.005936465 -0.6749691 -0.04672576 0.68113226 0.039065704 -0.20933928 -0.44753173
0.24387132 -0.70014435 0.27031103 -1.2609065 -0.2613735 -0.16956109 0.28260297 0.99946886
0.3047935 0.47944582 -0.25472912 0.48268375 -0.7498811 0.5059342 0.66604507 0.15989368
0.37523615 -0.5973813 0.6852924 -0.5926794 0.1109198 -0.5699964 0.5612031 0.17874058
-0.66644406 1.1356567 0.11435383 0.43076405 0.12459027 -0.18204834 0.16691448 -0.6228105
0.25511742 -0.8328674 -0.031566907 -0.9407281 -0.09658192 -0.22761211 -0.48023164 0.6371682
0.50342923 0.66472805 -0.45584476 0.04001092 -0.019397123 -0.64167595 0.44091558 -0.08635973
0.6324318 0.3228522 1.0831939 -0.007160709 -1.067277 -0.538793 0.83200204 0.28296474
-0.3854679 0.16500577 0.028860034 -0.22878481 0.92217153 1.1353258 0.40525466 -0.3535554
0.16766663 -0.12802948 1.1426154 -0.76497036 0.09985627 0.3602881 -0.23971678 0.3450246
-0.30573675 -0.4396311 0.3990467 0.52059144 -0.38817382 -0.21519707 -0.1718559 0.2995656
0.45068178 1.4127659 -0.41658822 0.11346024 0.19016917 -1.322168 -0.067702636 -0.38254637
0.14468352 -0.68854994 -0.104263805 -0.3413298 0.36617777 -0.7073519 0.66423595 0.53881097
-0.12789483 0.074162245 -0.8002088 0.50757754 0.8888266 -0.4098019 -0.15194687 -0.7549711
-0.23594414 0.09160721 -0.7109887 -0.674923 0.01636052 0.35595706 -0.4008405 -1.1528188
-0.14846376 -0.7276561 0.39684087 0.20504698 0.74909127 -0.13577683 -0.16936925 0.23056549
-0.88791496 -0.6643251 -0.7193012 -0.66052586 -0.50240135 0.18519133 0.14938195 0.49664032
-0.32600066 0.19658571 -0.563482 0.25294626 -0.4301686 0.17609905 -0.46246052 -0.40383127
-0.06304055 0.09196987 -0.73866504 -0.21980973 -0.19146493 0.00681985 0.26844704 -0.6396872
0.04888086 0.65384007 -0.795958 -0.005493513 0.879387 1.0278687 -0.4522734 0.30494183
-0.0803089 -0.57084996 -0.6904231 0.15658765 0.10562298 -0.2832753 -0.3681623 -0.28837624
0.4222056 -0.6234684 0.63930607 -0.04095014 0.45934317 0.77074075 -1.1730256 0.2684363
0.8932245 0.5991222 0.62150896 -0.5829352 -0.15837473 0.021367377 0.47050378 0.1679874
1.1572014 -0.12380529 0.53184503 -0.615127 -0.8618121 -0.19695672 0.034315087 -0.18043932
-0.26444498 1.359228 -0.6124314 -0.2030362 0.86572015 0.4704608 -0.6120867 0.15912986
0.4607457 -0.7618407 0.36200386 0.015201814 0.1812505 0.012470583 -0.23022504 0.53191805
00000000: 2b8f aabe f4a5 413e 088b f83e b617 863d
00000010: bad2 29be dee5 003e 4dee ff3d ed5f 13bd
00000020: 0770 cd3f 2e61 f5be de10 943e f652 963c
00000030: f5e2 89be 5cf2 cdbb da70 a43f d709 2d3e
00000040: 52b7 5bbf 1aa6 f8bd 389a a4be d0c9 d1bd
00000050: af53 893d a09d 1cbf f758 0dbf 9978 49bd
00000060: 5e0e 3ebf 47ca 5a3e e594 15be a6cc fabe
00000070: dc79 833f 9cd8 443f c137 babd 61d2 74bf
00000080: b84a 8d3d cba4 08be c3ef 77bf 6227 3a3f
00000090: 190c f33e a718 983e 56b9 5dbe a4b9 01bf
000000a0: 8b33 b5bd 9db0 74be cbb6 03bf 6076 bebd
000000b0: 1511 9cbd 461b d73e 8247 18bf 9c70 89bf
000000c0: 8eed 62bd ae86 c2bb c6ca 2cbf 8363 3fbd
000000d0: af5e 2e3f 5c03 203d 095d 56be e122 e5be
000000e0: 67b9 793e a93c 33bf 3566 8a3e 6265 a1bf
000000f0: bfd2 85be 6ca1 2dbe 56b1 903e 31dd 7f3f
00000100: e50d 9c3e ec79 f53e db6b 82be 5322 f73e
00000110: 35f8 3fbf e784 013f ee81 2a3f 2bbb 233e
00000120: f41e c03e fbed 18bf 536f 2f3f d6b9 17bf
00000130: ec29 e33d 49eb 11bf 02ab 0f3f c507 373e
00000140: 149c 2abf 335d 913f 5732 ea3d 1b8d dc3e
00000150: 2f29 ff3d e16a 3abe a1eb 2a3e 8270 1fbf
00000160: c09e 823e cc36 55bf 4d4c 01bd 8fd3 70bf
00000170: becc c5bd 2613 69be ece0 f5be 751d 233f
00000180: bde0 003f 9e2b 2a3f 7c64 e9be 7ee2 233d
00000190: b7e6 9ebc e044 24bf b0bf e13e 5fdd b0bd
000001a0: 0de7 213f e24c a53e 19a6 8a3f 61a4 eabb
000001b0: 889c 88bf 57ee 09bf 16fe 543f c1e0 903e
000001c0: 0c5c c5be 46f7 283e e16b ec3c 9146 6abe
000001d0: 6f13 6c3f 5b52 913f 8a7d cf3e 3705 b5be
000001e0: cdb0 2b3e 291a 03be 3941 923f 19d5 43bf
000001f0: 7281 cc3d af77 b83e 5178 75be 10a7 b03e
00000200: 8789 9cbe 5417 e1be d94f cc3e 7b45 053f
00000210: b8be c6be 9f5c 5cbe fefa 2fbe aa60 993e
00000220: c3bf e63e 83d5 b43f 0d4b d5be d85d e83d
00000230: b5bb 423e cd3c a9bf aea7 8abd 1edd c3be
00000240: eb27 143e cf44 30bf 4388 d5bd c8c2 aebe
00000250: a77b bb3e 0415 35bf 5e0b 2a3f 84ef 093f
00000260: ddf6 02be 60e2 973d 7cda 4cbf 9af0 013f
00000270: 248a 633f 8ed1 d1be f697 1bbe c945 41bf
00000280: 579b 71be 909c bb3d 5b03 36bf c1c7 2cbf
00000290: 7f06 863c 0140 b63e f73a cdbe 918f 93bf
000002a0: e206 18be ac47 3abf ba2e cb3e d6f7 513e
000002b0: 72c4 3f3f 1509 0bbe 226f 2dbe 5c19 6c3e
000002c0: 654e 63bf 3611 2abf 2024 38bf 3918 29bf
000002d0: 609d 00bf cca2 3d3e 95f7 183e a447 fe3e
000002e0: 8fe9 a6be c44d 493e 5b40 10bf 2c82 813e
000002f0: 0f3f dcbe 4f53 343e a0c7 ecbe f9c2 cebe
00000300: 671b 81bd b35a bc3d 2719 3dbf cd15 61be
00000310: 620f 44be 0c79 df3b e471 893e 8ac2 23bf
00000320: 4c37 483d 1062 273f e7c3 4bbf ed02 b4bb
00000330: 821f 613f 3491 833f 6190 e7be 5621 9c3e
00000340: fe78 a4bd 3923 12bf 91bf 30bf 8358 203e
00000350: dc50 d83d 7609 91be c57f bcbe 0da6 93be
00000360: 552b d83e a09b 1fbf 90a9 233f 56bb 27bd
00000370: 072f eb3e 444f 453f b425 96bf 7c70 893e
00000380: 5caa 643f 1360 193f 361b 1f3f 3e3b 15bf
00000390: fc2c 22be a30a af3c dfe5 f03e e404 2c3e
000003a0: 2d1f 943f a18d fdbd ff26 083f f778 1dbf
000003b0: b89f 5cbf 06af 49be fa8d 0c3d 16c5 38be
000003c0: 5565 87be 2ffb ad3f 4ec8 1cbf b9e8 4fbe
000003d0: d69f 5d3f 3de0 f03e b7b1 1cbf f0f2 223e
000003e0: dce6 eb3e fe07 43bf 9258 b93e 0711 793c
000003f0: bb99 393e 6b51 4c3c 1dc0 6bbe c82b 083f

actor.8.bias f4 [16]
-0.01610029 0.1068314 0.06761215 0.19167233 0.058633246 0.16510558 0.0007823796 -0.09307636
0.09751238 -0.066153675 0.005524423 -0.09998246 -0.024644006 -0.16627966 0.14926392 0.021752058
00000000: c1e4 83bc 6cca da3d 3d78 8a3d c045 443e
00000010: 6a29 703d 7011 293e 9b18 4d3a d29e bebd
00000020: 92b4 c73d 947b 87bd 3806 b53b 9bc3 ccbd
00000030: 3ae2 c9bc 3745 2abe a4d8 183e 5f31 b23c

action_heads.0.weight f4 [3, 16]
-0.37392655 0.25084576 0.1898379 -0.51446575 -0.37774995 -0.28073612 -0.22249684 -0.3942109
0.40903237 0.4933875 -0.29211977 0.45272776 0.032973185 -0.083812304 -0.1420051 -0.41052333
0.47070593 -0.5036819 -0.46945876 0.1574773 0.3610062 0.1136291 0.3581832 0.013029439
0.26554105 -0.23191483 -0.4415444 -0.40294778 -0.46782544 -0.4479497 0.27781555 0.11824638
-0.12638445 0.29711506 0.327775 0.4426731 0.044024188 0.12466836 -0.15074606 0.33539575
-0.5052775 -0.28079078 0.5322871 -0.09490165 0.40907618 0.5002765 -0.13323265 0.43536732
00000000: 4d73 bfbe db6e 803e de64 423e 07b4 03bf
00000010: 7168 c1be a5bc 8fbe 36d6 63be 03d6 c9be
00000020: b16c d13e 499d fc3e b990 95be efcb e73e
00000030: e40e 073d c9a5 abbd c969 11be 1d30 d2be
00000040: 5e00 f13e 4cf1 00bf e65c f0be bb41 213e
00000050: ced5 b83e 60b6 e83d ca63 b73e 6e79 553c
00000060: fff4 873e 157b 6dbe 1c12 e2be 2c4f cebe
00000070: d186 efbe aa59 e5be d73d 8e3e 282b f23d
00000080: ed6a 01be 771f 983e 20d2 a73e 0ca6 e23e
00000090: b552 343d 2052 ff3d 2d5d 1abe feb8 ab3e
000000a0: de59 01bf cfc3 8fbe f843 083f cc5b c2bd
000000b0: 6f72 d13e 1f12 003f 246e 08be 77e8 de3e

action_heads.0.bias f4 [3]
-0.033850186 0.053253617 -0.012595197
00000000: 7ea6 0abd 7720 5a3d 165c 4ebc

critic.0.weight f4 [16, 8]
-0.02217895 0.7408368 -0.53847706 -0.2246395 0.43224436 0.075997435 0.2609948 -0.51376194
0.48342982 -0.10513041 0.7840444 -0.19352452 0.013632719 -0.2050935 0.25497755 -0.5539935
-0.23891318 -0.16454826 -0.59471565 -0.63645643 0.07027037 0.43888432 0.21295406 0.4825799
-0.16902675 0.3937352 0.2981482 0.32005227 -0.5520956 0.24260259 0.71841896 0.819351
-0.26467937 0.23668373 0.38191167 0.64556175 0.17065118 0.26073432 0.46520078 -0.27870655
-0.23615806 0.4119018 -0.25705355 0.24545643 -0.46412593 -0.31436908 -0.86656463 -0.19887324
0.06155285 -0.72423124 -0.10138221 -0.24007161 0.057698708 0.02439036 0.0888904 0.0114115765
0.7716183 0.15217388 -0.621122 0.4121599 -0.15109552 0.20187992 0.46256003 -0.072288826
0.61933637 0.61257374 -0.25891745 -0.39289558 0.08070603 -0.4483426 0.22761044 0.46081468
0.26277506 0.14345442 0.28050572 -0.82812715 -0.61930835 0.42588073 0.23254769 -0.69213796
-0.046088707 0.27573565 0.19222198 -0.40711755 -0.39725122 -0.6209383 -0.21096505 0.13480908
-0.32051733 -0.2878193 -0.60668457 0.06588908 -0.98035455 -0.17538899 0.3143686 -0.39545777
0.1404694 0.07957475 0.32354498 -0.24447091 -0.41347024 0.71620756 -0.6695094 0.22709692
-0.012379088 0.45564592 -0.11957243 0.06600836 0.18122077 0.8195774 -0.35746843 -0.22967213
0.10013708 -0.30979705 0.08889811 -0.10497078 0.08586088 0.2717078 0.18545832 0.39980808
0.882963 -0.081019185 -0.09384028 0.39497143 -0.36845413 0.16122876 -0.3916345 0.16687575
00000000: a1b0 b5bc 7ba7 3d3f a2d9 09bf e607 66be
00000010: 224f dd3e 8ba4 9b3d 1ca1 853e e785 03bf
00000020: 1d84 f73e 9d4e d7bd 22b7 483f 4b2b 46be
00000030: c55b 5f3c 0804 52be 6b8c 823e 85d2 0dbf
00000040: a8a5 74be 577f 28be 493f 18bf cfee 22bf
00000050: e9e9 8f3d 72b5 e03e a110 5a3e b614 f73e
00000060: 5915 2dbe a997 c93e e2a6 983e e4dd a33e
00000070: 2356 0dbf d06c 783e 4eea 373f fdc0 513f
00000080: 0e84 87be 385d 723e ed89 c33e 8943 253f
00000090: 2fbf 2e3e f87e 853e cc2e ee3e a0b2 8ebe
000000a0: 6bd3 71be cbe4 d23e 869c 83be ee58 7b3e
000000b0: eaa1 edbe fcf4 a0be 2ed7 5dbf 6da5 4bbe
000000c0: d71e 7c3d 3867 39bf 7aa1 cfbd 55d5 75be
000000d0: 7b55 6c3d 4bce c73c 2c0c b63d 9ff7 3a3c
000000e0: c788 453f 78d3 1b3e da01 1fbf 9f06 d33e
000000f0: c9b8 1abe 9cb9 4e3e abd4 ec3e 2a0c 94bd
00000100: d48c 1e3f a2d1 1c3f d490 84be 9c29 c9be
00000110: 3449 a53d 298d e5be b612 693e e7ef eb3e
00000120: 748a 863e b7e5 123e 729e 8f3e 2400 54bf
00000130: fe8a 1ebf 0a0d da3e fb20 6e3e f42f 31bf
00000140: 83c7 3cbd 392d 8d3e d7d5 443e b671 d0be
00000150: 8364 cbbe d0f5 1ebf 3907 58be 640b 0a3e
00000160: d91a a4be 0d5d 93be ae4f 1bbf dbf0 863d
00000170: 84f8 7abf 2c99 33be ecf4 a03e 7179 cabe
00000180: 36d7 0f3e 16f8 a23d b0a7 a53e 9556 7abe
00000190: 5fb2 d3be 6159 373f f864 2bbf 188c 683e
000001a0: a9d1 4abc 6c4a e93e 64e2 f4bd 642f 873d
000001b0: f091 393e d3cf 513f 1a06 b7be 2c2f 6bbe
000001c0: ab14 cd3d b89d 9ebe 3610 b63d ecfa d6bd
000001d0: d4d7 af3d 491d 8b3e c9e8 3d3e a5b3 cc3e
000001e0: dd09 623f 63ed a5bd 552f c0bd b239 ca3e
000001f0: 05a6 bcbe 2719 253e 5184 c8be 7ae1 2a3e

critic.0.bias f4 [16]
0.014761067 0.014151065 0.058797393 0.043610863 0.040641572 -0.012677791 -0.03588011 0.018121151
-0.024279319 -0.0041273646 -0.059903365 0.025756948 -0.022270119 -0.015490137 0.012620676 0.0030430786
00000000: 67d8 713c ded9 673c 89d5 703d 4ea1 323d
00000010: c777 263d 82b6 4fbc 06f7 12bd cf72 943c
00000020: 6ce5 c6bc d83e 87bb 3b5d 75bd 3c00 d33c
00000030: d36f b6bc 58ca 7dbc f4c6 4e3c 636e 473b

critic.2.weight f4 [16, 16]
0.5504933 0.042893004 -0.001294836 0.47396815 -0.2803585 -0.11025519 0.537142 0.62396
-0.3618158 0.48052 0.22375382 -0.044338193 -0.4133543 -0.23685125 -0.66526544 0.55447316
0.6370422 -0.6285177 0.24491094 -0.8040132 -0.052384004 0.8369867 0.2986593 0.13395257
0.42222553 0.17504917 -0.032013725 0.337113 0.44365275 0.07940988 -0.13910674 0.08533924
0.3006166 -0.1693544 -0.54244685 0.26061735 0.8241373 0.103271104 0.2113338 0.32375273
-0.83931375 -0.5088313 -9.2047585e-06 0.27108687 0.40974122 0.11720368 -0.06868679 -0.35605344
-0.5261275 -0.21049073 0.30013683 0.06730354 0.015444618 0.014856451 0.9135075 0.5544259
0.19756348 -0.0952317 -0.5486674 -0.20273574 -0.55901295 0.13285038 0.39881557 -0.53224695
-0.38625962 -0.34805566 -0.12404525 -0.29582882 -0.2225452 -0.16555555 -0.23223911 0.1076192
-0.8516131 0.9743656 -0.5252338 0.0623176 0.247047 0.28500292 0.28864035 0.20377618
0.00891571 0.23680636 0.29271752 -0.14435367 -0.28948182 -0.18926702 0.19534887 0.3620012
-0.27295592 -0.45435804 0.037942722 0.6037668 0.17519602 -0.9169511 0.7966625 0.4675271
0.29064745 -0.2634254 0.26243252 0.30999094 0.16062662 -0.38344675 -0.8293461 1.0662729
0.41331044 -0.053610474 -0.3988174 -0.31406155 0.102735564 -0.36243242 0.032126825 -0.4139181
0.044825874 0.7568929 0.2794028 -0.13729641 0.31261033 0.92524725 -0.27740055 -0.024893353
-0.42965242 0.1479931 -0.4172692 -0.2841737 -0.42002168 -0.57569706 -0.14197677 -0.294293
0.68158025 0.6562263 0.105817676 -0.59129685 -0.20528609 -0.47310227 -0.13797385 0.36313987
-0.21138963 0.059070088 0.4344415 0.09763194 -0.4926791 0.4683905 0.4303856 -0.7058102
-0.41068527 -0.04986719 -0.3782673 -0.11432498 0.29774252 0.09624985 -0.36251515 0.298941
0.2832535 0.08626846 0.07149232 1.1338052 -0.70770407 0.08969376 -0.2789969 0.11265106
-0.47894394 0.2197218 -0.9094416 -0.31899667 -0.5350489 0.5033959 0.02640463 0.53999335
0.1475193 0.025230935 0.58066 -0.5305794 0.4123618 0.0060570017 -0.09365473 0.0023258866
-0.51814187 -0.27791354 0.6689813 -0.052687183 -0.46615386 0.021803176 0.048364136 -0.058722615
-0.41455886 -0.120873116 0.58204186 0.24170732 0.15862739 -0.20446473 -0.6863346 -0.7608158
-0.28825888 -0.11301774 0.4912476 -0.08764701 0.97659683 -0.0018617751 -0.066817306 0.20296429
0.047919534 0.5030689 0.90445054 -0.28598502 -0.047303893 -0.096302226 0.43669719 0.23997943
0.3057169 -0.41547677 -0.5933986 0.3157073 -0.11860444 0.12260449 0.1956192 -0.41474253
0.16786176 0.52048004 0.26831093 0.05701019 -0.27661872 -0.7691904 0.5040606 -0.7383172
-0.03889914 0.7844255 0.2890468 0.68840754 -0.054173082 0.21990502 0.1940596 0.07486988
0.3969946 0.5040023 0.011405857 0.4904661 0.75937593 0.2575759 0.22484204 -0.32357997
0.21100056 -0.3700386 0.31293362 0.7671077 -0.40312037 0.6562432 -0.3813747 0.10066486
-0.23346089 -0.24087301 0.22516564 0.014976465 -0.43407 0.57507944 0.60332114 0.16026461
00000000: 21ed 0c3f 93b0 2f3d 7db7 a9ba f4ab f23e
00000010: 268b 8fbe 79cd e1bd 2382 093f d8bb 1f3f
00000020: ec3f b9be b806 f63e b91f 653e f79b 35bd
00000030: 2da3 d3be 2289 72be d64e 2abf f4f1 0d3f
00000040: 3315 233f 89e6 20bf efc9 7a3e cfd3 4dbf
00000050: 9c90 56bd c344 563f dfe9 983e dd2a 093e
00000060: f22d d83e 1740 333e d320 03bd 139a ac3e
00000070: 7426 e33e a6a1 a23d ff71 0ebe 57c6 ae3d
00000080: 6bea 993e 3d6b 2dbe ccdd 0abf a36f 853e
00000090: a9fa 523f cd7f d33d e367 583e ebc2 a53e
000000a0: 44dd 56bf c542 02bf 236e 1ab7 e6cb 8a3e
000000b0: 9ac9 d13e 7c08 f03d a9ab 8cbd a34c b6be
000000c0: 4bb0 06bf e28a 57be 89ab 993e 70d6 893d
000000d0: 6c0b 7d3c 7968 733c a1db 693f dbee 0d3f
000000e0: 154e 4a3e d608 c3bd 7775 0cbf f599 4fbe
000000f0: 791b 0fbf ee09 083e 8e31 cc3e 5641 08bf
00000100: d2c3 c5be 5a34 b2be 700b febd e076 97be
00000110: e4e2 63be 6587 29be 17d0 6dbe 7567 dc3d
00000120: 5103 5abf 0670 793f b975 06bf bd40 7f3d
00000130: e4f9 7c3e e7eb 913e abc8 933e b4aa 503e
00000140: 3313 123c 5e7d 723e 12df 953e 73d1 13be
00000150: f636 94be 37cf 41be 8909 483e 3958 b93e
00000160: e1c0 8bbe 9ea1 e8be d469 1b3d 7690 1a3f
00000170: 9666 333e 4fbd 6abf 13f2 4b3f b65f ef3e
00000180: becf 943e b2df 86be 8e5d 863e 22b7 9e3e
00000190: 4e7b 243e 2253 c4be 0750 54bf a17b 883f
000001a0: 6d9d d33e a896 5bbd cb31 ccbe adcc a0be
000001b0: 0667 d23d be90 b9be 6b97 033d 13ed d3be
000001c0: 569b 373d bcc3 413f e20d 8f3e 6e97 0cbe
000001d0: 760e a03e 01dd 6c3f 7207 8ebe 25ed cbbc
000001e0: 67fb dbbe 818b 173e 4fa4 d5be 377f 91be
000001f0: 150d d7be e260 13bf 5c62 11be 92ad 96be
00000200: 0b7c 2e3f 72fe 273f f0b6 d83d 3b5f 17bf
00000210: 8436 52be 763a f2be 0449 0dbe 78ed b93e
00000220: 8676 58be 7af3 713d 1e6f de3e 41f3 c73d
00000230: 6f40 fcbe e1d0 ef3e 805b dc3e faaf 34bf
00000240: 5745 d2be 8a41 4cbd 40ac c1be 3723 eabd
00000250: b571 983e a41e c53d 969b b9be cb0e 993e
00000260: 9a06 913e 85ad b03d 916a 923d 8720 913f
00000270: 182c 35bf 5db1 b73d afd8 8ebe 99b5 e63d
00000280: 2438 f5be c0fe 603e 2ad1 68bf 8853 a3be
00000290: f7f8 08bf 8ede 003f 864e d83c 013d 0a3f
000002a0: 4d0f 173e 1bb1 ce3c 22a6 143f 0dd4 07bf
000002b0: 1621 d33e d079 c63b 0dce bfbd e76d 183b
000002c0: f2a4 04bf af4a 8ebe 5c42 2b3f 84ce 57bd
000002d0: b8ab eebe 939c b23c 7919 463d 2087 70bd
000002e0: 0f41 d4be 538c f7bd b200 153f 2082 773e
000002f0: 386f 223e 345f 51be a0b3 2fbf d3c4 42bf
00000300: ab96 93be d875 e7bd ce84 fb3e 4780 b3bd
00000310: 4002 7a3f ce06 f4ba 83d7 88bd dfd5 4f3e
00000320: 4647 443d 20c9 003f 128a 673f a16c 92be
00000330: bac1 41bd 1a3a c5bd c696 df3e 2bbd 753e
00000340: ed86 9c3e 5fb9 d4be f8e8 17bf 63a4 a13e
00000350: e2e6 f2bd 1018 fb3d 6650 483e 2259 d4be
00000360: f4e3 2b3e 2e3e 053f 0d60 893e 8483 693d
00000370: f8a0 8dbe a9e9 44bf 1e0a 013f 5b02 3dbf
00000380: b454 1fbd 1cd0 483f f1fd 933e 7a3b 303f
00000390: 98e4 5dbd c82e 613e 8fb7 463e 6155 993d
000003a0: e042 cb3e 4b06 013f a2df 3a3c 5f1e fb3e
000003b0: 7666 423f fde0 833e fe3c 663e 46ac a5be
000003c0: 8810 583e b375 bdbe d638 a03e 2c61 443f
000003d0: cb65 cebe 8eff 273f 8b43 c3be 6129 ce3d
000003e0: 5f10 6fbe 6aa7 76be d291 663e d95f 753c
000003f0: 6c3e debe 6838 133f 4173 1a3f 681c 243e

critic.2.bias f4 [16]
0.02201208 -0.098905824 -0.015703518 0.002778874 -0.040328808 0.04791163 0.043422848 0.016241677
0.04503187 0.0020795665 -0.022687966 -0.030386087 0.0354454 0.0030790453 0.011041373 0.017918423
00000000: ad52 b43c 238f cabd aaa4 80bc c51d 363b
00000010: d22f 25bd fc3e 443d 28dc 313d 440d 853c
00000020: 5773 383d 5649 083b 1ddc b9bc 3eec f8bc
00000030: 322f 113d cfc9 493b e0e6 343c a8c9 923c

critic.4.weight f4 [16, 16]
-0.96603954 0.029544244 0.28638196 -0.6981833 -0.4143184 0.14192334 -0.08378637 -0.0059996736
-0.7232726 -0.11409498 0.081309766 0.0707609 0.005103618 0.14293835 0.18477581 -0.776636
0.10830399 -0.18773742 0.011955032 0.56414723 -0.3813407 0.6716909 -0.3681262 -0.1126294
-0.07409682 0.27910608 -0.5651316 0.9445755 0.2952562 0.53860736 -0.0036124294 -0.079603665
0.075196296 -0.07836218 0.51411986 -0.5746877 0.2518596 0.59132457 0.04000348 0.07036756
0.09249713 1.001542 0.51777965 -0.06846197 -0.049292777 0.18917328 -0.3631861 0.23551601
-0.52754736 -0.5115945 -0.02217082 0.18639474 0.29070792 0.12003067 0.45914125 -0.9703464
0.67514616 0.17643964 0.16680068 0.24344413 0.13645533 -0.43625116 0.23057385 -0.25731617
-0.100143954 -0.83756584 0.4003568 0.010905814 -0.8258684 -0.20055655 -0.48442 0.15577748
0.38971993 0.09635493 -0.2507131 -0.2587707 0.004876511 -0.5401147 -0.4672869 0.17106104
-0.3486697 -0.6268078 -0.59289724 0.11420265 0.29807186 -0.5217713 0.43708003 0.81146944
-0.11299787 0.55536115 -0.074776076 0.2848436 0.4383084 0.026042916 -0.08459904 -0.15705118
-0.3625579 -0.3582642 -0.16910367 0.09526543 0.5377418 0.47592193 -0.5120177 0.28372133
0.4442793 -0.6292299 0.27150923 -0.43533766 0.47701254 0.6024343 -0.37791118 -0.15422842
0.14663172 -0.44201744 -0.026174672 -0.5643398 0.31901395 -0.7745584 -0.73245555 -0.44810328
-0.07697725 0.13861981 -0.0815855 0.19761896 -0.2807125 0.64983773 0.2940671 0.2097962
0.24256313 -0.016070997 0.3041199 -0.2277637 0.13064992 -0.2915441 0.2138002 -0.1940342
-0.50626606 -0.5360707 0.5014547 0.7625695 0.3568849 -0.15878488 -0.9158625 0.19530505
0.25354698 -0.03796673 -0.40675452 0.072745994 0.33536687 0.035806883 -0.120355785 -0.4198266
-0.44381943 0.29092678 -0.57557434 -0.40564498 -0.34809893 -0.21743393 -0.8831139 -0.65393555
0.39711243 -0.71148396 0.7305084 0.06987197 0.65044343 0.3516761 0.20599972 0.2899825
-0.44281626 -0.30256647 -0.46709695 -0.11271608 0.052851774 -0.36106938 0.5526244 0.014092567
-0.31674537 0.4116487 0.75216573 0.51789194 0.35323313 -0.5485916 -0.20658341 0.38615543
0.44882768 0.016243178 0.010365403 0.3964971 -0.5267523 0.08100084 -0.25007364 -0.5769372
-0.077029034 0.41034377 -0.3334118 -0.76126736 0.43735492 0.20530112 -0.62879056 0.2112197
0.25568256 -0.12773375 -0.31789893 0.5617153 0.052866496 -0.858412 0.10229868 -0.012994334
0.29530764 0.20797469 0.0818058 0.40138653 0.08557648 -0.14801112 -0.809862 -0.17158994
-0.46123728 0.35671765 0.7279037 -0.15605134 0.6370393 -0.41033018 0.2982555 -0.4445856
-0.89237434 0.13455534 -0.11186918 0.44855854 0.3100814 -0.006380306 -0.38484842 -0.2016031
-0.78270906 0.016500378 0.06725546 -0.0062615965 -0.3263491 -0.20175606 -0.081034295 0.8524541
0.26488876 -0.5263437 -0.48853385 0.13747357 -0.10832128 0.29352537 -0.13747813 0.15816222
-0.15728712 -0.21711111 0.79778194 0.38146785 -0.9504434 -0.15745106 0.15791093 -0.2955433
00000000: 5e4e 77bf c506 f23c a8a0 923e 24bc 32bf
00000010: 8b21 d4be 5a54 113e 3098 abbd e998 c4bb
00000020: 6528 39bf a1aa e9bd bc85 a63d 17eb 903d
00000030: 403c a73b 6e5e 123e df35 3d3e 9ed1 46bf
00000040: 7bce dd3d 3d3e 40be 0adf 433c f46b 103f
00000050: 173f c3be eff3 2b3f 0a7b bcbe 3eaa e6bd
00000060: 13c0 97bd fee6 8e3e 77ac 10bf b3cf 713f
00000070: d22b 973e 2ce2 093f 82be 6cbb 3f07 a3bd
00000080: 8400 9a3d 5a7c a0bd 5c9d 033f bc1e 13bf
00000090: bef3 803e 0c61 173f b0da 233d de1c 903d
000000a0: 236f bd3d 8732 803f 358d 043f ca35 8cbd
000000b0: 39e7 49bd a4b6 413e 87f3 b9be 1c2b 713e
000000c0: 580d 07bf dbf7 02bf 949f b5bc 43de 3e3e
000000d0: abd7 943e a4d2 f53d 9014 eb3e 9f68 78bf
000000e0: 61d6 2c3f 98ac 343e cccd 2a3e 6b49 793e
000000f0: f2ba 0b3e 505c dfbe 8d1b 6c3e f2be 83be
00000100: 4618 cdbd b76a 56bf 91fb cc3e 4dae 323c
00000110: 1d6c 53bf b25e 4dbe e605 f8be 2284 1f3e
00000120: 5f89 c73e bc55 c53d 785d 80be 987d 84be
00000130: 24cb 9f3b f544 0abf 3b40 efbe a02a 2f3e
00000140: d684 b2be 7a76 20bf 1dc8 17bf 14e3 e93d
00000150: e09c 983e ce92 05bf f4c8 df3e 76bc 4f3f
00000160: 6d6b e7bd 262c 0e3f 3324 99bd 05d7 913e
00000170: f569 e03e f457 d53c 4342 adbd 06d2 20be
00000180: 30a1 b9be 686e b7be 8329 2dbe 861a c33d
00000190: 72a9 093f 0aac f33e 9813 03bf ec43 913e
000001a0: 9478 e33e 3615 21bf 4203 8b3e 94e4 debe
000001b0: fd3a f43e 2239 1a3f 937d c1be 0eee 1dbe
000001c0: a026 163e 1c50 e2be 446c d6bc 9378 10bf
000001d0: cc55 a33e 7649 46bf 3582 3bbf cb6d e5be
000001e0: 40a6 9dbd 5af2 0d3e 4c16 a7bd a05c 4a3e
000001f0: 8cb9 8fbe c45b 263f f78f 963e d1d4 563e
00000200: 7862 783e 53a7 83bc 9bb5 9b3e e33a 69be
00000210: 18c9 053e 4545 95be 71ee 5a3e e7b0 46be
00000220: a79a 01bf ee3b 09bf 565f 003f c137 433f
00000230: 9eb9 b63e 8198 22be f775 6abf 0cfe 473e
00000240: e9d0 813e 0083 1bbd 2142 d0be dafb 943d
00000250: 35b5 ab3e 3daa 123d 187d f6bd 83f3 d6be
00000260: 4d3c e3be 5bf4 943e d758 13bf b3b0 cfbe
00000270: 063a b2be 00a7 5ebe c113 62bf 5268 27bf
00000280: 5252 cb3e d023 36bf 9902 3b3f 0919 8f3d
00000290: 7683 263f e40e b43e 97f1 523e 9678 943e
000002a0: d0b8 e2be fee9 9abe 5527 efbe b0d7 e6bd
000002b0: 1a7b 583d 16de b8be cb78 0d3f 83e4 663c
000002c0: 732c a2be 9ec3 d23e ef8d 403f 9194 043f
000002d0: f9da b43e 8070 0cbf 9a8a 53be 2ab6 c53e
000002e0: becc e53e 6a10 853c a7d3 293c ab01 cb3e
000002f0: 3dd9 06bf c5e3 a53d a709 80be 28b2 13bf
00000300: 66c1 9dbd 9418 d23e f4b4 aabe 6be2 42bf
00000310: fcec df3e 753a 523e 6bf8 20bf fa49 583e
00000320: d3e8 823e a3cc 02be a6c3 a2be 93cc 0f3f
00000330: 8a8a 583d e4c0 5bbf f881 d13d 30e6 54bc
00000340: 9032 973e 51f7 543e cd89 a73d 8982 cd3e
00000350: b942 af3d 3a90 17be 1e53 4fbf 46b5 2fbe
00000360: 4b27 ecbe b2a3 b63e e657 3a3f eccb 1fbe
00000370: 0215 233f cc16 d2be f2b4 983e b9a0 e3be
00000380: a572 64bf e0c8 093e ab1b e5bd 77a9 e53e
00000390: fdc2 9e3e e311 d1bb da0a c5be 0b71 4ebe
000003a0: 9f5f 48bf cd2b 873c 3bbd 893d 142e cdbb
000003b0: 3b17 a7be 2499 4ebe 4ff5 a5bd 6f3a 5a3f
000003c0: 809f 873e 76be 06bf 1c21 fabe dfc5 0c3e
000003d0: 8cd7 ddbd f548 963e 11c7 0cbe 47f5 213e
000003e0: e00f 21be 6052 5ebe 703b 4c3f c14f c33e
000003f0: 4250 73bf da3a 21be 67b3 213e 7451 97be

critic.4.bias f4 [16]
-0.029702222 0.060549445 -0.01250311 0.014186258 0.025386538 0.05669389 0.014764586 -0.03637547
-0.0457891 -0.013986349 0.044671997 -0.04045418 -0.067115724 -0.046574105 -0.021961847 -0.02672854
00000000: 1352 f3bc b202 783d d8d9 4cbc 7b6d 683c
00000010: 6ef7 cf3c da37 683d 2ae7 713c 72fe 14bd
00000020: 5a8d 3bbd 0027 65bc fcf9 363d 48b3 25bd
00000030: f873 89bd 7dc4 3ebd 55e9 b3bc d0f5 dabc
