runs/dqn_agent.pt (torch, 158343 bytes, 32 tensors)

net.0.weight f4 [64, 8]
0	0x3e82799e	0.25483412
1	0x3e16bca1	0.14720394
2	0x3f0c89f1	0.5489798
3	0xbfa18c52	-1.2620947
4	0xc0669a2b	-3.6031597
5	0xc0569c55	-3.3532917
6	0x3fdfc1a0	1.7480965
7	0xbc87e312	-0.016587768
8	0xbf5872be	-0.8455008
9	0x3e400dca	0.1875526
10	0xbd2404d4	-0.040043667
11	0xbf6d0b00	-0.9259491
12	0x3fd3c11c	1.6543307
13	0x40268a7f	2.6022031
14	0xbf840b58	-1.0315962
15	0x3d04b954	0.032403305
16	0xbe8e7783	-0.27825555
17	0x3d0aceeb	0.03388874
18	0x3d99fc63	0.07518842
19	0xc055fffe	-3.3437495
20	0x4035ba41	2.839493
21	0x400c1b66	2.1891723
22	0xbe01bf0a	-0.12670532
23	0x3d456454	0.048191383
24	0x3eefaaca	0.4680999
25	0xbec315ee	-0.3810267
26	0x3e6375d0	0.2221291
27	0xbfeb9896	-1.840594
28	0x3f2120df	0.6294078
29	0x40012d11	2.0183756
30	0xbecf5912	-0.40497643
31	0x3c2a1a59	0.010382258
32	0x3def3a54	0.11681047
33	0x3e9e618a	0.3093379
34	0xbf037f2d	-0.5136593
35	0x403ec2dd	2.9806435
36	0xbf5b8904	-0.85755944
37	0xc01f5de2	-2.4901052
38	0xbec77d17	-0.38962623
39	0x3c1c1fcf	0.009529068
40	0xbdf3982a	-0.11894257
41	0x3e936f25	0.28795734
42	0xbe984ac2	-0.29744536
43	0x3f91417b	1.1348108
44	0x3fc04d06	1.5023506
45	0xc014516a	-2.3174691
46	0x3e84ef76	0.25963944
47	0x3d598d4a	0.05311326
48	0x3e3e8258	0.1860441
49	0x3e0ca4e9	0.13734783
50	0xbee090a4	-0.43860352
51	0x4036a594	2.853856
52	0xbe27f83e	-0.1640329
53	0xc01043be	-2.2541347
54	0xbf085b20	-0.53264046
55	0x3d5b1375	0.053485353
56	0xbf61885f	-0.8809871
57	0x3dc85e1d	0.09783576
58	0x3c5a7f73	0.01333605
59	0xbf80bf97	-1.0058469
60	0x3fd84eeb	1.6899084
61	0x3fec57c5	1.8464285
62	0xbf6e752c	-0.9314754
63	0x3d4fa0ac	0.050690338
64	0x3d646bae	0.055766754
65	0x3d3949d8	0.04523644
66	0xbe39f695	-0.1816047
67	0xbe9ab08e	-0.30212826
68	0x3cfc3920	0.030788958
69	0xbd7f1f38	-0.062285632
70	0x3e65ba52	0.22434357
71	0xbe0a54a2	-0.13508847
72	0xbec5b4ba	-0.38614446
73	0x3e7a2d54	0.24431354
74	0x3dfef2a0	0.12448621
75	0xc025a7d5	-2.5883687
76	0x40190224	2.3907557
77	0xbf3b787a	-0.7323071
78	0x3e0cc9b2	0.13748816
79	0x3dc36d84	0.09542373
80	0xbec2233d	-0.3791751
81	0xbf06c04a	-0.5263716
82	0x3e496cc1	0.19670393
83	0xc04aa30f	-3.1662023
84	0x3dde49e2	0.10853936
85	0x40054e2c	2.0828962
86	0xbdbd635a	-0.092474654
87	0x3df0d341	0.117590435
88	0xbe99ae9d	-0.30016032
89	0xbf1e91de	-0.61941326
90	0xbf343e70	-0.7040777
91	0x3f27dc51	0.6557055
92	0xbf4bc87c	-0.7960279
93	0x3f8e1645	1.1100546
94	0xbf0d7d92	-0.5526973
95	0x3d98a309	0.074529715
96	0xbe798a28	-0.24369109
97	0xbe00b0c7	-0.12567435
98	0xbe8c5f4b	-0.27416453
99	0xbe2d9b6b	-0.16953819
100	0x3e190a46	0.14945325
101	0x3e56cb4e	0.20975992
102	0xbe0046d5	-0.1252702
103	0xbe920a92	-0.2852369
104	0xbe087581	-0.13326074
105	0x3f000f1c	0.50023055
106	0x3ed80155	0.42188516
107	0xbfe4200a	-1.7822278
108	0x4050031c	3.2501898
109	0x3e847ae5	0.2587501
110	0xbe7327b8	-0.2374562
111	0xbd731511	-0.059346262
112	0xbec958ef	-0.39325663
113	0xbe884d28	-0.26621366
114	0xbe80e7b8	-0.25176787
115	0x4059791a	3.3980165
116	0xc037bb95	-2.870824
117	0xc01d7910	-2.460514
118	0xbea82d46	-0.3284704
119	0x3da1c563	0.07898977
120	0xbe9e546e	-0.3092379
121	0x3eddd2b0	0.43324804
122	0x3ecc25ad	0.39872494
123	0xbf372542	-0.71541226
124	0xbf7e2c67	-0.992865
125	0xbf991587	-1.1959695
126	0x3f438313	0.7637188
127	0xbdf489aa	-0.1194032
128	0xbe940b09	-0.2891467
129	0xbf63e790	-0.8902521
130	0x3e891ff0	0.2678218
131	0x3f5fd534	0.874347
132	0xbf6044dd	-0.8760508
133	0x3fcad80d	1.5847183
134	0xbe5a8c72	-0.21342638
135	0xbcedb592	-0.029017244
136	0x3d16d0a0	0.036820054
137	0x3eba557c	0.36393344
138	0x3cd25c9a	0.025678921
139	0xbca10132	-0.01965389
140	0x3e07aa6f	0.13248609
141	0xbd930d3a	-0.07180257
142	0xbf1d44fa	-0.61433375
143	0xbe456cb2	-0.19279745
144	0x3eae933f	0.34096715
145	0xbeb36d14	-0.35044158
146	0xbd49092f	-0.049081024
147	0x4078069b	3.8754032
148	0xc0096ab3	-2.1471374
149	0x3f3bd11b	0.73365945
150	0xbf5fd590	-0.87435246
151	0x3dc1379f	0.09434437
152	0xbe91b5fe	-0.28459162
153	0xbeb55de8	-0.35423207
154	0xbee455b7	-0.44596645
155	0x400015a9	2.001322
156	0xbf592731	-0.84825426
157	0xc028ec37	-2.6394174
158	0x3da0287a	0.0782022
159	0x3df93265	0.12167815
160	0x3de140bb	0.109986745
161	0x3d17c498	0.03705272
162	0xbd98ac70	-0.07454765
163	0x3e096af8	0.13419712
164	0x3e2821f6	0.16419205
165	0xbe9fdf26	-0.31224936
166	0x3e3ea3d6	0.18617186
167	0xbe7a9e3c	-0.24474424
168	0x3e7f20bd	0.24914832
169	0x3ee7461e	0.45170683
170	0xbbcd152d	-0.006258628
171	0x40466ddc	3.1004553
172	0x3e01047b	0.12599365
173	0xc00a5096	-2.1611686
174	0xbec9a46d	-0.3938326
175	0xbd52f8b2	-0.051506706
176	0x3dc1f813	0.094711445
177	0x3dddbff5	0.108276285
178	0xbe39abe1	-0.18131973
179	0x402d6c04	2.7097178
180	0xbf2621d0	-0.64895344
181	0xc03a6383	-2.9123237
182	0x3ea5e60b	0.3240207
183	0x3ccac9da	0.024754453
184	0x3e48c905	0.19607933
185	0xbe8b638f	-0.27224395
186	0xbcd01894	-0.025402345
187	0x4055e711	3.3422282
188	0x3fee19ac	1.8601584
189	0x3fc8bf98	1.568347
190	0xbfb1bd2b	-1.3885854
191	0x3ceffd6d	0.029295648
192	0x3e11beea	0.14232984
193	0xbe0f087b	-0.13968079
194	0x3e35e909	0.17764677
195	0xc053bba1	-3.308327
196	0x3f92d280	1.147049
197	0x400cefaa	2.202128
198	0xbe775992	-0.24155262
199	0x3bd0067b	0.006348429
200	0xbeb60f7a	-0.35558683
201	0x3e679a52	0.22617462
202	0xbedc977d	-0.43084326
203	0xbc42374c	-0.011854004
204	0xbe86fcbe	-0.26364702
205	0x3df8e0c4	0.12152246
206	0x3f0f5fec	0.5600574
207	0xbda40a91	-0.08009828
208	0x3f0751f6	0.5285944
209	0x3e8379e1	0.25678924
210	0xbe994e31	-0.29942468
211	0xc02fa922	-2.744698
212	0x40938ca8	4.61092
213	0x3fdbb4c7	1.7164544
214	0x3dbb046c	0.09131703
215	0xbd2f3dd5	-0.042783577
216	0xbeed872f	-0.463922
217	0xbeea544f	-0.45767447
218	0xbeb164ac	-0.3464712
219	0x405208bc	3.281783
220	0xc037828d	-2.8673432
221	0xc02359b0	-2.552349
222	0xbea9eeb7	-0.33189937
223	0x3d9738a3	0.073838495
224	0xbd998a32	-0.07497062
225	0xbedf51ad	-0.43617
226	0x3d0ffff1	0.035156194
227	0xc0456b53	-3.0846756
228	0xc00026c6	-2.0023665
229	0x400828ac	2.1274824
230	0x3e891a59	0.26777914
231	0x3dd95035	0.106110014
232	0x3de06cd8	0.1095826
233	0x3eedf35c	0.4647473
234	0x3dcff11b	0.10153409
235	0x3f1861e7	0.5952439
236	0x3f09d85c	0.53845763
237	0x3f99ce06	1.2015998
238	0xbf11a3a5	-0.56890327
239	0xbe43deae	-0.19127914
240	0xbef39fa7	-0.47582743
241	0xbd859b10	-0.065237164
242	0xbe217843	-0.15768532
243	0x3f588ef2	0.8459312
244	0x4009a8d4	2.1509295
245	0x40101ef6	2.2518897
246	0xbfa25d2d	-1.2684685
247	0x3d8e09ee	0.06935488
248	0x3d773819	0.060356233
249	0xbe800e71	-0.25011018
250	0xbd09dc4c	-0.033657357
251	0xc06329f7	-3.5494363
252	0xc01f0f72	-2.4853177
253	0x40103a78	2.2535686
254	0x3e92702f	0.28601214
255	0x3d8548da	0.06508036

net.0.bias f4 [64]
0	0xbfcd114a	-1.6020901
1	0x3fa60dfb	1.2973017
2	0x3d973658	0.07383412
3	0x3f2e0b53	0.6798603
4	0xbd943aa1	-0.07237745
5	0xbf24c02c	-0.6435573
6	0x3eadec4a	0.33969337
7	0x3f51cdab	0.8195445
8	0xbc10d439	-0.00883966
9	0xbec242d7	-0.3794162
10	0xbf3e5711	-0.743516
11	0x3eb79ed2	0.35863358
12	0xbd2beb88	-0.041972667
13	0x3f06ba53	0.5262806
14	0x3ecfc6aa	0.40581256
15	0xbf4e7d6d	-0.80660135
16	0x3f7c98ff	0.98670954
17	0x3f2e1c42	0.6801187
18	0x3f21902b	0.6311061
19	0xbedfea13	-0.43733272
20	0x3f89c07e	1.0761869
21	0x3faf0a13	1.367495
22	0xbe893a71	-0.268024
23	0x3fd51d15	1.66495
24	0x3ee51150	0.4473977
25	0x3ea45983	0.32099542
26	0x3f542498	0.8286834
27	0x3d49e949	0.049294744
28	0xbf1f3a34	-0.62198186
29	0x3f21e290	0.6323633
30	0x3fe062ba	1.7530129
31	0xbfa54a82	-1.2913363
32	0x3f384216	0.7197584
33	0xbe8d990a	-0.27655822
34	0xbe49acd9	-0.19694842
35	0xbe29ffe2	-0.16601518
36	0xbf9d1353	-1.2271522
37	0x3eb07071	0.34460786
38	0x3f4eb3b2	0.80742943
39	0x3ee2e026	0.44311637
40	0x3f0b78bd	0.54481107
41	0xbfb0153b	-1.3756479
42	0x3f3dccdc	0.74140716
43	0x3e4546f3	0.19265346
44	0xbd820484	-0.063485175
45	0xbf02bbe8	-0.5106797
46	0x3f89cfec	1.0766578
47	0xbef3be6a	-0.47606212
48	0x3f4cd8c9	0.8001829
49	0x3f30c9d2	0.69057953
50	0xbe6f3110	-0.2335856
51	0x3efcef7e	0.49401468
52	0x3f6cdc79	0.92523915
53	0x3f13e0c9	0.5776487
54	0x3f01e85f	0.50745195
55	0x3efb3d11	0.49070027
56	0x3f3629a1	0.7115727
57	0xbe8b2e71	-0.2718387
58	0x3ef28eb6	0.47374505
59	0x3eebc800	0.46051025
60	0x3ed72e10	0.4202733
61	0xbe4e8d0a	-0.2017099
62	0x3f3e8bbe	0.7443198
63	0xbd84bfc1	-0.06481887

net.2.weight f4 [64, 64]
0	0xbe5f355f	-0.21797703
1	0xbec4e8d9	-0.384589
2	0xbd8f9aa4	-0.07011917
3	0xbe890cbd	-0.2676753
4	0x3e888c2c	0.26669443
5	0xbdfacdb3	-0.12246265
6	0x3cece400	0.028917313
7	0xbef5f39a	-0.48037416
8	0xbda68f7e	-0.08132838
9	0xbc951916	-0.018200438
10	0xbe83ef8f	-0.25768706
11	0x3c563ea5	0.013076459
12	0x3ca0c580	0.019625425
13	0xbe278a84	-0.16361433
14	0x3d1d45c7	0.038396623
15	0xbe53c73a	-0.20681468
16	0x3eb1ed9b	0.3475159
17	0xbf0029c5	-0.50063735
18	0x3ddf83e7	0.1091383
19	0x3bf0d28b	0.0073493174
20	0x3daa920a	0.08328636
21	0x3f04a412	0.5181285
22	0xbbeb2b45	-0.007176789
23	0x3df40c19	0.1191637
24	0xbe8f2609	-0.27958706
25	0xbe4ab4ec	-0.19795579
26	0xbe80d5de	-0.25163168
27	0xbd894752	-0.067030564
28	0xbc7e2a13	-0.015512961
29	0x3d2fd368	0.042926222
30	0xbdb7a341	-0.08966685
31	0xbdc0c3a9	-0.09412319
32	0xbe023c21	-0.1271825
33	0xbb073225	-0.0020629254
34	0xbd85ecc4	-0.065393
35	0xbe919551	-0.28434232
36	0xbe4372b6	-0.19086727
37	0xbdd54059	-0.10412664
38	0xbbe9ce89	-0.0071352166
39	0x3dd1c97a	0.10243507
40	0x3ea091ad	0.31361142
41	0xbe3949c7	-0.1809455
42	0xbcffb56f	-0.031214444
43	0x3d1b59e3	0.03792752
44	0x3d91c176	0.07116978
45	0xbe326c8a	-0.17424217
46	0xbdd0fec3	-0.10204842
47	0xbe90673c	-0.28203762
48	0x3db0e617	0.08637636
49	0xbe0e9a3b	-0.13926022
50	0xbda7cb80	-0.081931114
51	0xbdfd0a41	-0.123554714
52	0x3de63e49	0.11242349
53	0x3cf42b98	0.029805943
54	0xbc718f71	-0.014743672
55	0xbd875d45	-0.066095866
56	0xbe723523	-0.23653083
57	0x3da09e79	0.07842726
58	0x3d5f082c	0.054451153
59	0xbe1283ac	-0.14308041
60	0x3d640151	0.055665318
61	0xbd411298	-0.047136873
62	0xbd704eea	-0.05866901
63	0xbe92b370	-0.28652525
64	0xbd6012c4	-0.054705396
65	0x3c1f8010	0.009735122
66	0xbf0d5669	-0.55209976
67	0xbe1d4e2c	-0.15361851
68	0x3d3f732e	0.046740703
69	0xbd8dc836	-0.06922953
70	0xbcae5579	-0.02128099
71	0x3d330770	0.043708265
72	0xbd775e34	-0.060392573
73	0xbdef6b59	-0.11690397
74	0xbe089603	-0.13338475
75	0xbd007f05	-0.031371135
76	0xbdd1f580	-0.102519035
77	0xbe7ea307	-0.24866877
78	0xbe52a413	-0.20570402
79	0xbe90b6a9	-0.2826436
80	0xbddc14a9	-0.10746128
81	0x3dc94f0b	0.098295294
82	0x3cb1caad	0.021703089
83	0xbe95553a	-0.29166585
84	0xbd9cf6d2	-0.07664265
85	0x3d362f51	0.04447872
86	0xbdb4847b	-0.08814331
87	0xbe13f8b3	-0.1445034
88	0xbe5c23be	-0.2149801
89	0xbeadefd0	-0.33972025
90	0x3ea1a621	0.3157206
91	0xbe4c5f35	-0.19958194
92	0xbee52364	-0.44753563
93	0x3e5f2ccc	0.21794432
94	0xbe09ec43	-0.13469033
95	0xbe0b4ddd	-0.13603921
96	0xbe8e9f13	-0.2785574
97	0xbe95c5e9	-0.29252556
98	0xbb4568c0	-0.003012225
99	0xbe8225a7	-0.2541935
100	0x3c8d7f46	0.017272603
101	0x3b4f117f	0.0031596122
102	0x3e03b211	0.12860896
103	0x3deea8b6	0.11653273
104	0xbe885036	-0.26623696
105	0xbe06bbd1	-0.13157584
106	0xbbf51dfb	-0.0074803806
107	0x3e2ac47f	0.1667652
108	0x3b0a20c0	0.002107665
109	0xbeae602a	-0.34057742
110	0x3c78cbdb	0.015185322
111	0xbd9768e7	-0.073930554
112	0xbdd0777a	-0.10179038
113	0xbeaeff84	-0.34179318
114	0x3d43a1bc	0.047761664
115	0xbc4348a0	-0.011919171
116	0xbe994d2b	-0.29941687
117	0x3d33b26f	0.04387134
118	0xbdb1c207	-0.08679586
119	0x3e453e9b	0.19262163
120	0x3e22849a	0.15870896
121	0xbdde8e45	-0.108669795
122	0xbd087028	-0.033310086
123	0xbe82aa3f	-0.25520512
124	0xbe349362	-0.17634347
125	0xbeac9a8b	-0.33711657
126	0xbeb31def	-0.34983775
127	0xbe29c64e	-0.16579553
128	0xbed2a3e6	-0.4114067
129	0x3e0ea669	0.13930668
130	0x3df75cc3	0.1207824
131	0x3dc89095	0.09793202
132	0xbea1fb60	-0.31637096
133	0xbd7eb290	-0.06218201
134	0xbe323cb4	-0.17405969
135	0x3e147b02	0.14500049
136	0x3d8cfe72	0.06884469
137	0xbe0c4f48	-0.13702118
138	0xbce4cab8	-0.027928695
139	0x3dd7e015	0.10540787
140	0xbd9af44e	-0.07566129
141	0xbdabaf53	-0.0838305
142	0xbe53a451	-0.2066815
143	0xbe862144	-0.26197255
144	0x3cd583be	0.026063796
145	0x3b82fbba	0.0039972933
146	0xbdd86b68	-0.10567361
147	0x3d4f3c00	0.05059433
148	0xbdabaae0	-0.08382201
149	0xbe6fd5ad	-0.23421355
150	0xbe66b11f	-0.22528504
151	0x3d9db7eb	0.07701095
152	0x3e832c8c	0.25619924
153	0x3cf5c2ed	0.030000174
154	0x3e8f3e42	0.27977186
155	0xbe0bad30	-0.13640285
156	0x3d51ef68	0.051253706
157	0xbcaee1d4	-0.021347918
158	0xbd857d2c	-0.06518015
159	0x3d23d79c	0.040000543
160	0x3d8e9d65	0.069636144
161	0xbe7f703b	-0.24945156
162	0x3c509b80	0.012732387
163	0x3db09104	0.086214095
164	0xbe2abc47	-0.16673385
165	0x3e0f18f4	0.13974363
166	0x3d9c2127	0.07623511
167	0x3d222393	0.039584707
168	0xbf4a8c07	-0.79119915
169	0x3a33eb9a	0.00068634155
170	0x3dd45e67	0.10369568
171	0x3d9f264c	0.077709764
172	0xbd3140bc	-0.043274626
173	0x3d5f17ce	0.05446606
174	0x3f28733f	0.6580085
175	0xbe2547f6	-0.16140732
176	0xbdc72ca1	-0.09725309
177	0x3dae281c	0.08503744
178	0x3daf109c	0.0854809
179	0xbe331d85	-0.1749173
180	0xbcb81e04	-0.02247525
181	0xbe0c3307	-0.1369134
182	0xbf238724	-0.63878083
183	0x3dc4b35b	0.09604522
184	0x3e162abb	0.14664738
185	0xbc8be4f4	-0.017076947
186	0x3da5efaf	0.08102357
187	0x3e01e75b	0.12685911
188	0xbdc8b4d2	-0.09800114
189	0xbdb07c14	-0.08617416
190	0x3e4238c7	0.18966971
191	0x3e56329e	0.20917746
192	0xbf0e2bf3	-0.5553581
193	0x3f18c587	0.596764
194	0x3b3619e5	0.002778643
195	0x3db2bcfe	0.08727454
196	0xbe940f3f	-0.28917882
197	0xbdfa22b3	-0.122136496
198	0xbe78ce33	-0.24297409
199	0x3e81d535	0.25357977
200	0xbc19cb91	-0.009386913
201	0x3cb891a5	0.022530386
202	0x3dc780c6	0.097413585
203	0x3e6cd3eb	0.23127715
204	0x3c0e9910	0.008703485
205	0x3995e0af	0.00028586897
206	0x3d0c7c4d	0.03429823
207	0xbec812c8	-0.3907683
208	0x3e662618	0.22475469
209	0xbd350409	-0.0441933
210	0xbe121269	-0.14264835
211	0xbe053a3f	-0.130105
212	0x3f2fe9f8	0.68716383
213	0x3e01765e	0.1264281
214	0xbec50865	-0.38482967
215	0x3cac2d08	0.021017566
216	0x3e396113	0.18103437
217	0xbe9e174d	-0.30877152
218	0xbdf3e8ba	-0.119096234
219	0xbb73a699	-0.0037178157
220	0xbde2a8f6	-0.11067383
221	0x3e38ac95	0.18034585
222	0x3eae9b6a	0.34102947
223	0xbd447873	-0.04796643
224	0x3e3c43b6	0.18385205
225	0xbcc7a80e	-0.024372127
226	0x3db4d46e	0.0882958
227	0x3e081103	0.1328774
228	0xbda10fc7	-0.078643374
229	0xbde871cc	-0.1134983
230	0x3d9280e4	0.0715349
231	0xbd2faac1	-0.042887453
232	0xbe79c427	-0.24391232
233	0xbe156dd9	-0.14592685
234	0x3aac7fca	0.0013160643
235	0x3dd403b2	0.10352267
236	0xbdd873d0	-0.105689645
237	0x3d116113	0.035492968
238	0x3ea6ff5a	0.32616693
239	0xbe5e1b2e	-0.21690056
240	0xbdcc73ce	-0.099830255
241	0x3deaad7f	0.11458873
242	0xbcb36150	-0.021896988
243	0x3edf890c	0.43659246
244	0xbbee775d	-0.007277413
245	0x3b8b8bb2	0.0042585963
246	0x3e8323ee	0.2561335
247	0x3d10251b	0.035191637
248	0x3e818e18	0.2530372
249	0xbe61bdc5	-0.22045048
250	0xbcb04e11	-0.0215216
251	0xbd448680	-0.04797983
252	0x3d8cf81a	0.06883259
253	0xbebbfdff	-0.3671722
254	0xbd0fe151	-0.035126988
255	0x3d99d34f	0.07511007

net.2.bias f4 [64]
0	0x3eb39aa6	0.35078925
1	0x3ca83dad	0.020537222
2	0x3ee22508	0.44168878
3	0x3f734abc	0.9503591
4	0x3f48ea06	0.7848209
5	0x400067df	2.0063398
6	0x3e391746	0.18075284
7	0xba40d51b	-0.0007355974
8	0x3ecf4f84	0.40490353
9	0xbd868b1c	-0.06569502
10	0x3f88ede6	1.0697601
11	0x3ef4430b	0.477074
12	0x3d0a3ab3	0.033747386
13	0x3bef8a61	0.007310197
14	0x3f7219b7	0.9457049
15	0x3f119eb9	0.56882817
16	0xbe41203a	-0.1885995
17	0xbe243a2b	-0.16037814
18	0xbea85539	-0.3287752
19	0x3f489130	0.7834654
20	0x3e2d5899	0.16928329
21	0xbe04f71f	-0.12984894
22	0x3f042a3d	0.5162695
23	0xbf5d2fbd	-0.8640097
24	0x3fd00239	1.6250678
25	0x3e914b5f	0.28377816
26	0xbd01ae6a	-0.031660475
27	0x3fc7081c	1.554935
28	0x3f973240	1.181221
29	0x3f92f5f8	1.1481314
30	0x3f0d4c4e	0.55194557
31	0xbd08e697	-0.033423033
32	0x3f8874b7	1.0660619
33	0x3e01d019	0.12677039
34	0x3e819020	0.2530527
35	0xbe898a5e	-0.26863378
36	0xbf0488b4	-0.5177109
37	0x3e1d1825	0.15341242
38	0x3f7e749e	0.99396694
39	0xbe29ee8d	-0.16594906
40	0x3fa894d9	1.3170425
41	0x3f27193b	0.65272874
42	0x3fb8feb1	1.4452726
43	0xbdd46a96	-0.10371892
44	0xbe4b47c2	-0.19851592
45	0xbf15929d	-0.5842684
46	0xbca8852e	-0.020571318
47	0x3d027956	0.031853996
48	0x3fa3e412	1.2803977
49	0x3fbea415	1.4893824
50	0x3ef93cdf	0.48679253
51	0x3f801d18	1.0008879
52	0x3f4e2bed	0.80535775
53	0x3f733787	0.95006603
54	0x3f9afa60	1.2107658
55	0xbeea1809	-0.45721462
56	0x3f40e81e	0.7535418
57	0x3f52ee01	0.82394415
58	0x3f626896	0.88440835
59	0x3fc22422	1.5167277
60	0x3f93e38e	1.1553819
61	0xbd188fa7	-0.037246373
62	0x3f250218	0.6445632
63	0xbdccf4d3	-0.10007634

net.4.weight f4 [64, 64]
0	0xba6940e8	-0.00088979164
1	0xbeda0bfb	-0.42587265
2	0x3cb5ce9c	0.022193246
3	0x3e1e28e8	0.15445292
4	0xbea89679	-0.32927302
5	0xbdf12b2a	-0.11775811
6	0xbe94fef3	-0.2910076
7	0x3c3f5e7d	0.011680243
8	0x3d94f896	0.072739765
9	0xbbd7335b	-0.0065674013
10	0xbe83f73c	-0.25774562
11	0xbe12c73a	-0.14333811
12	0x3e8b5c32	0.27218777
13	0x3d3dd16c	0.0463423
14	0xbed48a34	-0.4151169
15	0xbe4e278e	-0.20132276
16	0x3e51ea97	0.20499645
17	0x3dc02236	0.09381525
18	0xbedc8f24	-0.43077958
19	0xbc57b1b9	-0.013164931
20	0xbe0b87cb	-0.1362602
21	0xbd17d9b8	-0.037072867
22	0xbec31b4b	-0.3810676
23	0xbe46c395	-0.19410546
24	0x3d0af956	0.03392919
25	0x3e290993	0.16507559
26	0xbd8d65fc	-0.069042176
27	0x3d0e994e	0.03481417
28	0x3e421518	0.18953359
29	0xbe3cdf40	-0.18444538
30	0xbe659f1b	-0.22423975
31	0xbd13122e	-0.03590601
32	0xbe6edc86	-0.2332631
33	0x3e246865	0.16055448
34	0x3e97096a	0.2949937
35	0xbddd686c	-0.108109325
36	0xbe690db0	-0.22759128
37	0xbdbef2b6	-0.09323637
38	0xbca5a680	-0.020220995
39	0x3ded05c2	0.11573364
40	0xbdca8bdf	-0.098899595
41	0xbdac14ed	-0.08402429
42	0x3da84067	0.08215409
43	0xbe29fa83	-0.16599469
44	0x3dbae840	0.091263294
45	0xbed5a2d4	-0.4172579
46	0xbcdd4c9d	-0.027014071
47	0x3def0e22	0.116726175
48	0xbe85feae	-0.26170868
49	0x3d41dca1	0.04732955
50	0xbdebc01c	-0.11511251
51	0xbdec2f69	-0.1153248
52	0x3e3fb097	0.18719707
53	0xbe90611f	-0.28199098
54	0x3d98af68	0.07455331
55	0x3dc74828	0.097305596
56	0x3d9465b3	0.0724596
57	0x3dff33f7	0.124610834
58	0x3e9016d1	0.28142408
59	0xbd5dad76	-0.054120503
60	0xbe05cbc4	-0.13066012
61	0xbc361d83	-0.011115435
62	0xbccbedea	-0.02489372
63	0x3db9ee6a	0.09078677
64	0xbbc6c770	-0.0060662553
65	0xbe27c438	-0.16383445
66	0x3dbabe24	0.09118298
67	0x3c81af2d	0.0158306
68	0xbd431e07	-0.04763606
69	0xbd53ae43	-0.05167986
70	0xbde54c2c	-0.11196169
71	0xbe04994e	-0.12949106
72	0xbde63dbc	-0.11242244
73	0xbd959834	-0.07304421
74	0xbbd5ba77	-0.0065224725
75	0xbcd12c36	-0.025533777
76	0x3bdc6978	0.00672644
77	0x3c463490	0.012097493
78	0x3e11993f	0.14218615
79	0xbc94c33d	-0.018159503
80	0x3c9f2634	0.019427396
81	0x3d27112c	0.04078786
82	0x3d18bc92	0.03728921
83	0x3ad18399	0.0015984654
84	0xbda50339	-0.08057255
85	0xbd7274ec	-0.059193537
86	0xbd748fee	-0.059707575
87	0x3dd694db	0.10477611
88	0x3b54b641	0.0032457265
89	0xbcee20bd	-0.029068345
90	0x3c1b6e2c	0.009486716
91	0xbd0bab70	-0.034099042
92	0xbdbdbc39	-0.09264416
93	0xbe0a685a	-0.1351637
94	0xbe885003	-0.26623544
95	0x3d3ee22c	0.046602413
96	0xbddf904b	-0.109161936
97	0xbdd280a4	-0.102784425
98	0xbd6be5bf	-0.05759215
99	0x3d788ae8	0.060679346
100	0xbe498b00	-0.1968193
101	0xbd617b24	-0.055049077
102	0xbd82908d	-0.06375227
103	0xbd631107	-0.05543616
104	0x3d854e41	0.065090664
105	0xbdbfd883	-0.09367468
106	0xbd128b26	-0.035777234
107	0x3bd7f267	0.006590176
108	0x3dd88626	0.10572462
109	0xbdd5caaf	-0.104390495
110	0xbdbe66dc	-0.092969626
111	0x3dce410c	0.100710005
112	0xbd805f78	-0.06268209
113	0x3d8fb7b8	0.070174634
114	0xbe12163b	-0.14266293
115	0xbd643ff1	-0.05572504
116	0xbda3854a	-0.07984407
117	0x3c33d501	0.010976077
118	0x3de8c765	0.113661565
119	0xbc3572f6	-0.011074772
120	0x3c8369eb	0.016041717
121	0xbbc57001	-0.006025315
122	0xbc90c097	-0.017669959
123	0xbe0023f3	-0.12513714
124	0x3da6db8e	0.081473455
125	0x3d254894	0.04035242
126	0xbcc53a2f	-0.024075596
127	0x3d9cfd02	0.07665445
128	0xbce1b2e0	-0.027551115
129	0xbe04de3a	-0.12975398
130	0xbf081df7	-0.5317072
131	0xbeafa339	-0.34304217
132	0xbe199159	-0.14996852
133	0x3d7e5c8b	0.062099975
134	0xbe5bbb66	-0.21458206
135	0xbb6a815e	-0.0035782675
136	0x3ec99627	0.3937237
137	0x3d65438f	0.055972632
138	0xbcce8167	-0.025208188
139	0xbd94e588	-0.07270342
140	0xbe18da89	-0.14927115
141	0xbde75204	-0.1129494
142	0xbe556831	-0.20840527
143	0x3d465456	0.048420273
144	0xbdfac29c	-0.1224415
145	0x3db1cabc	0.08681247
146	0x3df69bad	0.120414115
147	0x3f0c17c5	0.5472377
148	0xbd86624e	-0.06561719
149	0xbd3a0743	-0.04541708
150	0xbd0d56d7	-0.034506645
151	0xbea05655	-0.31315866
152	0xbe5d5aaa	-0.21616617
153	0xbb578c20	-0.0032889917
154	0xbea787ce	-0.32720798
155	0xbe04cfc9	-0.12969889
156	0x3d91d6b2	0.07121028
157	0xbe95a4ec	-0.29227388
158	0x3d63264b	0.05545644
159	0xbdc4ed55	-0.0961558
160	0xbd77b7cd	-0.06047802
161	0x3dcf7ba7	0.10131007
162	0x3f2ba479	0.6704784
163	0x3c35bb5b	0.011092032
164	0xbc61115c	-0.013737049
165	0xbeab5e6e	-0.33470482
166	0xbe11d75c	-0.1424231
167	0xbd760a81	-0.06006861
168	0xbe7d893c	-0.24759382
169	0xbe4f9960	-0.20273352
170	0xbd4784f7	-0.04871079
171	0xbd94a178	-0.0725736
172	0x3ea5b8a1	0.32367423
173	0xbe456561	-0.19276954
174	0xbd4d9f96	-0.05020102
175	0xbdad395c	-0.08458206
176	0xbe20fc07	-0.15721141
177	0x3dd10a23	0.102070116
178	0xbe81a83c	-0.25323665
179	0x3e0646fb	0.13113014
180	0x3d8e5b42	0.06951
181	0xbe476b54	-0.19474536
182	0xbbda28c3	-0.006657691
183	0xbf098c28	-0.53729486
184	0xbe7e5746	-0.2483798
185	0x3c278c51	0.010226325
186	0xbe3ec5f7	-0.18630205
187	0x3e29a012	0.16564968
188	0xbec6e616	-0.38847417
189	0x3d340afb	0.043955784
190	0x3d79da7e	0.060999386
191	0xbdf0bd30	-0.11754835
192	0xbcd8aae9	-0.026448684
193	0xbef92ae1	-0.48665527
194	0x3e213958	0.15744531
195	0xbe047d03	-0.12938313
196	0x3d8dfd2e	0.06933056
197	0xbd97cf1d	-0.074125506
198	0xbd022101	-0.031769756
199	0x3dbd58c3	0.092454456
200	0xbe0a33e8	-0.13496363
201	0x3c4c2d82	0.012462022
202	0x3bf1c94d	0.0073787333
203	0x3d90df05	0.070737876
204	0x3cacad6d	0.02107879
205	0xbdde47ec	-0.10853562
206	0xbaf0099a	-0.0018313408
207	0xbe89487c	-0.26813114
208	0x3e9e1178	0.30872703
209	0xbc0ed3ca	-0.008717487
210	0x3e2a6bae	0.16642639
211	0xbc7a3ffd	-0.015274045
212	0xbf0b05b2	-0.54305565
213	0xbd318f7d	-0.04334973
214	0xbe8ca83f	-0.27472112
215	0xbd9a2d16	-0.07528131
216	0x3e99788c	0.29974782
217	0x3cc220ac	0.02369722
218	0xbd910381	-0.070807464
219	0xbcd8c376	-0.02646039
220	0xbe2b1bf2	-0.16709879
221	0x3c86e9b7	0.016468866
222	0xbe494fd7	-0.19659363
223	0xbda9b855	-0.08287112
224	0xbbb74940	-0.005593449
225	0x3d4fbd4b	0.050717633
226	0xbd77bcf4	-0.060482934
227	0xbdce9883	-0.10087683
228	0x3d4076a0	0.04698813
229	0x3e6c5cac	0.23082227
230	0xbe327b39	-0.17429818
231	0xbdb0ca09	-0.08632285
232	0x3e059a02	0.1304703
233	0x3e3af5c1	0.1825781
234	0x3d7af6e5	0.061270613
235	0xbd4844b7	-0.048893657
236	0xbe9bc9f0	-0.30427504
237	0x3d285967	0.041100886
238	0x3d23265c	0.039831504
239	0x3cb6aa80	0.022298098
240	0xbda7f2b1	-0.082005866
241	0xbe99effc	-0.30065906
242	0xbc2fa67d	-0.010720846
243	0xbe15347a	-0.145708
244	0x3d5a8cb7	0.053356852
245	0x3e810590	0.25199556
246	0x3da343d8	0.079719245
247	0x3df09d30	0.11748731
248	0xbd326108	-0.043549567
249	0xbb1a0027	-0.0023498626
250	0x3e9da6a6	0.30791205
251	0xbefe6ac5	-0.49690834
252	0xbe2208ee	-0.15823719
253	0x3d95a244	0.0730634
254	0xbd73e4a4	-0.05954422
255	0xbdb5c0a6	-0.088746354

net.4.bias f4 [64]
0	0xbd06c1d4	-0.032899693
1	0xbb98ac4f	-0.0046592127
2	0x3eb24169	0.3481553
3	0x3f998def	1.199644
4	0xbd9cf8e8	-0.076646626
5	0x3f9696b9	1.1764747
6	0x3e732fb1	0.23748662
7	0xbead2df6	-0.33824128
8	0xbd8c49e0	-0.06850028
9	0x3e15c085	0.14624222
10	0x3fd339cf	1.6502017
11	0xbf309081	-0.68970495
12	0x3f90833f	1.1290053
13	0xbb11dd42	-0.0022257124
14	0x3f73cfcb	0.9523894
15	0x3fab78df	1.3396262
16	0x3e87f42a	0.2655347
17	0x3fbeedc8	1.4916315
18	0x3f3188d3	0.693494
19	0x3fee9d10	1.8641682
20	0xbe1a93c3	-0.15095429
21	0x3f4c95ae	0.79915893
22	0x3eb80185	0.3593866
23	0x3da78a9a	0.08180733
24	0x3f8a09e8	1.0784273
25	0xbe113cbd	-0.14183326
26	0x3f2ee622	0.68319905
27	0x3e48b97e	0.1960201
28	0xbc48b46e	-0.012250049
29	0x3ddd8db7	0.108180456
30	0xbeca312a	-0.39490634
31	0xbe126786	-0.14297304
32	0x3eec3f8b	0.4614223
33	0x3fb8f55b	1.4449877
34	0xbb75e98b	-0.0037523236
35	0xbf0b6aba	-0.54459727
36	0xbf02eef8	-0.5114589
37	0xbea4d388	-0.32192636
38	0x3f1da3c9	0.6157804
39	0x3f2557b6	0.6458696
40	0x3e41cfbf	0.18926905
41	0xbe09f9da	-0.13474217
42	0xbf6a225e	-0.9145869
43	0x3ed3e9a6	0.41389197
44	0x3f351203	0.7073061
45	0x3ed44713	0.41460475
46	0xbe0cf16d	-0.13763972
47	0x3f311098	0.69165945
48	0x3fae89e3	1.363583
49	0x3fee3c01	1.8612062
50	0x3fbf33e7	1.4937714
51	0x3ef2aa1c	0.47395408
52	0x3f9ee191	1.2412587
53	0xbe9a8a87	-0.30183813
54	0x3be3f66a	0.006956865
55	0xbe8a0c71	-0.26962617
56	0xbe91837f	-0.28420636
57	0xbe2b0b56	-0.16703543
58	0xbe0bb3a8	-0.13642752
59	0x3f026f4c	0.50951076
60	0x3fcbe6c1	1.5929796
61	0x3fc1f7aa	1.5153706
62	0xbd7593b1	-0.059955303
63	0x3fcaf8fc	1.5857234

net.6.weight f4 [3, 64]
0	0xbdd3f974	-0.10350314
1	0xbc762956	-0.015024504
2	0xbf1a5c8c	-0.60297465
3	0xbdcd477b	-0.100233994
4	0xbd527175	-0.051377732
5	0xbe3de2cd	-0.18543549
6	0xbc4f1076	-0.012638202
7	0x3da936ae	0.082623824
8	0xbc935c52	-0.017988358
9	0xbeb91958	-0.36152148
10	0xbbea517d	-0.0071508274
11	0x3e1700d8	0.14746416
12	0xbd9db898	-0.07701224
13	0x3e0a9fd8	0.13537538
14	0xbe8d62e5	-0.27614513
15	0xbd45c8d8	-0.048287243
16	0xbc1cf048	-0.009578772
17	0xbcd26528	-0.025683
18	0x3d2e042d	0.04248445
19	0x3bf4a8c7	0.007466409
20	0xbdfffc6a	-0.12499316
21	0xbc6a0272	-0.01428281
22	0xbe16d1a7	-0.14728414
23	0xbe7899ce	-0.24277422
24	0xbe63a880	-0.22232246
25	0x3dd36e74	0.10323802
26	0x3c39453c	0.011308011
27	0xbcc4de0f	-0.024031667
28	0xbd0a972e	-0.033835582
29	0x3cf241e5	0.029572437
30	0xbe4c59a5	-0.19956072
31	0x3acec147	0.0015774154
32	0xbf1f1a89	-0.62149864
33	0xbd977505	-0.073953666
34	0x3b028506	0.0019915714
35	0x3cbcd24f	0.023049502
36	0x3cd32f6a	0.025779445
37	0x3dd40f11	0.10354436
38	0xbe96a1aa	-0.29420215
39	0xbf71568b	-0.9427268
40	0xbeca4ac5	-0.3951017
41	0x3c97ccf4	0.018530346
42	0x3d3bc2f9	0.045840237
43	0x3da16b54	0.07881799
44	0xbd8c7ce7	-0.06859761
45	0x3bc2d921	0.005946294
46	0xbc969ac6	-0.018384349
47	0x3bab7da1	0.005233482
48	0xbedcf229	-0.43153504
49	0x3e9aca5c	0.30232513
50	0xbd28380f	-0.041069087
51	0xbd71538a	-0.05891756
52	0xbcb7fbd2	-0.022458944
53	0x3be650e2	0.007028685
54	0xbd6c3dc7	-0.057676103
55	0xbeee70ba	-0.4657038
56	0x3e008d5b	0.12553923
57	0xbd7ce48f	-0.061741408
58	0xbd0f0cdb	-0.03492437
59	0xbc6ce32a	-0.014458457
60	0xbd6281b6	-0.055299483
61	0x3af1b62f	0.0018441136
62	0x3c9a444e	0.018831398
63	0xbd6bc9a6	-0.057565354
64	0x3dabd23e	0.0838971
65	0x3cbec6e8	0.023288205
66	0x3eb5420a	0.35401946
67	0xbe03ce24	-0.12871605
68	0x3e29a5b8	0.16567123
69	0xbce7e615	-0.028307954
70	0x3d9a9039	0.075470395
71	0xbd906698	-0.07050818
72	0xbd241cd7	-0.040066566
73	0xbc544f48	-0.012958355
74	0xbd865178	-0.06558508
75	0xbb8d6961	-0.0043155407
76	0xbf03b744	-0.51451516
77	0xbe4b83bd	-0.19874473
78	0xbf220a0e	-0.6329659
79	0xbdda0cb4	-0.10646954
80	0xbc3ae7b7	-0.011407784
81	0xbef89e69	-0.48558357
82	0xbdb0f97b	-0.086413346
83	0xbc018283	-0.007904652
84	0x3d515ac7	0.051111963
85	0xbd8f105c	-0.06985542
86	0x3d788d58	0.06068167
87	0xbbad8302	-0.0052951584
88	0xbecf7dbb	-0.40525612
89	0xbebec74d	-0.3726143
90	0xbd98f9a5	-0.07469491
91	0xbc7a895f	-0.015291541
92	0xbdefd5d4	-0.11710706
93	0xbe1c097b	-0.15237992
94	0x3e02533a	0.12727061
95	0x3cd70b6c	0.026250564
96	0xbe7bc7bc	-0.24587911
97	0xbc32440b	-0.0108804805
98	0x3ac8bf43	0.001531579
99	0x3ddf39bf	0.10899686
100	0xbb8462f0	-0.0040401146
101	0x3d790dd4	0.060804203
102	0x3d4978a4	0.049187317
103	0xbe1368cd	-0.14395447
104	0x3e3188f0	0.17337394
105	0x3d8af72a	0.06785424
106	0x3ebebb8c	0.37252462
107	0xbd1df763	-0.038566004
108	0xbe0f98fc	-0.14023203
109	0xbea3c87c	-0.31988895
110	0xbc7850ce	-0.015155984
111	0xbdd2f72a	-0.10301049
112	0xbe5f5581	-0.21809961
113	0x3cfe6fa0	0.031059086
114	0xbc9e5815	-0.01932911
115	0x3c8887df	0.01666635
116	0xbeb3d63c	-0.35124385
117	0xbedfd1e4	-0.4371482
118	0x3d1eba14	0.038751677
119	0x3eab7a6b	0.33491835
120	0xbe9207d9	-0.28521612
121	0xbaacdc00	-0.0013188124
122	0xbd52e2f3	-0.051485967
123	0x3d0f2ed0	0.034956753
124	0xbd9938e4	-0.07481554
125	0xbd0f6d7f	-0.035016533
126	0x3c70fe0a	0.014709005
127	0xbe92810a	-0.28614074
128	0xbe4e4289	-0.20142569
129	0x3d3cc5d7	0.046087112
130	0xbe7b1ecb	-0.24523465
131	0xbe92c458	-0.28665423
132	0xbdc967b3	-0.09834232
133	0x3d10d30b	0.035357516
134	0x3d434235	0.04767056
135	0xbc8fda9a	-0.017560292
136	0x3c945365	0.018106172
137	0x3c8161e4	0.015793748
138	0xbcef4055	-0.02920548
139	0xbd9c9b36	-0.07646792
140	0x3d020a52	0.031748123
141	0x3d4ac5b4	0.04950495
142	0xbd19c153	-0.037537884
143	0xbdd78b25	-0.105245866
144	0xbe8af368	-0.2713883
145	0xbd270c64	-0.0407833
146	0xbccc228e	-0.02491882
147	0x3c856d66	0.016287517
148	0xbd302d1d	-0.043011773
149	0xbe958cd8	-0.29209018
150	0x3bdca99b	0.0067340857
151	0xbd9f166f	-0.07767951
152	0xbd87d213	-0.06631865
153	0xbc88741d	-0.01665693
154	0xbeb48946	-0.3526098
155	0xbe72ae5f	-0.2369933
156	0x3da2369e	0.07920574
157	0x3cb41f16	0.02198748
158	0x3c8b9ea2	0.017043415
159	0xbe54d654	-0.20784885
160	0xbd33dc82	-0.043911465
161	0x3c050994	0.008119959
162	0xbd9ca330	-0.07648313
163	0x3d7887c7	0.060676362
164	0xbc143675	-0.009046187
165	0xbe867105	-0.26258102
166	0x3cfc6b8e	0.030813005
167	0x3d308784	0.043097988
168	0xbd023413	-0.031787943
169	0x3c6ef53d	0.014584837
170	0x3da510a2	0.08059813
171	0xbf035255	-0.51297504
172	0x3c018686	0.007905608
173	0xbc23bbac	-0.009993475
174	0x3ced62c0	0.028977752
175	0xbe18318e	-0.14862654
176	0x3c823992	0.015896592
177	0x3dae7405	0.08518223
178	0xbd1b983d	-0.037986983
179	0xbd3104a0	-0.0432173
180	0x3d46bd0c	0.048520133
181	0x3deb1403	0.11478426
182	0xbdaa1591	-0.08304895
183	0x3ba1363d	0.004919796
184	0x3d9314dc	0.07181713
185	0x3d83b7f2	0.06431569
186	0x3dd92f54	0.1060473
187	0xbe8eb63c	-0.2787341
188	0xbaf38908	-0.0018580267
189	0xbdb3a5bd	-0.087718464
190	0xbbf1f9f1	-0.0073845317
191	0xbde3f355	-0.11130396

net.6.bias f4 [3]
0	0xbf8df9ac	-1.1091819
1	0xbf90275a	-1.1262009
2	0xbf833baa	-1.0252583

net.0.weight f4 [64, 8]
0	0x3e8394d9	0.256995
1	0x3e19f583	0.15035062
2	0x3f0c08bc	0.5470083
3	0xbf9fa55a	-1.2472336
4	0xc0667286	-3.60074
5	0xc05709ed	-3.3599808
6	0x3fe01936	1.7507694
7	0xbc70fbd8	-0.014708482
8	0xbf544080	-0.8291092
9	0x3e4091f7	0.18805681
10	0xbd18dea4	-0.0373217
11	0xbf6d0b00	-0.9259491
12	0x3fd3caea	1.65463
13	0x402519a8	2.579691
14	0xbf84812e	-1.0351923
15	0x3cf3e22d	0.029770935
16	0xbe8c051a	-0.27347642
17	0x3d21b72d	0.03948133
18	0x3d9f04f5	0.07764617
19	0xc0512e4b	-3.2684505
20	0x4035db1e	2.8414989
21	0x400bb8fe	2.183166
22	0xbe001e98	-0.1251167
23	0x3d54d6d7	0.0519627
24	0x3ef0b5e6	0.47013777
25	0xbec6fd8c	-0.38865316
26	0x3e5afe91	0.21386172
27	0xbfe6bc90	-1.8026295
28	0x3f2c2020	0.6723652
29	0x40006b71	2.0065577
30	0xbed140ab	-0.4086965
31	0x3c07d308	0.00829006
32	0x3df5f419	0.120094486
33	0x3e9fbe8c	0.31200063
34	0xbf02de76	-0.511207
35	0x403cf3b0	2.9523735
36	0xbf5f4b62	-0.872244
37	0xc01ad3fc	-2.4191885
38	0xbec84cd4	-0.39121115
39	0x3c14078f	0.009035005
40	0xbe054ad6	-0.13016829
41	0x3e93be2b	0.28856024
42	0xbe98137c	-0.29702365
43	0x3f88cf65	1.0688292
44	0x3fbf1b33	1.4930176
45	0xc00fdfd5	-2.2480366
46	0x3e842bde	0.25814718
47	0x3d522790	0.05130726
48	0x3e3fbc99	0.18724288
49	0x3e0b8758	0.13625848
50	0xbee5d5f3	-0.44889793
51	0x4031c803	2.7778327
52	0xbe30b692	-0.17257145
53	0xc00c0878	-2.188017
54	0xbf0ac5c4	-0.54208016
55	0x3d35aca7	0.044354107
56	0xbf60653e	-0.87654483
57	0x3dbe99c5	0.09306673
58	0x3ca9620c	0.020676635
59	0xbf741409	-0.9534307
60	0x3fd82c33	1.6888489
61	0x3fea4f68	1.8305483
62	0xbf6ed10b	-0.93287724
63	0x3d51046f	0.05102962
64	0x3d646bae	0.055766754
65	0x3d3949d8	0.04523644
66	0xbe39f695	-0.1816047
67	0xbe9ab08e	-0.30212826
68	0x3cfc3920	0.030788958
69	0xbd7f1f38	-0.062285632
70	0x3e65ba52	0.22434357
71	0xbe0a54a2	-0.13508847
72	0xbec46ac5	-0.3836271
73	0x3e7a7072	0.24456957
74	0x3e0163ad	0.1263568
75	0xc02141a4	-2.5196314
76	0x40185674	2.3802767
77	0xbf39c10b	-0.72560185
78	0x3e110a32	0.14164045
79	0x3dcd1513	0.10013785
80	0xbec10ab1	-0.3770347
81	0xbf031c1d	-0.5121477
82	0x3e498156	0.19678244
83	0xc044f6e9	-3.0775702
84	0x3dfa2a31	0.122150786
85	0x4002af06	2.0419326
86	0xbdb802e1	-0.08984924
87	0x3dfb4337	0.122686796
88	0xbe9446bf	-0.28960225
89	0xbf1d4b60	-0.6144314
90	0xbf35e8bf	-0.7105827
91	0x3f22690b	0.6344153
92	0xbf51bef3	-0.8193199
93	0x3f8cf584	1.1012425
94	0xbf0e0b0f	-0.55485624
95	0x3d9069e5	0.07051448
96	0xbe798a28	-0.24369109
97	0xbe00b0c7	-0.12567435
98	0xbe8c5f4b	-0.27416453
99	0xbe2d9b6b	-0.16953819
100	0x3e190a46	0.14945325
101	0x3e56cb4e	0.20975992
102	0xbe0046d5	-0.1252702
103	0xbe920a92	-0.2852369
104	0xbe05dd8d	-0.13072796
105	0x3efd32ea	0.49452907
106	0x3ed56e6b	0.41685805
107	0xbfe4df1f	-1.7880591
108	0x40506e2c	3.2567244
109	0x3e81195d	0.25214663
110	0xbe78f092	-0.2431052
111	0xbd86bb19	-0.06578655
112	0xbec3994f	-0.38202903
113	0xbe8d8b21	-0.2764521
114	0xbe82c2e7	-0.25539324
115	0x40568bb7	3.3522775
116	0xc0390cbe	-2.8914027
117	0xc01c369b	-2.4408329
118	0xbea6d59a	-0.3258484
119	0x3da1850d	0.078867055
120	0xbe9f9c01	-0.3117371
121	0x3edb5123	0.4283534
122	0x3ed02f4b	0.40661082
123	0xbf372542	-0.71541226
124	0xbf7e1f99	-0.99266964
125	0xbf985ef6	-1.190398
126	0x3f440b55	0.7657979
127	0xbdf1165d	-0.117718436
128	0xbe88e676	-0.26738328
129	0xbf63e790	-0.8902521
130	0x3e8a0e4a	0.26964027
131	0x3f5c220d	0.8598946
132	0xbf6044dd	-0.8760508
133	0x3fc9abdf	1.5755576
134	0xbe5e7334	-0.21723634
135	0xbcedc844	-0.029026158
136	0x3cf8e5ee	0.030383077
137	0x3ebda76c	0.37041795
138	0x3d2bbcab	0.041927975
139	0xbca10132	-0.01965389
140	0x3e08c3fa	0.13356009
141	0xbd930d3a	-0.07180257
142	0xbf1e7477	-0.6189646
143	0xbe3ed93c	-0.18637556
144	0x3eb14ad1	0.34627393
145	0xbeb3c63d	-0.3511218
146	0xbd5531ff	-0.052049633
147	0x4076772b	3.8510234
148	0xc008b4ad	-2.1360276
149	0x3f3b3736	0.7313112
150	0xbf5f4e8e	-0.8722924
151	0x3dc5dc89	0.09661204
152	0xbe8ee21a	-0.27906877
153	0xbeb7a612	-0.3586889
154	0xbee1944d	-0.44058457
155	0x3ff90e5e	1.945751
156	0xbf5bbd68	-0.85835886
157	0xc02769d6	-2.6158347
158	0x3dad9d8b	0.084773146
159	0x3e017a98	0.12644422
160	0x3de140bb	0.109986745
161	0x3d17c498	0.03705272
162	0xbd98ac70	-0.07454765
163	0x3e096af8	0.13419712
164	0x3e2821f6	0.16419205
165	0xbe9fdf26	-0.31224936
166	0x3e3ea3d6	0.18617186
167	0xbe7a9e3c	-0.24474424
168	0x3e82d470	0.25552702
169	0x3ee909ea	0.45515376
170	0xbb186050	-0.0023250766
171	0x40427f70	3.0390282
172	0x3ded6e7f	0.11593341
173	0xc00943c0	-2.1447601
174	0xbec7b4bb	-0.39005074
175	0xbd39ae42	-0.0453322
176	0x3dc36c8a	0.095421866
177	0x3de74d8f	0.1129409
178	0xbe3624a9	-0.17787422
179	0x40280055	2.6250203
180	0xbf2c2b82	-0.6725389
181	0xc0364189	-2.84775
182	0x3ea79a0b	0.32734713
183	0x3cde7ad5	0.02715818
184	0x3e4f9387	0.20271121
185	0xbe849566	-0.25895232
186	0xbcd3fc71	-0.02587721
187	0x40537061	3.303734
188	0x3feeeacb	1.8665403
189	0x3fc6c986	1.553025
190	0xbfb14178	-1.3848104
191	0x3d0879bc	0.03331922
192	0x3e14bb36	0.1452454
193	0xbdf7ab67	-0.12093239
194	0x3e387dbf	0.18016718
195	0xc04f6cf8	-3.241026
196	0x3f96534d	1.1744171
197	0x400b7a8b	2.1793544
198	0xbe767d60	-0.24071264
199	0x3c343ef0	0.011001334
200	0xbeb70af0	-0.35750532
201	0x3e6c57ea	0.23080412
202	0xbedc977d	-0.43084326
203	0xbc42374c	-0.011854004
204	0xbe8740bc	-0.26416576
205	0x3df8e0c4	0.12152246
206	0x3f0f1352	0.55888855
207	0xbda3a494	-0.07990375
208	0x3f05e0b4	0.52295995
209	0x3e827ef9	0.25487497
210	0xbe9b9460	-0.3038664
211	0xc0307d19	-2.7576354
212	0x4093b424	4.61574
213	0x3fe456f9	1.7839042
214	0x3daef051	0.085419305
215	0xbd43d0c6	-0.047806524
216	0xbee67a82	-0.4501534
217	0xbedf4c55	-0.43612924
218	0xbeb352a1	-0.35023978
219	0x4050d013	3.2626998
220	0xc03862be	-2.8810267
221	0xc023ad72	-2.5574613
222	0xbea41982	-0.3205071
223	0x3dab3230	0.08359182
224	0xbd9b2dc8	-0.075770915
225	0xbed89a9f	-0.42305467
226	0x3d0ca550	0.03433734
227	0xc03f8ea8	-2.993082
228	0xbfff131c	-1.9927707
229	0x4005d143	2.0908973
230	0x3e8b3566	0.27189177
231	0x3de3ed1a	0.11129208
232	0x3de8b0f6	0.113618776
233	0x3ef2f28e	0.4745068
234	0x3defeb94	0.11714855
235	0x3f1861e7	0.5952439
236	0x3f0a6384	0.540581
237	0x3f99ce06	1.2015998
238	0xbf105d32	-0.56392205
239	0xbe39857f	-0.18117331
240	0xbee5a0a6	-0.44849128
241	0xbd7f8f9d	-0.06239282
242	0xbe186ea2	-0.14885953
243	0x3f5c68ca	0.86097395
244	0x40099eb4	2.1503115
245	0x400e55f0	2.2239952
246	0xbfa18a90	-1.2620411
247	0x3d9d39b5	0.07677022
248	0x3d81d870	0.0634011
249	0xbe82a055	-0.2551295
250	0xbd2a4d4b	-0.04157762
251	0xc05f88a7	-3.4927156
252	0xc01ea27e	-2.4786677
253	0x400f494b	2.2388484
254	0x3e931e17	0.28733894
255	0x3d872f4a	0.066008165

net.0.bias f4 [64]
0	0xbfcd03a2	-1.6016734
1	0x3fa62420	1.2979774
2	0x3d9a9180	0.07547283
3	0x3f2fb1d5	0.68630725
4	0xbd8b4eef	-0.06802165
5	0xbf244acb	-0.64176625
6	0x3eabb8f0	0.33539534
7	0x3f524cf6	0.82148683
8	0xbc10d439	-0.00883966
9	0xbec29cf3	-0.38010368
10	0xbf3de15f	-0.74172014
11	0x3eae22a6	0.3401081
12	0xbd2beb88	-0.041972667
13	0x3f02fc3e	0.5116614
14	0x3eca18e5	0.39472118
15	0xbf4eb8bf	-0.8075065
16	0x3f817ae8	1.0115633
17	0x3f2fe5df	0.6871013
18	0x3f237362	0.63847935
19	0xbede14c9	-0.43375233
20	0x3f8822f2	1.0635664
21	0x3fafeafd	1.3743588
22	0xbe84f851	-0.259707
23	0x3fd69361	1.6763726
24	0x3eee258a	0.46513015
25	0x3eb55cf9	0.35422495
26	0x3f51fba7	0.82024616
27	0x3d108c46	0.035290025
28	0xbf1f4535	-0.62214977
29	0x3f21435a	0.62993395
30	0x3fe09863	1.7546505
31	0xbfa5c9d5	-1.2952219
32	0x3f37c4a3	0.7178442
33	0xbe8b5f2e	-0.27221054
34	0xbe49acd9	-0.19694842
35	0xbe31eeb1	-0.1737621
36	0xbf9d7a09	-1.2302867
37	0x3ea91f96	0.3303191
38	0x3f4af977	0.79286903
39	0x3eeb176e	0.45916313
40	0x3f0e5864	0.55603623
41	0xbfb03b32	-1.3768065
42	0x3f43363e	0.7625464
43	0x3e43f992	0.19138172
44	0xbd820484	-0.063485175
45	0xbf03ef07	-0.515366
46	0x3f8950fd	1.0727841
47	0xbef88a42	-0.48542982
48	0x3f4f7933	0.8104431
49	0x3f3320d8	0.6997199
50	0xbe6f3110	-0.2335856
51	0x3ee221b8	0.4416635
52	0x3f6ed12c	0.9328792
53	0x3f12ba44	0.5731547
54	0x3eeed0c1	0.46643642
55	0x3efb478a	0.49078017
56	0x3f37cec3	0.7179987
57	0xbe8a9211	-0.27064565
58	0x3ef87c0f	0.4853215
59	0x3ee8fafc	0.45503986
60	0x3ed349d5	0.41267267
61	0xbe4fc4d2	-0.20289925
62	0x3f3f8d9a	0.7482544
63	0xbd8e0d4b	-0.06936129

net.2.weight f4 [64, 64]
0	0xbe5d9d8f	-0.21642135
1	0xbec4e8d9	-0.384589
2	0xbd8f9aa4	-0.07011917
3	0xbe89def5	-0.26927915
4	0x3e88c0af	0.26709506
5	0xbdfa9acb	-0.12236556
6	0x3ce456a3	0.027873343
7	0xbef5f39a	-0.48037416
8	0xbda68f7e	-0.08132838
9	0xbc9aea7d	-0.01891064
10	0xbe85f77f	-0.26165387
11	0xbbc0b12f	-0.005880497
12	0x3ca0c580	0.019625425
13	0xbe279986	-0.16367158
14	0x3d14b97d	0.036309708
15	0xbe53c73a	-0.20681468
16	0x3eb1ed9b	0.3475159
17	0xbf0029c5	-0.50063735
18	0x3dd81cb6	0.10552351
19	0xbbb842d5	-0.0056232014
20	0x3daa920a	0.08328636
21	0x3f052d8b	0.5202262
22	0xbc0276f3	-0.00796293
23	0x3de90480	0.113778114
24	0xbe8f4e5c	-0.2798947
25	0xbe4ab4ec	-0.19795579
26	0xbe7fef84	-0.24993712
27	0xbd894752	-0.067030564
28	0xbcc51f4d	-0.024062777
29	0x3d2d1541	0.042256597
30	0xbdb7a341	-0.08966685
31	0xbdc6d869	-0.09709246
32	0xbe023c21	-0.1271825
33	0xbbd607fa	-0.0065317126
34	0xbd85ecc4	-0.065393
35	0xbe91c67a	-0.28471738
36	0xbe412a6b	-0.18863837
37	0xbdd54059	-0.10412664
38	0xbcee98ee	-0.029125657
39	0x3dd472fc	0.10373494
40	0x3e9cd8bd	0.30634108
41	0xbe3a7d49	-0.18211855
42	0xbd02e715	-0.03195866
43	0x3d1b59e3	0.03792752
44	0x3d91c176	0.07116978
45	0xbe326c8a	-0.17424217
46	0xbdcab093	-0.0989696
47	0xbe90e78d	-0.2830166
48	0x3d92b404	0.071632415
49	0xbe0e9a3b	-0.13926022
50	0xbda7cb80	-0.081931114
51	0xbdfd0a41	-0.123554714
52	0x3dbb0384	0.0913153
53	0x3cd65e3c	0.026167981
54	0xbc718f71	-0.014743672
55	0xbd907a83	-0.07054617
56	0xbe723523	-0.23653083
57	0x3d9e97b5	0.077437796
58	0x3d557a76	0.05211874
59	0xbe129182	-0.1431332
60	0x3d61df27	0.055144455
61	0xbd411298	-0.047136873
62	0xbd81bbd4	-0.063346535
63	0xbe92aae4	-0.28646004
64	0xbd72cbec	-0.059276506
65	0x3c1f8010	0.009735122
66	0xbf0d5669	-0.55209976
67	0xbe225d39	-0.15855874
68	0x3d2f58c6	0.04280927
69	0xbd906c6c	-0.0705193
70	0xbcd09d45	-0.025465617
71	0x3d330770	0.043708265
72	0xbd775e34	-0.060392573
73	0xbdef6b59	-0.11690397
74	0xbe089603	-0.13338475
75	0xbd007f05	-0.031371135
76	0xbdd1f580	-0.102519035
77	0xbe8072f8	-0.25087714
78	0xbe52a413	-0.20570402
79	0xbe90b6a9	-0.2826436
80	0xbddc14a9	-0.10746128
81	0x3db4403a	0.08801313
82	0x3c91aae7	0.017781688
83	0xbe95553a	-0.29166585
84	0xbd9cf6d2	-0.07664265
85	0x3d2317e4	0.039817706
86	0xbdbc7266	-0.09201507
87	0xbe17ec4e	-0.14836237
88	0xbe602714	-0.21889907
89	0xbeadefd0	-0.33972025
90	0x3e9ef5d2	0.3104692
91	0xbe4c5f35	-0.19958194
92	0xbee52364	-0.44753563
93	0x3e594bfc	0.21220392
94	0xbe09ec43	-0.13469033
95	0xbe0c2ae7	-0.13688241
96	0xbe8e9f13	-0.2785574
97	0xbe95469c	-0.29155433
98	0xbb4568c0	-0.003012225
99	0xbe828eba	-0.25499517
100	0x3c6b23d8	0.014351808
101	0x3b4f117f	0.0031596122
102	0x3e02e17a	0.12781325
103	0x3de277da	0.11058016
104	0xbe89f681	-0.2694588
105	0xbe053e5f	-0.13012074
106	0xbc45f408	-0.012082107
107	0x3e29a674	0.16567403
108	0x3b0a20c0	0.002107665
109	0xbeae602a	-0.34057742
110	0x3c3a00be	0.011352716
111	0xbda54df5	-0.0807151
112	0xbdd2eb26	-0.10298757
113	0xbeaeff84	-0.34179318
114	0x3d43a1bc	0.047761664
115	0xbc4348a0	-0.011919171
116	0xbe9a4fda	-0.30139047
117	0x3d24bf22	0.04022134
118	0xbdb51bb9	-0.08843178
119	0x3e409663	0.18807368
120	0x3e22849a	0.15870896
121	0xbde62db0	-0.11239183
122	0xbd1b8fb1	-0.03797883
123	0xbe82aa6b	-0.25520644
124	0xbe349362	-0.17634347
125	0xbeac9a8b	-0.33711657
126	0xbeb31def	-0.34983775
127	0xbe2ae6b0	-0.16689563
128	0xbed2a3e6	-0.4114067
129	0x3e1dd134	0.15411836
130	0x3df877e2	0.12132241
131	0x3de0c286	0.109746024
132	0xbea1fb60	-0.31637096
133	0xbd7eb290	-0.06218201
134	0xbe2fa70d	-0.17153569
135	0x3e1ffd48	0.15623963
136	0x3d8cfe72	0.06884469
137	0xbe0c4f48	-0.13702118
138	0xbce4cab8	-0.027928695
139	0x3df83101	0.12118722
140	0xbd9af44e	-0.07566129
141	0xbda33071	-0.07968224
142	0xbe504b3d	-0.20341201
143	0xbe862144	-0.26197255
144	0x3d821c44	0.063530475
145	0x3cb36a33	0.021901226
146	0xbdcf5f23	-0.10125568
147	0x3d4f3c00	0.05059433
148	0xbcf772ef	-0.030206172
149	0xbe65d587	-0.22444735
150	0xbe66b11f	-0.22528504
151	0x3dbc39e4	0.09190729
152	0x3e88b858	0.26703143
153	0x3d1abcf3	0.037777852
154	0x3e92ab4f	0.28646323
155	0xbe0b2a59	-0.13590373
156	0x3d51ef68	0.051253706
157	0xbc07b3fe	-0.00828266
158	0xbd36f77c	-0.044669613
159	0x3d23d79c	0.040000543
160	0x3d9e0cfd	0.07717321
161	0xbe7f703b	-0.24945156
162	0x3c509b80	0.012732387
163	0x3db09104	0.086214095
164	0xbe2abc47	-0.16673385
165	0x3e1b1696	0.15145335
166	0x3ddce087	0.10785013
167	0x3d4dd74c	0.05025415
168	0xbf489a67	-0.783606
169	0x3a33eb9a	0.00068634155
170	0x3df12103	0.117738746
171	0x3df68005	0.120361365
172	0xbd3140bc	-0.043274626
173	0x3d5f17ce	0.05446606
174	0x3f2a7782	0.66588604
175	0xbe2547f6	-0.16140732
176	0xbdb7c9e9	-0.08974058
177	0x3dbf25c2	0.093333736
178	0x3daf109c	0.0854809
179	0xbe002248	-0.12513077
180	0xbb29ccd2	-0.0025909436
181	0xbe06eca1	-0.13176204
182	0xbf19c7fb	-0.6007077
183	0x3de3bfab	0.11120542
184	0x3e210ba9	0.15727104
185	0xbc8be4f4	-0.017076947
186	0x3dbb0c59	0.091332145
187	0x3e05ef38	0.13079536
188	0xbdbeec87	-0.09322458
189	0xbdb07c14	-0.08617416
190	0x3e4818e1	0.1954074
191	0x3e56329e	0.20917746
192	0xbf0e2bf3	-0.5553581
193	0x3f15c431	0.5850249
194	0x3af3c226	0.001859729
195	0x3d96efde	0.0736997
196	0xbe940f3f	-0.28917882
197	0xbdfa22b3	-0.122136496
198	0xbe7d06d3	-0.24709634
199	0x3e79a1f1	0.24378182
200	0xbc19cb91	-0.009386913
201	0x3cb891a5	0.022530386
202	0x3dc780c6	0.097413585
203	0x3e5ea6b1	0.21743275
204	0x3c0e9910	0.008703485
205	0xbbd119f0	-0.006381266
206	0x3cddcc24	0.02707488
207	0xbec812c8	-0.3907683
208	0x3e58bde1	0.21166183
209	0xbd7077e3	-0.058708083
210	0xbe1df26b	-0.15424506
211	0xbe053a3f	-0.130105
212	0x3f2c8742	0.6739389
213	0x3de991a1	0.1140473
214	0xbec50865	-0.38482967
215	0x3befc8c4	0.0073176343
216	0x3e2b8af5	0.16752227
217	0xbea36f6e	-0.31920952
218	0xbe06e3ea	-0.1317288
219	0xbbd25f7d	-0.0064200745
220	0xbde2a8f6	-0.11067383
221	0x3e2a0972	0.16605166
222	0x3ea7d565	0.32779995
223	0xbd447873	-0.04796643
224	0x3e31a547	0.17348205
225	0xbcc7a80e	-0.024372127
226	0x3db4d46e	0.0882958
227	0x3e081103	0.1328774
228	0xbda10fc7	-0.078643374
229	0xbe02ed7b	-0.12785904
230	0x3d6c084e	0.057625107
231	0xbd66bbd1	-0.05633146
232	0xbe83c35a	-0.2573498
233	0xbe156dd9	-0.14592685
234	0xbc4825e6	-0.012216067
235	0x3db7e9ce	0.089801416
236	0xbdd873d0	-0.105689645
237	0x3d116113	0.035492968
238	0x3ea25acc	0.31709898
239	0xbe5e1b2e	-0.21690056
240	0xbde6c86a	-0.11268695
241	0x3dd29f2c	0.10284266
242	0xbcb36150	-0.021896988
243	0x3ed782aa	0.42091876
244	0xbcac3380	-0.02102065
245	0xbb9dbcdf	-0.004813775
246	0x3e7582ef	0.23975728
247	0x3cad78ab	0.021175703
248	0x3e75619f	0.2396302
249	0xbe61bdc5	-0.22045048
250	0xbd10cb7a	-0.0353503
251	0xbd584361	-0.052798633
252	0x3d750f6f	0.05982917
253	0xbebbfdff	-0.3671722
254	0xbd3d71c9	-0.046251092
255	0x3d99d34f	0.07511007

net.2.bias f4 [64]
0	0x3eafe3e6	0.3435356
1	0x3c85dc19	0.016340302
2	0x3efca06a	0.49341136
3	0x3f6fc563	0.93660563
4	0x3f485277	0.7825083
5	0x3ffae948	1.9602442
6	0x3e391746	0.18075284
7	0x3ad0da10	0.0015934128
8	0x3ed29276	0.41127366
9	0xbd868b1c	-0.06569502
10	0x3f8b7cf9	1.0897514
11	0x3ef66de0	0.48130703
12	0x3d415a55	0.047205288
13	0x3bef8a61	0.007310197
14	0x3f7354a9	0.95051056
15	0x3f0e0a78	0.55484724
16	0xbe41203a	-0.1885995
17	0xbe243a2b	-0.16037814
18	0xbeabc6a0	-0.33549976
19	0x3f4554c3	0.7708246
20	0x3e43ad39	0.19109048
21	0xbe04f71f	-0.12984894
22	0x3f0ba6fc	0.5455167
23	0xbf5648cb	-0.83704823
24	0x3fd09128	1.6294298
25	0x3e914b5f	0.28377816
26	0xbd18a4fe	-0.037266724
27	0x3fc74bd8	1.5570021
28	0x3f985c8a	1.1903241
29	0x3f94c407	1.1622323
30	0x3f0bc84a	0.5460249
31	0xbd08e697	-0.033423033
32	0x3f88ae0e	1.0678117
33	0x3e01d019	0.12677039
34	0x3e819020	0.2530527
35	0xbe872f4f	-0.2640328
36	0xbf00b0b3	-0.5026962
37	0x3e1c4e5a	0.15264264
38	0x3f76af88	0.9636159
39	0xbe3706c3	-0.17873673
40	0x3fa78d9f	1.3090094
41	0x3f1d8099	0.6152435
42	0x3fb9cf5a	1.4516404
43	0xbdd46a96	-0.10371892
44	0xbe485608	-0.19564068
45	0xbf157e60	-0.5839596
46	0xbca8852e	-0.020571318
47	0x3d027956	0.031853996
48	0x3f9ef2d9	1.2417861
49	0x3fc04632	1.5021422
50	0x3ef26d49	0.47349003
51	0x3f7ece81	0.9953385
52	0x3f56ad28	0.83857965
53	0x3f736bc8	0.95086336
54	0x3f971991	1.1804677
55	0xbee7fe52	-0.45311219
56	0x3f450ff2	0.76977456
57	0x3f5467fe	0.8297118
58	0x3f626896	0.88440835
59	0x3fc1a938	1.5129766
60	0x3f94dcd8	1.1629896
61	0xbd188fa7	-0.037246373
62	0x3f277b93	0.65422934
63	0xbdccf4d3	-0.10007634
