runs/dqn_agent.pt (torch, 158343 bytes, 32 tensors)

net.0.weight f4 [64, 8]
000000 cb 17 10 3e 8a a2 a2 3d a1 f6 97 3e 3d 6b a5 c0
       0.14071576 0.07941158 0.2968035 -5.1693406
000010 20 98 85 40 60 8a bb 3f a1 44 08 bd 97 32 c4 3a
       4.17482 1.4651604 -0.033268575 0.001496869
000020 5d 86 08 3e 65 5c 6f bd a4 ae cd bd 1f 55 40 40
       0.13332506 -0.058437724 -0.10043076 3.0051954
000030 2e a8 85 40 cb 02 6b c0 d2 b8 a5 be 6a c3 67 3d
       4.1767797 -3.6720455 -0.3236757 0.056582846
000040 cf 78 d5 be 4a a9 b5 bb a8 96 b7 be 02 24 8f 40
       -0.41693732 -0.0055438625 -0.3585713 4.4731455
000050 dc fe d0 bf f8 b2 60 c0 a1 23 c6 be eb 2d 1d 3e
       -1.6327777 -3.5109234 -0.38699058 0.15349548
000060 52 26 c1 bd 89 78 77 bc d5 74 a7 3e c0 7e df 3d
       -0.09431137 -0.015104421 0.32706323 0.109128475
000070 ff 31 70 c0 16 33 7c 40 8d 96 35 bc 1b 0a 8b 3c
       -3.7530515 3.940618 -0.011083257 0.016972592
000080 33 ea 84 3d 8b 01 67 bd c9 a8 12 3f a9 6b 8c 40
       0.064899825 -0.056397956 0.57288796 4.388142
000090 ec de 88 c0 d4 ae 5b 3f 41 5d e0 3e 8a d9 77 3a
       -4.277212 0.8581364 0.43821147 0.0009454718
0000a0 70 5d 62 3e 3a 5c 7c 3e 12 15 ea bd ba fc 8f bf
       0.22105956 0.24644557 -0.114298 -1.1249001
0000b0 ce bb 88 40 f8 51 37 c0 b8 94 ab be 81 08 fb 3c
       4.2729254 -2.864378 -0.335119 0.030643703
0000c0 93 23 ca bb 5d ff b0 3d f3 61 41 3e 16 f0 7d c0
       -0.0061687916 0.08642457 0.18885021 -3.9677787
0000d0 82 77 81 40 5e 0f 87 bf 98 30 23 bf 19 4b 26 3d
       4.0458384 -1.0551565 -0.63746023 0.040598962
0000e0 7a d8 09 3d 79 1e 5d be 16 cf d9 3e e3 df 1a c0
       0.033653714 -0.21593656 0.42540807 -2.419915
0000f0 83 f0 81 40 00 a3 4d c0 03 8e 3e 3f 87 f9 86 3c
       4.0606093 -3.2130737 0.7443544 0.016476406
000100 b8 4f 81 3d 9a 9b 27 3e d7 ce fd bd 98 90 9f c0
       0.06314033 0.16367951 -0.12392967 -4.9864006
000110 95 48 33 40 14 38 6a 40 59 a2 38 bf 00 29 e3 3d
       2.801305 3.6596727 -0.7212272 0.110918045
000120 e2 c1 4a bc d0 19 26 3c de 7f cb 3e 42 b3 67 c0
       -0.012375327 0.01013799 0.39745992 -3.620316
000130 37 d9 82 40 5f 2a f7 bf 54 d5 92 3d 67 c0 5c 3c
       4.0890155 -1.9309806 0.07169595 0.013473607
000140 70 ce 23 bd b8 c9 b2 bd 4c 84 16 bf a0 93 60 be
       -0.039991796 -0.08729881 -0.5879562 -0.21931314
000150 cd ae 2a c0 f2 b2 66 40 d5 b2 ae be 94 93 53 3d
       -2.666919 3.604672 -0.34120813 0.051654413
000160 e4 e1 b7 3e 75 e9 64 3e 6f 37 a3 3e a8 e6 5a 40
       0.35914528 0.22354682 0.3187823 3.4203281
000170 5e 51 a0 c0 9b ac 42 40 e3 85 87 3e f2 ba ba bb
       -5.0099325 3.041785 0.26469335 -0.005698555
000180 7a e4 23 3d 6a 07 e0 bc 7e d6 86 be 55 9a 8f c0
       0.040012814 -0.027347285 -0.2633552 -4.4875894
000190 4c 0e 0f 40 95 ac 88 40 52 d8 24 bf 4b c5 09 3d
       2.2352476 4.271067 -0.6439258 0.03363542
0001a0 ae c7 13 bf 84 c0 81 be a5 2c 6a be 8c fb a1 40
       -0.5772656 -0.2534219 -0.22868593 5.0619564
0001b0 c9 99 23 40 b7 0f 7c c0 1f b7 23 bf 96 23 eb 3d
       2.5562613 -3.9384592 -0.63951296 0.11481397
0001c0 43 ca 7b 3c bd 47 aa be 26 24 a4 3e 30 f0 ea 3f
       0.015368047 -0.33257857 0.3205883 1.835455
0001d0 9b fd 6e c0 5f 2e 44 40 62 19 1f bf ee 34 59 3d
       -3.7342288 3.0653303 -0.62148106 0.053028993
0001e0 a9 a3 84 3e 5b a3 f4 be 38 15 72 3e 07 9d 48 40
       0.25906113 -0.4778088 0.23640907 3.1345842
0001f0 10 d8 a0 3f a9 00 dd 3f 90 57 02 bf 8b b0 c3 3c
       1.2565937 1.7265826 -0.5091486 0.023887893
000200 42 88 4f 3e d8 30 a3 be a9 4f f4 3c bc bd 48 40
       0.20266822 -0.31873202 0.029823141 3.1365805
000210 93 5d 7b c0 24 a6 2c 40 2d 99 c2 be 6a cb 1b 3e
       -3.9275863 2.6976404 -0.3800749 0.15214315
000220 00 39 03 bf 97 ec a0 3e 1a 68 9b be 4f 40 32 c0
       -0.5125885 0.31430504 -0.3035286 -2.785175
000230 e4 67 70 40 cb 72 59 c0 b9 43 36 3e c9 24 f2 3d
       3.756341 -3.3976314 0.17799272 0.118234225
000240 8b 1b 6c bd fe d2 1b bd 26 70 78 3b d6 7c 51 c0
       -0.057643455 -0.038043015 0.0037908643 -3.2732444
000250 50 ec 54 c0 07 86 52 40 f7 1b 39 3f c0 3a 32 3d
       -3.3269234 3.2894304 0.72308296 0.04351306
000260 6f c0 d0 be 47 af 3e bd 1c c1 1c 3d 94 05 80 c0
       -0.40771815 -0.046553876 0.0382701 -4.000681
000270 eb 06 16 40 28 7b 2c 40 50 97 02 bf 72 0d 88 3c
       2.3441722 2.6950169 -0.51012135 0.016607974
000280 3d b1 10 bd 44 10 83 3d a7 12 d4 bc 0d bb 33 40
       -0.035325278 0.06399587 -0.0258878 2.8082917
000290 8f a6 76 40 5c ce 52 c0 4c 4c c8 be 7f 31 1c 3e
       3.853916 -3.2938452 -0.3912071 0.15253256
0002a0 a1 da 82 bd 92 65 1c 3e 2c 1f 2e 3e 89 45 3a bc
       -0.063893564 0.15273121 0.17004079 -0.011369118
0002b0 96 4d e7 bd 5f 1a 13 bf ba a8 73 3e 8a 43 ae be
       -0.11294095 -0.57462114 0.23794833 -0.34035903
0002c0 c3 6f 26 3e 70 0e d1 3e e8 91 af 3e 49 9d 72 3f
       0.16253571 0.40831327 0.34291005 0.9477125
0002d0 a1 d6 87 c0 4d 8b 4d 40 fb d2 df 3e 40 6b 78 bc
       -4.24495 3.2116272 0.43715653 -0.015162289
0002e0 e8 10 2a 3d 20 6b 7a bd 70 c7 1f bd 56 6c 6f be
       0.04152003 -0.06113732 -0.039008558 -0.2338117
0002f0 38 21 4e 3d be 3a 74 3e 00 b9 2a 3d a9 5c 80 be
       0.05032465 0.23850533 0.041680336 -0.25070694
000300 c1 c3 d5 bc a2 20 8d be 5a 1c df be 23 13 a3 c0
       -0.02609432 -0.2756396 -0.43576318 -5.096086
000310 22 18 4a 40 80 f6 40 40 2e 8c 81 be d0 79 25 3e
       3.157723 3.0150452 -0.2530226 0.16159749
000320 8d f1 4a bd 98 cc 84 be 88 87 67 be f5 87 91 c0
       -0.049546767 -0.25937343 -0.22610295 -4.5478463
000330 8c 1b 79 40 e5 8f b3 3f 46 fc a0 be 13 11 18 3e
       3.8923063 1.4028288 -0.3144247 0.14850263
000340 07 4c 8a 3e e2 ee 8f 3e 76 1c a9 be de fe 4a 40
       0.2701113 0.2811194 -0.33029526 3.1718059
000350 05 2b 2f 40 81 27 60 c0 8f 48 96 be 20 1f 38 3e
       2.7370007 -3.5024111 -0.29352233 0.17980623
000360 59 ac ad bb 4c 1f b8 be ae 25 d2 3d 40 cc 91 c0
       -0.0053000865 -0.35961378 0.10261093 -4.556183
000370 31 cf 7e 40 4c 9a 6f 3f 7a e9 ca be f4 6a b5 3d
       3.981396 0.93594813 -0.39631253 0.0885829
000380 58 0a 19 3d 38 7d 60 bd 38 7d c4 bd 90 f5 cf 3d
       0.03736338 -0.054806918 -0.09594196 0.10154259
000390 e0 5a bf 3c da 16 76 be a6 31 f9 bd 0c da fa bd
       0.023358762 -0.24032155 -0.12167673 -0.122486204
0003a0 58 32 71 3d a8 43 7e bd 80 d4 cc 3b 25 a3 92 be
       0.058885902 -0.06207624 0.006250918 -0.28640094
0003b0 0a 19 ad be 15 78 b1 3e fc 39 c6 bd 3e 6d 30 be
       -0.33808166 0.34661928 -0.096790284 -0.17229173
0003c0 31 4d 8d 3e 9b 44 bd be 21 02 a7 3e f2 92 13 40
       0.27597955 -0.36966404 0.32618812 2.3058438
0003d0 b4 2d 99 3f a0 de 03 c0 40 5f db 3d 01 a6 8c bd
       1.1967072 -2.060463 0.10711527 -0.068676
0003e0 b0 fa dd 3c 7f 50 96 3e 39 2a 49 bd 42 40 68 40
       0.027097076 0.2935829 -0.049112532 3.628922
0003f0 58 2f 3f 40 3a 12 29 c0 d7 ba 5c bf 25 d7 3d 3e
       2.9872646 -2.6417375 -0.86222595 0.18539102

net.0.bias f4 [64]
000000 88 3f 88 be 20 29 77 3f f4 e3 99 be 88 7f 38 3f
       -0.2661097 0.96547127 -0.30056727 0.720696
000010 57 ce d8 be 9b 75 4f 3f 87 3a 1a 3f ee 34 e0 bf
       -0.42344925 0.81038827 0.60245556 -1.7516153
000020 b6 68 30 3f e1 19 9a bf 78 d8 86 3f ae 3d 50 3c
       0.68909776 -1.2039148 1.0534811 0.012710018
000030 31 bc 92 3f 9d e9 50 3f 1e 77 3b 3f 09 40 a8 3f
       1.1463681 0.81606466 0.73228633 1.3144542
000040 d6 ea ff 3e fd bc 05 be e8 da e9 bf 00 1e 3e 3f
       0.49983853 -0.13060375 -1.826993 0.74264526
000050 a5 a7 3d 3f ae 5a df be 7e 45 86 be b8 7b e7 3f
       0.7408393 -0.4362387 -0.26224893 1.8084631
000060 25 c6 4c be 52 57 6c be 10 8b ca 3c cf 96 1b 3e
       -0.19997461 -0.23080185 0.024724513 0.15194248
000070 20 5d 60 bd 7c 46 a1 bd e2 5a 2b 3e 5d 8f 7d 3f
       -0.05477631 -0.07874772 0.16733888 0.9904688
000080 25 11 f4 3f ee eb 01 be 4d 7b bc 3f cc 0f be 3f
       1.9067732 -0.12687656 1.4725128 1.4848571
000090 79 ae 38 bd a3 79 3e be 7f 4b e4 3c 05 63 98 bf
       -0.045088265 -0.18601088 0.02786803 -1.1905218
0000a0 c2 61 1b 3f 67 ff 16 3f 98 8f 95 be 66 ad b0 bc
       0.6069604 0.58983463 -0.29211116 -0.021567058
0000b0 93 6f db 3f 2a 3f 4c bf 0f e4 9a 3f 7b 86 ab be
       1.7143425 -0.7978388 1.2100848 -0.33501038
0000c0 a1 cd c8 3e cf a4 dd be 28 46 55 3f 52 40 81 be
       0.39219382 -0.432898 0.83310175 -0.25244385
0000d0 c5 26 2a 3f 47 81 6c be 5f a1 85 3f fb f9 59 3f
       0.6646541 -0.2309619 1.0439872 0.85147065
0000e0 98 ea a6 be aa c6 12 bf 06 b7 5f bf 83 ba 5b 3b
       -0.32600856 -0.5733439 -0.87388647 0.0033527918
0000f0 f5 22 76 3e 94 22 a9 be a7 78 88 be 4a 30 7e 3f
       0.24036773 -0.33034194 -0.2665455 0.99292433

net.2.weight f4 [64, 64]
000000 7d 4b 85 3d b5 2c dc bc d8 df 2d bd b4 69 5a 3d
       0.06508539 -0.026876787 -0.042449802 0.053323463
000010 8d 08 88 3e 4a 98 30 3e 31 96 f2 3d 34 be f2 3d
       0.26569024 0.17245594 0.11845053 0.118526846
000020 94 03 2e be 66 50 5e 3e 78 9d 6e be bf 9a 01 be
       -0.16993552 0.21710357 -0.23302257 -0.12656687
000030 ba a9 53 be 5e 1b 2d 3e 57 54 7e bd db 07 29 3e
       -0.20670214 0.16904971 -0.06209215 0.16506903
000040 d4 6b ad bd 1e 7b 1a bb 3b bb 98 be bf 22 c6 bd
       -0.08467832 -0.0023571919 -0.29830346 -0.09674596
000050 36 11 02 3e ce ac 42 3d 6b c9 e0 3d 64 32 7d 3e
       0.12701878 0.04752808 0.109759174 0.24726254
000060 ca e5 31 be 2d dc 08 3d 22 a9 0c 3e 77 82 fa 3d
       -0.17372814 0.0334131 0.13736394 0.122319154
000070 f8 e8 c7 bc 5e 95 80 bd 91 32 8b 3e 28 dd 1e 3e
       -0.02440308 -0.062784895 0.27187017 0.15514052
000080 45 36 43 3e a1 ca 25 3d 2c 63 1e be d6 e8 85 3c
       0.19063671 0.040476445 -0.15467519 0.016346376
000090 0c a3 11 ba 12 90 19 3e 76 d8 8b bd 59 ce f9 bd
       -0.0005555607 0.14996365 -0.06828396 -0.12197561
0000a0 15 5b 9f 3d 68 a4 f0 3d 07 53 a3 be 72 e8 69 3d
       0.077810444 0.11750108 -0.31899282 0.057106443
0000b0 b1 15 cc bb fc 61 bf 3d e6 e3 b2 bd e6 90 59 3e
       -0.0062281718 0.09344861 -0.087348744 0.2124668
0000c0 2b 33 98 3d 82 34 a9 3e 65 b9 e9 be 89 c9 94 bc
       0.074316345 0.33047873 -0.45649257 -0.018162506
0000d0 ab fe c6 3e 2e e8 a8 bd 05 44 bb 3d 49 69 e3 bd
       0.3886617 -0.0824741 0.09143833 -0.11104066
0000e0 b2 ca f6 bd af 5a f5 be 5e e1 71 bd b6 01 c3 be
       -0.1205038 -0.4792075 -0.059052818 -0.38087243
0000f0 5d 66 7d bd ea f0 f8 bd 66 50 91 3d fa 6c 22 bf
       -0.0618652 -0.12155326 0.07095413 -0.63447535
000100 3a 36 08 bd c0 46 3c bc 2a 06 db bd e9 4c 48 bf
       -0.03325484 -0.0114914775 -0.10694535 -0.78242356
000110 f7 47 bf be f4 2b 52 3e 31 a1 8b bb af 56 87 bd
       -0.37359592 0.2052458 -0.004261159 -0.066083305
000120 e5 23 da 3d 7c 57 d8 be 81 e5 37 3c c5 46 3e be
       0.106513776 -0.42254245 0.011224152 -0.18581684
000130 d2 42 8e 3d e7 75 0c bd 7c 5c cc bd fa 70 b9 be
       0.06946339 -0.034292128 -0.099785775 -0.36219007
000140 7c 0e 1b 3d c3 5e da bd 92 1f d2 be 22 a2 8b 3e
       0.03785561 -0.106626056 -0.4103971 0.27272135
000150 74 07 4e 3d 3b d2 26 3e 89 1b 97 be 75 7f 21 3e
       0.050300077 0.16291134 -0.29513195 0.15771277
000160 b6 4c a5 3a d2 fe 71 3d 6b 44 c7 3c 01 8d 35 be
       0.0012611363 0.059080906 0.024324616 -0.1772957
000170 fe b2 c3 3d 8e d8 cc 3d c6 e7 9b be 24 81 fc 3d
       0.095556244 0.10002242 -0.30450267 0.12329319
000180 89 dc b1 3d b6 a1 a5 bd fb c0 fb 3d ae 3e af bc
       0.08684642 -0.080874845 0.122926675 -0.021392193
000190 22 fc 3f 3e 07 19 2a bc 10 e1 81 3b a0 11 f9 3e
       0.18748525 -0.010381944 0.003963597 0.4864626
0001a0 0e 7b 56 bd 5c 08 1a be 20 9d e4 bd f9 3d 01 3d
       -0.052363448 -0.15042251 -0.11162782 0.031553242
0001b0 81 b4 11 3e a2 ad 40 3d 7b 8d 4b 3e cb 1d 10 3e
       0.14229013 0.04704059 0.1987819 0.14073865
0001c0 3f 9c 1f 3d 18 94 f4 3d f4 c1 29 be dc d1 e7 bd
       0.038967367 0.11942309 -0.16577893 -0.113193244
0001d0 11 74 53 3e 23 70 14 be 97 b1 1f be 36 1a dc 3c
       0.20649745 -0.14495902 -0.15595089 0.026867967
0001e0 bd fe 11 3d 64 f9 74 be f0 ea cc be 94 53 1b 3d
       0.035643328 -0.2392326 -0.40022993 0.037921503
0001f0 f0 0c 35 bb 64 78 de be 5f 0c c3 3d 8f c9 6a 3b
       -0.002762612 -0.43451226 0.09523844 0.0035825705
000200 05 c6 a2 bc 3b dc ba 3d 44 f0 5b 3d 42 bf 36 be
       -0.019869814 0.09124037 0.053695932 -0.17846397
000210 2d 05 76 be 0f 41 60 3e bb 91 9b bc 91 25 b8 bd
       -0.24025412 0.21899818 -0.018990388 -0.0899154
000220 30 12 90 3d ab 83 a3 3d 05 eb dd bd ae eb 1e be
       0.07034719 0.07984098 -0.10835842 -0.15519592
000230 61 1a 80 3d a3 2e 9d 3d 40 96 3f be 36 b2 30 3f
       0.062550314 0.07674911 -0.1870966 0.6902193
000240 0f 43 83 3d ad 17 8c 3d e7 a5 14 bf d7 8a bc 3e
       0.06409275 0.06840453 -0.58065647 0.36824676
000250 d9 d8 2f 3d 1b c6 cd 3a 31 38 52 be 7e 4f 2f 3f
       0.04293141 0.0015699299 -0.20529248 0.6848067
000260 ae d3 6e bd 8d 04 f4 bc 3f 83 89 3d 16 8d b2 bd
       -0.058307342 -0.029787326 0.06714486 -0.08718316
000270 5c af c5 bd a6 16 cd bd 7a db 24 3e ba 23 0c 3e
       -0.09652588 -0.100140855 0.16099349 0.13685504
000280 ea 13 5b 3f ec 2b cd bc d1 37 46 3e 1f a7 fc 3e
       0.8557726 -0.025045358 0.1935723 0.49346253
000290 a6 fd 5b 3d ce 77 58 be 1b af ce 3c 26 33 aa bf
       0.053708695 -0.21139452 0.025229981 -1.3296859
0002a0 a1 be 4e 3d 0b 4e 01 3e b1 6f c3 bd c2 22 85 bd
       0.050474767 0.12627427 -0.09542788 -0.0650077
0002b0 af 46 ea 3d 37 19 2f 3e 5c d3 0e be c5 75 91 bd
       0.11439263 0.17099462 -0.13947815 -0.07102541
0002c0 90 f1 94 be 90 2f 51 bd 8a 8f 01 be b8 32 c5 bd
       -0.29090548 -0.05107075 -0.12652412 -0.096288145
0002d0 32 8f 58 3e e1 38 0b bd 27 79 81 be 7e 4e bf 3d
       0.21148375 -0.03398979 -0.25287744 0.09341143
0002e0 30 8a 31 be 3b c2 76 be 01 7b b2 3d 99 96 69 be
       -0.1733787 -0.2409753 0.087148674 -0.22811355
0002f0 cd 1e b7 be 03 50 d8 3a 0d 60 62 3a bb 6e 67 be
       -0.35765687 0.0016503338 0.00086355285 -0.22600834
000300 fd 59 88 3e bc a1 c4 3d 3b 51 07 be 6e 29 c2 be
       0.26631156 0.09601161 -0.1321458 -0.37922233
000310 f6 4f d8 be c4 33 df 3d 03 35 07 3c ad 2e 02 3d
       -0.42248505 0.108985454 0.008252385 0.031782795
000320 b3 1b 96 bc 8c 61 88 3e 0f 04 12 be ec 92 86 be
       -0.018323755 0.26636922 -0.1425936 -0.26283967
000330 2c 6f 58 3e d3 36 ad 3d bf ef 1c be 19 94 b4 3d
       0.21136159 0.084577225 -0.15325831 0.0881731
000340 71 23 eb 3b 3d b2 89 bd 89 25 a4 be bb 10 3e 3e
       0.007175856 -0.067234494 -0.32059887 0.1856107
000350 7e 92 25 3d 94 59 32 3d af e3 95 bd a7 2a be 3d
       0.04042291 0.04354246 -0.07318818 0.09285479
000360 c4 48 27 bc 21 50 a9 3d fc 6f 9c 3d af 5f d2 3d
       -0.01021022 0.082672365 0.07638547 0.102721564
000370 a0 d7 6f 3c 10 b6 53 bd 6c 4f 8b 3d ad 81 95 bd
       0.014638811 -0.0516873 0.06802258 -0.07300124
000380 e9 15 a7 b9 87 c8 a0 3e ae 6f 5d be c1 59 02 3b
       -0.00031869047 0.3140299 -0.21624634 0.0019889923
000390 66 43 8e 3c 29 f4 41 bd 63 00 24 be 2c ff 8d be
       0.017366122 -0.04735199 -0.16015773 -0.27733743
0003a0 d4 bd a5 3c 9f cc 05 bd 10 0e dc bd 9c 90 65 3e
       0.020232119 -0.032665845 -0.1074487 0.22418445
0003b0 20 49 1b 3e 13 77 d2 3c dd 81 b6 3d e0 99 38 3d
       0.15164614 0.025691545 0.08911488 0.04506862
0003c0 0f e8 be be f1 d3 f4 3c 70 cf 77 be 93 ba 41 3c
       -0.37286422 0.029886218 -0.24200225 0.011824268
0003d0 12 8d 74 3d 7e 81 23 3e 5a 47 bc be d4 78 75 bd
       0.059704848 0.15967366 -0.36773187 -0.059929684
0003e0 99 cd 9c 3d 11 87 0b bd bf fd 06 3e 0b 00 b5 be
       0.07656402 -0.034064356 0.13182734 -0.35351595
0003f0 ff 62 c3 be 0c 9d 0f 3c f0 c8 10 be 42 ec ba be
       -0.38161466 0.00876547 -0.14139152 -0.36508375

net.2.bias f4 [64]
000000 f6 f1 5b 3f 33 41 74 3e 8f c8 c2 3f ec ba fa bd
       0.8591608 0.23852997 1.5217456 -0.12242684
000010 b9 72 35 bf 69 be ac bd a6 b7 ad 3d 2a 35 b6 3f
       -0.7087818 -0.08434755 0.08482294 1.4234974
000020 fa 41 15 bc fe 6c de 3f 42 b0 42 3c 78 4d 03 40
       -0.009109968 1.7377012 0.011882843 2.0516033
000030 95 24 79 3f 24 cb 2f bf 80 31 24 3d 0d b1 97 3f
       0.97321445 -0.68669343 0.04008627 1.1850907
000040 54 9b 93 3f 33 9a 6c 3f 04 06 5f 3d ed 09 13 40
       1.1531777 0.9242279 0.054449096 2.2974808
000050 2e 7a ce 3f 47 fd 00 40 96 a9 ca 3e 13 d8 72 3f
       1.6131036 2.0154588 0.3958251 0.94860953
000060 75 2e 24 bd bb 70 4a 3f 17 e1 ae 3f 20 86 bd 3b
       -0.040083367 0.79078263 1.3662442 0.005783811
000070 cb d6 0f bb ad 38 08 be 68 67 75 3f 78 be af 3d
       -0.0021948095 -0.1330287 0.9586091 0.08581251
000080 07 65 6d 3f 85 c3 9a 3e 3d be f2 3e b5 63 9b 3f
       0.9273228 0.30227295 0.47410765 1.2139803
000090 95 dc 0c be 91 37 47 3f 35 e0 ee 3f 72 9b 8d 3f
       -0.1375602 0.7781916 1.8662173 1.1063063
0000a0 7f e2 da be e2 dc 33 be 1d 67 60 bd 1f 3e f4 3f
       -0.42750928 -0.17564729 -0.054785836 1.9081458
0000b0 3b 31 39 be eb ee cd 3e 11 cd f0 3f 8f 87 30 3f
       -0.18085186 0.40221342 1.8812581 0.68956846
0000c0 1b 6f ba 3f f7 c1 77 3f 97 1f 28 be e0 66 e3 3f
       1.4565157 0.9678034 -0.164183 1.776577
0000d0 cf bb bd 3f dd e8 17 3f 5e ac 2a be 38 ad 5b bc
       1.482294 0.59339696 -0.16667315 -0.013407998
0000e0 7e 05 03 40 3d 79 87 3f 52 ed 9c be cc 4a 3c 3d
       2.0472102 1.0583874 -0.3064981 0.04596977
0000f0 1b ba 12 3f 60 b2 d7 3e 88 31 cd 3c 9e 66 bb 3f
       0.57315224 0.42128277 0.025048032 1.4640691

net.4.weight f4 [64, 64]
000000 65 06 65 bd d5 19 33 bd 45 e7 65 3c 6a ba 94 be
       -0.0559143 -0.043725807 0.01403219 -0.29048473
000010 64 ef 82 be a2 de a6 bc 88 e9 2b 3d 6c 2b 21 be
       -0.25573266 -0.020369831 0.04197076 -0.1573922
000020 50 2d 61 bd aa 3a a2 3d d9 ae 7b bb fd 63 4a 3e
       -0.054974854 0.079213455 -0.0038403778 0.19764705
000030 e5 78 1c bd f9 42 20 bf dc 73 7f 3d eb cb 42 3e
       -0.03820123 -0.6260219 0.06236635 0.19023101
000040 c4 b6 e8 3c a0 5c 4c 3c 72 e2 7d bd 0a 10 9b 3e
       0.028407462 0.012473255 -0.061983533 0.30285674
000050 b8 e6 62 3e 2e 09 02 3f b9 83 03 be 75 e3 a1 bb
       0.22158325 0.5079526 -0.12843217 -0.004940445
000060 0c 8a 2f 3c 1d 65 98 bd 7c 4a 38 3e 40 a5 86 3d
       0.010714065 -0.07441161 0.17997164 0.06574488
000070 98 00 f0 bc 11 4d 0f bf 62 e1 1c bd b0 2a c4 3d
       -0.029297158 -0.5597697 -0.03830088 0.095784545
000080 39 0c 97 3d 99 04 1e 3e 52 d5 22 bd 54 14 47 3e
       0.07375378 0.15431441 -0.03975422 0.19441348
000090 c5 14 b5 3d 18 03 b2 3c ef 3a 5b 3d 0a 5c d2 3d
       0.08841852 0.02172999 0.053523 0.10271461
0000a0 18 f5 8a be 5f a8 3a bd dc 6a 48 3d 34 e9 84 3e
       -0.27140117 -0.045570727 0.048930034 0.2595917
0000b0 81 24 36 bf ed 85 56 be f5 9b 3f 3f 53 13 ba 3d
       -0.7114945 -0.20949526 0.74847347 0.09085717
0000c0 af 1b 20 be f0 42 2e 3d a5 3d d4 be e0 10 76 3e
       -0.1563556 0.042544305 -0.4145328 0.24029875
0000d0 5c e7 fb be a7 38 02 3e 45 31 03 3d 27 23 97 bd
       -0.4919995 0.12716924 0.03202941 -0.07379752
0000e0 63 38 d0 bb 53 cc 97 be 3f 8a 54 bd d8 05 f0 3c
       -0.006354378 -0.29648075 -0.051889654 0.029299662
0000f0 12 30 96 3e d7 96 c8 bd 1c 20 e9 3d 90 1d b6 3e
       0.2933355 -0.097943954 0.113830775 0.3556943
000100 dd 6f 63 bd 83 5d 2d be e8 3b 14 bc 32 6d 0a bd
       -0.055526603 -0.16930203 -0.009047486 -0.033795543
000110 67 82 c6 bd ea 13 ec bd 76 6f e1 bd cc bb a5 3d
       -0.09692841 -0.11527236 -0.110075876 0.0809246
000120 4c bb b8 3d 09 5b a6 bd c2 66 96 bd 35 84 8f 3d
       0.09020099 -0.08122832 -0.07343818 0.07007638
000130 47 a9 d6 3d 90 40 c5 bd 0c 85 4c bd 74 d5 c2 bd
       0.10481506 -0.09631455 -0.04993157 -0.09513369
000140 e3 eb 25 bc fe 85 5d bb 28 7f f7 bd 81 55 5e 3d
       -0.010127041 -0.003380179 -0.120848 0.05428076
000150 8f 80 1e be 32 53 3a 3d 2d 72 3a bd 5b 9b a3 3d
       -0.15478729 0.045489497 -0.045519043 0.07988616
000160 f8 86 9f bd 62 76 1b bc b6 17 5f bd 4c 98 ca bd
       -0.07789415 -0.009488674 -0.054465972 -0.098923296
000170 94 d7 f9 bd d0 dc 02 be 3e b6 2d be 08 0b 6b bd
       -0.121993214 -0.12779546 -0.16964051 -0.057383567
000180 c5 6e c7 bd de d2 68 bd 14 aa c8 3c 38 c5 9a 3d
       -0.097379245 -0.056841724 0.024495162 0.07557148
000190 62 12 a3 bd 5f 0a 9e 3d b6 a6 f1 bc e4 42 ac 3c
       -0.079624906 0.07716822 -0.02949844 0.02102799
0001a0 5d eb 62 bd 7e 00 b9 bd 9e 8f 86 bd 01 e5 01 bd
       -0.05540024 -0.09033297 -0.065703616 -0.031712536
0001b0 b4 07 22 bd 09 1f a9 3b 38 bb 42 bd 1f c0 b9 3c
       -0.039558128 0.0051611704 -0.047541827 0.022674618
0001c0 37 0b 19 be db 55 d0 bd 0c 05 60 bd b0 5f 97 3b
       -0.14945684 -0.10172626 -0.054692313 0.004619561
0001d0 37 b9 81 3d 12 ce a8 bb 83 1e f5 bd e0 89 91 bb
       0.06334155 -0.0051515186 -0.1196871 -0.004441485
0001e0 0a 89 31 3d 51 3c 85 3d 44 14 aa 3d 60 e3 6d bd
       0.04334358 0.06505645 0.083046466 -0.05807817
0001f0 9e c9 7d bd f0 12 05 3d 70 82 99 3c f5 af e9 bd
       -0.061959855 0.032488763 0.018738955 -0.11410514
000200 25 a1 95 3e 7b 09 aa bd 84 0f 83 3e 07 b4 20 3e
       0.29224506 -0.083025895 0.25597775 0.15693675
000210 67 42 a4 3e da 45 f2 bc 7c 58 fc bd 0a f5 2f bd
       0.3208191 -0.029574323 -0.123215646 -0.042958297
000220 4a 32 95 bc 68 d3 8e 3e ea 50 b6 3d 87 22 a2 3d
       -0.018212456 0.27895665 0.08902152 0.07916742
000230 a0 f1 9c bd 5d 1a 7c 3e 60 be 01 bc a6 fc 50 be
       -0.07663274 0.24619432 -0.007918924 -0.20408878
000240 eb 00 52 be 6b 26 4b bc 9f e7 af bd 70 e7 ba 3e
       -0.20508163 -0.012399296 -0.085891 0.36504698
000250 64 ab 3c 3d 93 ef 52 be a0 3d 26 bd 1e de 9c be
       0.04606189 -0.20599203 -0.040586114 -0.30638212
000260 9c 2c 3c bd c9 85 f4 bd fb d5 9e be 70 cc 7a bd
       -0.04594098 -0.1193958 -0.3102263 -0.061230123
000270 ab 43 a8 bd ab d3 96 3d 93 db 43 be f9 f7 8e 3d
       -0.08216032 0.07364591 -0.1912673 0.06980891
000280 ef ea 15 3d 6c 08 b0 bd 97 ac 8d 3b e8 77 62 3e
       0.036601003 -0.08595356 0.004323553 0.22116053
000290 52 29 b4 bd 90 8c 56 3d 32 0a b5 bd ba 6b 4a 3d
       -0.08796944 0.052380145 -0.08839835 0.049419142
0002a0 87 c7 95 3e dd b8 8a 3c a0 25 38 3c 34 ba 0c 3e
       0.2925379 0.016933853 0.011239439 0.13742906
0002b0 40 d3 7c 3e cb 04 34 3d 9e b8 ab 3e 7f fe 3a bd
       0.2468996 0.043949883 0.3353929 -0.045652863
0002c0 77 59 7a 3e d1 34 3d 3e 12 0d 83 3d cc 7a e2 3d
       0.2444819 0.18477179 0.06398977 0.11058578
0002d0 1e 5e 3a 3f 78 30 ff be 77 7c ef 3c f4 c7 cf 3d
       0.7279986 -0.49841666 0.029234154 0.1014556
0002e0 f8 c5 4c 3d 7b 0e 86 3e 0e 36 82 3d d2 e6 bd bd
       0.049993485 0.26182923 0.06357966 -0.09272541
0002f0 24 52 6d 3d 95 d9 39 be b4 7f dd bd 73 44 d4 bd
       0.057939664 -0.18149407 -0.10815373 -0.10364618
000300 b0 99 27 be 8c e1 d4 3c 1f cc f2 bd aa e9 44 be
       -0.16367221 0.025986455 -0.11855339 -0.19229761
000310 49 f4 24 be b8 94 4d 3d 3f 76 d2 bd 78 ca 37 3e
       -0.16108812 0.050190657 -0.1027646 0.1794833
000320 d0 01 d3 3c ad 18 6d bd 9a 59 d3 bd 0c 50 1b be
       0.0257577 -0.05788486 -0.103198245 -0.15167254
000330 4b 41 dc bd 64 aa 58 3e b0 76 26 3c ac 81 5c 3c
       -0.10754641 0.21158749 0.010160133 0.013458651
000340 65 93 3d bd d7 89 09 be f4 2c 44 3d c1 03 0a be
       -0.046283145 -0.13431488 0.047894433 -0.13477995
000350 2a c0 92 bd 07 ef 1c be f3 61 e3 3d 0e df 16 be
       -0.07165559 -0.15325557 0.11102667 -0.14733526
000360 1e bf eb 3d ff 20 09 be c5 66 6e 3b e8 e2 df 3d
       0.11511062 -0.13391493 0.0036377173 0.10931951
000370 a8 0e 96 3d 17 74 47 bd db 56 2d bc 96 e8 94 bd
       0.07327014 -0.048694696 -0.01057979 -0.07270925
000380 6a c1 12 bd f1 85 5f bd a5 86 ed bd 3f 56 a8 bc
       -0.035828985 -0.054571096 -0.11597947 -0.020548938
000390 e0 c5 11 3c 66 e6 6a be 7e 7a 60 bd 8b 02 a2 bd
       0.008897275 -0.22939453 -0.054804318 -0.07910641
0003a0 13 25 01 be 49 ac 78 ba 81 50 1d 3d a7 e8 44 be
       -0.12611799 -0.00094861217 0.038406853 -0.19229375
0003b0 2c b4 bc 3d 1c 72 3e 3d fc 64 16 bb ed 3a 86 bd
       0.092140526 0.046495542 -0.0022948375 -0.06554208
0003c0 05 38 00 3d e5 00 5b 3d ef 0a b9 3c ee 87 00 be
       0.031303424 0.05346765 0.022588221 -0.12551853
0003d0 f9 9d 17 bd f4 8d 95 39 c0 6c ca 3b b6 8b df bd
       -0.03701589 0.00028525258 0.006177515 -0.109153196
0003e0 47 93 25 3e 7b 4d 5d ba 32 95 53 bd 00 2c 09 3d
       0.16169463 -0.00084420264 -0.051655956 0.033489227
0003f0 28 cc be bd 4a f7 11 3d 2a 31 8a 3d a2 ac 13 be
       -0.093162835 0.035636224 0.067476586 -0.14421323

net.4.bias f4 [64]
000000 2f 44 c3 3f d6 f4 33 be 6e 8b 7d 3f f5 47 6a 3e
       1.5255183 -0.17573866 0.9904088 0.22879012
000010 a7 4f 5d 3f ee d7 15 be a5 04 60 3f 1c 09 c4 be
       0.86449665 -0.14633152 0.87507087 -0.382882
000020 7c 5d 1d bf 93 5a 6d 3f 0a 59 a5 bd 37 c6 cb 3f
       -0.6147077 0.9271633 -0.080736235 1.5919865
000030 fe 20 c6 3f fe cf 2a be c3 c4 c0 bd e1 84 e4 bd
       1.5478818 -0.16680905 -0.09412529 -0.11158157
000040 4d 15 a8 3f e1 84 68 3f 7f b1 bd 3f 52 bf d3 3f
       1.31315 0.9082776 1.4819793 1.6542761
000050 22 ca f4 3c 5b 66 b0 3f 54 e2 c7 3f 09 f2 3a be
       0.02988154 1.3781236 1.5615945 -0.18256392
000060 26 af a3 3f c8 6f 8a 3f 89 4d 02 3f 05 e7 be 3e
       1.2787826 1.0815363 0.5089956 0.3728563
000070 64 ae 19 3d df 92 b8 3f f9 4f 84 3f 04 bf 4b 3f
       0.037519827 1.4419822 1.0336906 0.7958834
000080 41 55 1f bd 22 a4 79 be e3 b1 c7 3f 0e a6 8b 3f
       -0.038899664 -0.24379018 1.5601162 1.0910051
000090 aa 06 9b 3f db 12 f1 3f e2 3c c0 3f 75 9f b6 3f
       1.2111409 1.8833879 1.501858 1.4267412
0000a0 df 36 ad 3f 00 53 6c 3d d9 c9 b5 3f ad 13 d6 3f
       1.353237 0.057696342 1.4202224 1.6724755
0000b0 f2 ab 4f bd 6f 3b a0 3f 81 c3 1c 3d 0e 05 c3 3f
       -0.05070109 1.2518138 0.038272385 1.5235918
0000c0 f2 e3 51 bd 1d 36 aa 3d 96 2e bb 3f 60 70 e4 3f
       -0.051242776 0.083111025 1.4623592 1.7846794
0000d0 a8 03 10 3e 73 67 d1 3f 14 42 a6 3f c2 1b c0 3f
       0.14063895 1.6359695 1.2988915 1.5008471
0000e0 f3 4e 2d 3f ee 65 0d 3f 83 21 57 3f aa 5f 92 3f
       0.6769859 0.5523366 0.8403551 1.1435444
0000f0 e8 2d cc 3f c4 4b b6 3f 61 5c 8f 3f cc 85 b3 3f
       1.595151 1.4241872 1.1200067 1.4025207

net.6.weight f4 [3, 64]
000000 31 20 9b be 2f 2c 25 3d 38 7e 0f bf db e5 ba bc
       -0.30297998 0.04032534 -0.5605197 -0.022814682
000010 a0 29 4f be 59 c2 45 3d 17 7b 62 3d b9 3e 04 3f
       -0.20230722 0.048281047 0.05529317 0.5165821
000020 de 77 96 3e 34 23 00 bf cb 40 be bd 4f 1d 94 be
       0.29388326 -0.50053716 -0.09289702 -0.2892861
000030 12 3b 97 be 80 c3 36 bd 9a 50 85 3e 96 27 2f 3d
       -0.29537255 -0.044620037 0.26038057 0.04276236
000040 80 7b 7a be 26 03 ee bd 10 f6 dd bd 76 54 12 bf
       -0.24461174 -0.11621694 -0.10837948 -0.5716013
000050 1a 0a c7 bd 38 6a a9 bc 2c 30 07 be 72 40 a3 bd
       -0.097187236 -0.020680532 -0.1320197 -0.07971276
000060 a5 df 1d bd f9 fc 95 bf 78 58 02 bf 17 90 42 be
       -0.038543362 -1.1717826 -0.5091624 -0.19000278
000070 71 ee 00 3d b8 92 e5 bc 69 e6 45 bf 4c b6 0f bf
       0.031477395 -0.028024063 -0.77304703 -0.5613754
000080 1e 80 46 bc c7 da 58 3e c0 ab 11 be 63 2b 46 3d
       -0.012115506 0.21177207 -0.14225674 0.04838122
000090 90 1b 0d be 35 88 8f be d6 a5 3a bf ee 9a 16 bf
       -0.13780046 -0.28033605 -0.72909296 -0.58830154
0000a0 1d c4 5a be fb f0 ad bd 25 57 3c be 89 af 34 bf
       -0.21363874 -0.08493229 -0.18392618 -0.70580345
0000b0 7a 25 85 bd f4 2d ba bd f7 7e b8 bd 75 9f 11 be
       -0.06501289 -0.09090796 -0.090085916 -0.14220984
0000c0 b6 11 f5 3c cf 3b e5 bd 3a ce ab be 52 16 83 be
       0.029915672 -0.11193048 -0.33555776 -0.25602967
0000d0 cb 9d 85 be 3c 16 5e be e6 5d 92 be 74 cb 5f be
       -0.2609695 -0.21688169 -0.28587264 -0.21854955
0000e0 57 db 07 bf 7b fe e2 bd 40 6a c4 be 21 a6 13 be
       -0.5306906 -0.110836945 -0.38362312 -0.14418842
0000f0 66 ce fe bd d6 c1 12 bf 06 36 a2 be 28 23 6b be
       -0.12441711 -0.5732702 -0.31681842 -0.2296263
000100 ce 97 86 be a2 c1 78 3b 91 60 2e 3d 7f f5 0e 3d
       -0.26287693 0.003795721 0.04257256 0.034902092
000110 a9 97 3a be cb 53 e8 3d 87 11 d6 bd 5f 31 37 3e
       -0.18221916 0.11344107 -0.10452562 0.17889927
000120 05 c0 8b 3e a6 a8 00 3a bd d6 53 3d c7 8b 59 be
       0.27294937 0.0004907943 0.051718462 -0.21244727
000130 9c 3d 75 be f7 3f 62 bc 12 72 04 3c 5d 62 a2 3c
       -0.23949283 -0.013809196 0.008083837 0.019822294
000140 34 23 96 be 6a f9 f3 be 64 96 38 be 7a b1 43 be
       -0.29323733 -0.47651225 -0.1802612 -0.1911067
000150 4a ee eb bd 65 bc 0b be fb a5 48 be 6b 04 7c 3e
       -0.115200594 -0.13646086 -0.19594567 0.2461106
000160 37 5e e7 be a2 1e 10 bf a3 25 11 3f 32 9a 31 3e
       -0.45189068 -0.5629674 0.56698054 0.17343977
000170 7d 69 01 3e 80 f3 44 be 11 0f e9 be 7b 01 60 be
       0.12637897 -0.19233513 -0.45519307 -0.21875565
000180 d5 bb ea 3c 20 36 e3 3e a7 fd 2d be 36 89 ed be
       0.028654018 0.44377232 -0.16991292 -0.46393746
000190 39 dc f4 be 6f 07 db bd 3c 3b c5 be 2a cf fc be
       -0.47824267 -0.10694777 -0.38521755 -0.49376804
0001a0 d2 7f cf be e7 64 9d 3d 02 04 1b be ca 68 2f bf
       -0.40527207 0.07685261 -0.15138248 -0.6851927
0001b0 e8 b0 af bd 7d b0 ac be e9 5c e2 bd 27 f8 ed bd
       -0.08578664 -0.337284 -0.110528775 -0.11619597
0001c0 f5 68 14 3d b4 31 e9 3d 1b 4c b8 bc 85 01 02 be
       0.036232907 0.11386433 -0.022497227 -0.12695892
0001d0 d8 62 81 be 4a 5c fb bd a5 d9 af be 39 f7 f0 be
       -0.25270724 -0.12273462 -0.34345737 -0.47063616
0001e0 e6 71 82 be 33 7f a8 bf 95 73 c7 be fc 21 90 be
       -0.25477523 -1.3163818 -0.3895537 -0.28150928
0001f0 e3 9f 07 be cc 34 35 be a3 42 42 bf 40 12 98 bd
       -0.13244586 -0.17695922 -0.7588293 -0.07425356
000200 70 0c 48 be 8d 32 78 bd 37 74 ed bd c7 be 50 3e
       -0.19535995 -0.060595084 -0.11594432 0.20385276
000210 35 7b 91 3e f2 f0 15 bd 16 66 06 bd e1 11 8c be
       0.28414312 -0.036606736 -0.0328122 -0.2735739
000220 f0 51 2d 3e d9 c5 81 be 5a 3c b6 ba f2 5d be be
       0.16925788 -0.25346258 -0.0013903484 -0.3718105
000230 ab 91 fa be f8 8c 82 3d 35 e0 37 3e 5b 5a 19 ba
       -0.4893926 0.06374544 0.17956622 -0.0005849951
000240 0d 4b b8 be 56 b0 11 be 14 57 39 be c0 58 f2 be
       -0.3599476 -0.14227423 -0.18099624 -0.47333336
000250 35 e1 a9 3d e6 d3 2a be 9f 66 0a be ce 68 ab be
       0.08294908 -0.16682395 -0.1351571 -0.33478397
000260 9e fa b2 be 73 39 b8 be b1 d9 cc 3d 2c 92 1f 3d
       -0.3495683 -0.3598133 0.10002459 0.03895776
000270 b2 9d 69 3e c0 9c 29 be fe 22 ec be 71 df 49 bf
       0.22814062 -0.16563702 -0.46120447 -0.7885657
000280 f4 e9 82 3d fb c7 db bd 62 86 87 bd b4 ee ad be
       0.06392279 -0.107315026 -0.06617428 -0.3397118
000290 f4 80 cd be 29 9e 6d be 94 0c 81 be f9 09 45 be
       -0.40137446 -0.23204865 -0.2520491 -0.19242086
0002a0 72 00 c3 be 28 63 11 3e 56 57 0e bc fe 28 21 bf
       -0.38086277 0.14197981 -0.008687815 -0.62953174
0002b0 10 65 4b bd 9c 5d 73 bd 07 70 73 bd d1 a5 4c be
       -0.049656928 -0.059415445 -0.05943301 -0.19985129
0002c0 60 4f c6 3d c1 3c 12 bc 1b 8e e4 be 04 ab 22 be
       0.09683108 -0.008925618 -0.44639668 -0.1588555
0002d0 b1 66 bd 3e 61 5d fa bd 31 3b 30 be 4c 14 da bd
       0.3699241 -0.12224842 -0.1721008 -0.106484026
0002e0 9c 9e 82 bf 46 d6 e5 be f3 c8 42 bf c1 38 f1 be
       -1.0204654 -0.4489004 -0.76087874 -0.47113612
0002f0 f6 40 02 be 8d 8c e5 bd 5b 9a 89 be 71 f3 b6 bd
       -0.12720093 -0.112084486 -0.26875576 -0.089331515

net.6.bias f4 [3]
000000 97 d4 80 bf b9 de 63 bf 39 8a 99 bf
       -1.0064877 -0.8901172 -1.1995307

net.0.weight f4 [64, 8]
000000 21 a0 15 3e 74 34 91 3d ec 31 94 3e b5 d9 a3 c0
       0.14611866 0.07090083 0.28944337 -5.1203256
000010 51 2f 84 40 93 76 b5 3f 20 2a 09 bd 33 32 87 39
       4.130776 1.4176811 -0.03348744 0.00025786608
000020 d2 3a 0b 3e 65 0e 7d bd b8 f7 ce bd bb ec 3d 40
       0.13596657 -0.061781306 -0.10105842 2.967574
000030 1e 3e 84 40 d3 ca 68 c0 57 e7 a0 be db 63 73 3d
       4.1325827 -3.6373794 -0.31426498 0.0594214
000040 44 42 d5 be bd 21 01 bc 02 b5 b7 be 21 92 8d 40
       -0.4165212 -0.007881579 -0.35880286 4.424088
000050 b6 73 cd bf 47 94 5d c0 90 db c4 be 5d 71 1e 3e
       -1.6050937 -3.4621751 -0.38448763 0.15472932
000060 b0 f0 c8 bd 5b 76 98 bc ce 1c a8 3e 13 dc ec 3d
       -0.098115325 -0.018611124 0.32834476 0.11565413
000070 72 fa 6d c0 2a 87 7a 40 4a 61 70 bc 42 69 80 3c
       -3.718411 3.9144998 -0.014671633 0.01567519
000080 9e 7c 90 3d f4 9c 5a bd c2 75 14 3f de 08 8b 40
       0.07055019 -0.05337234 0.57992184 4.3448324
000090 7e bc 87 c0 84 e0 62 3f b3 35 e0 3e 0f 14 59 3b
       -4.2417593 0.88623834 0.4379097 0.0033123528
0000a0 d2 d6 64 3e 4b 67 78 3e 72 e7 e1 bd dc a4 89 bf
       0.22347572 0.24258153 -0.11030473 -1.0753436
0000b0 9a 6d 87 40 f6 e3 35 c0 28 96 a9 be 57 3d 00 3d
       4.232129 -2.8420386 -0.33122373 0.0313085
0000c0 70 46 35 bb 77 c9 ab 3d 5b 6c 3c 3e fa ae 7a c0
       -0.0027660392 0.08388036 0.1840071 -3.9169297
0000d0 64 cb 7f 40 12 90 87 bf ec c9 21 bf aa c3 29 3d
       3.996789 -1.0590842 -0.63198733 0.041446365
0000e0 c5 43 33 3d 7a c7 53 be 49 65 da 3e 27 a1 19 c0
       0.043765802 -0.20681563 0.426554 -2.400461
0000f0 df 17 80 40 52 f7 4a c0 46 ae 3f 3f 2b 14 b8 3c
       4.002914 -3.1713452 0.74875295 0.022470554
000100 a9 fc 85 3d 24 c0 22 3e 89 8b 00 be aa cd 9d c0
       0.06542332 0.15893608 -0.12553228 -4.9313555
000110 19 c9 31 40 f9 63 67 40 34 98 37 bf bd 21 ea 3d
       2.777899 3.6154768 -0.7171662 0.11432216
000120 d6 64 10 bc 3c 4e 1f 3c 45 ab c8 3e 89 d4 65 c0
       -0.008813104 0.009723242 0.39193168 -3.591097
000130 95 23 81 40 99 99 f4 bf 20 98 96 3d dd 89 5e 3c
       4.0355935 -1.9109374 0.07353234 0.013582674
000140 e8 30 64 bd db da 9e bd 90 fd 13 bf 52 5f 30 be
       -0.055710703 -0.07756587 -0.5780878 -0.17223862
000150 ce dd 28 c0 c1 e0 64 40 68 55 b0 be 7c ce 4e 3d
       -2.638538 3.576218 -0.3444016 0.050489888
000160 64 38 ba 3e 1d c7 61 3e 0e 84 a6 3e cf 99 58 40
       0.36371148 0.22048612 0.32522625 3.3843877
000170 1c e9 9e c0 45 8a 41 40 20 2d 88 3e fe 08 3c bb
       -4.9659557 3.0240643 0.26596928 -0.0028691883
000180 94 a9 1a 3d ea f8 b1 bc 1a 58 8d be 2d d5 8d c0
       0.03775938 -0.021725137 -0.2760628 -4.4322724
000190 f4 2a 0e 40 7e 6e 87 40 f4 1c 24 bf 69 e3 14 3d
       2.2213717 4.232238 -0.6410668 0.036349688
0001a0 84 85 19 bf 39 ec 85 be 64 10 73 be 93 0b a1 40
       -0.59969354 -0.26156786 -0.23736721 5.032663
0001b0 10 b0 21 40 92 67 79 c0 72 85 24 bf de bd df 3d
       2.526371 -3.8969464 -0.6426612 0.10924886
0001c0 d4 14 e0 3a bd 00 af be 87 68 a6 3e c9 b0 e6 3f
       0.0017096051 -0.3418025 0.32501623 1.80227
0001d0 8d 6b 6c c0 e0 6f 42 40 fb 4e 20 bf 2a 0e 49 3d
       -3.6940644 3.0380783 -0.62620515 0.049085774
0001e0 e5 45 85 3e fd 10 e1 be 0b e2 7d 3e dd de 45 40
       0.26029888 -0.43958274 0.2479326 3.0917275
0001f0 cd cd 99 3f 96 38 d6 3f a5 9f fc be 4d 24 f7 3c
       1.201593 1.6736019 -0.4934055 0.030168677
000200 13 06 53 3e e2 2b 9f be 79 6e 22 3d 6a 6f 46 40
       0.20607786 -0.31088167 0.039656136 3.1005502
000210 09 4f 78 c0 9e 3a 2b 40 f4 e0 c0 be fa ad 21 3e
       -3.879824 2.6754527 -0.37671626 0.15789023
000220 cf 90 01 bf 1d e9 9b 3e bf d1 9c be b3 1f 2f c0
       -0.50611585 0.3045129 -0.30628774 -2.7363098
000230 50 1c 6e 40 a0 83 57 c0 31 12 36 3e 7b 2a f3 3d
       3.720478 -3.3674088 0.17780377 0.11873337
000240 44 e4 82 bd 8c 5e 0d bd 15 78 49 3b f4 50 4f c0
       -0.063911945 -0.034513995 0.003074174 -3.239316
000250 65 95 52 c0 2d 6e 50 40 c4 d5 37 3f b8 ac 34 3d
       -3.2903683 3.2567246 0.71810555 0.04411003
000260 6f c0 d0 be 27 9a 21 bd 76 41 59 3d eb 9b 7e c0
       -0.40771815 -0.03945365 0.053040944 -3.9782665
000270 ec de 16 40 fd 06 2a 40 b4 28 04 bf 76 f3 66 3c
       2.357356 2.6566765 -0.5162461 0.014096132
000280 7d b2 1e bd 09 17 84 3d 98 2f ab bc eb 57 31 40
       -0.03874444 0.06449706 -0.020896718 2.770991
000290 4b 07 74 40 a8 ef 4f c0 4e ec c3 be f0 b7 1e 3e
       3.8129451 -3.2490025 -0.38266224 0.15499854
0002a0 a1 da 82 bd 92 65 1c 3e 2c 1f 2e 3e 89 45 3a bc
       -0.063893564 0.15273121 0.17004079 -0.011369118
0002b0 96 4d e7 bd 5f 1a 13 bf ba a8 73 3e 8a 43 ae be
       -0.11294095 -0.57462114 0.23794833 -0.34035903
0002c0 50 b6 2e 3e 66 d6 cb 3e 5c 61 b1 3e df 8d 6f 3f
       0.17061734 0.3981201 0.34644592 0.93575853
0002d0 b4 89 86 c0 43 14 4c 40 88 7e de 3e c6 02 6d bc
       -4.2043095 3.1887367 0.4345591 -0.014465993
0002e0 e8 10 2a 3d 20 6b 7a bd 70 c7 1f bd 56 6c 6f be
       0.04152003 -0.06113732 -0.039008558 -0.2338117
0002f0 38 21 4e 3d be 3a 74 3e 00 b9 2a 3d a9 5c 80 be
       0.05032465 0.23850533 0.041680336 -0.25070694
000300 70 35 0f bd 01 3e 8f be e8 9d e9 be 60 02 a2 c0
       -0.03496307 -0.27976993 -0.45628285 -5.06279
000310 a7 d4 48 40 ea 3d 3c 40 37 c5 83 be 30 e8 21 3e
       3.1379793 2.941279 -0.257364 0.15811229
000320 26 4c 3e bd 22 64 81 be 5c 5b 6f be 38 64 90 c0
       -0.04645934 -0.25271708 -0.23374695 -4.5122337
000330 9b 00 77 40 9d ed ad 3f 44 98 a1 be 3c 5d 18 3e
       3.859412 1.3588139 -0.31561482 0.14879316
000340 a8 ed 8c 3e 4d 50 91 3e 16 62 a8 be 1c 40 48 40
       0.27525067 0.28381577 -0.32887334 3.128913
000350 d1 a9 2d 40 73 89 5d c0 49 b5 93 be 99 53 3b 3e
       2.7134898 -3.4615142 -0.28849247 0.18293609
000360 c2 af 9b bb fa 5b b3 be c5 17 d3 3d d1 73 90 c0
       -0.0047511766 -0.3503111 0.10307268 -4.5141377
000370 87 4f 7c 40 11 4c 65 3f b9 33 c7 be 64 30 c1 3d
       3.942354 0.89569193 -0.3890665 0.09433058
000380 58 0a 19 3d 38 7d 60 bd 38 7d c4 bd 90 f5 cf 3d
       0.03736338 -0.054806918 -0.09594196 0.10154259
000390 e0 5a bf 3c da 16 76 be a6 31 f9 bd 0c da fa bd
       0.023358762 -0.24032155 -0.12167673 -0.122486204
0003a0 58 32 71 3d a8 43 7e bd 80 d4 cc 3b 25 a3 92 be
       0.058885902 -0.06207624 0.006250918 -0.28640094
0003b0 0a 19 ad be 15 78 b1 3e fc 39 c6 bd 3e 6d 30 be
       -0.33808166 0.34661928 -0.096790284 -0.17229173
0003c0 f9 c3 91 3e 4d c6 a8 be b4 83 a4 3e d3 06 0e 40
       0.28469828 -0.3296379 0.32131732 2.2191665
0003d0 48 8c 91 3f ca a8 03 c0 d2 1f fb 3d 88 14 95 bd
       1.1370935 -2.057177 0.122619286 -0.07279307
0003e0 61 b9 e7 3c d2 82 93 3e 16 e7 47 bd d4 84 66 40
       0.028286638 0.28810745 -0.048804365 3.6018572
0003f0 8c 66 3c 40 53 12 26 c0 c6 1b 5b bf e2 42 3f 3e
       2.943759 -2.5948684 -0.85589254 0.18677858

net.0.bias f4 [64]
000000 60 ff 89 be 35 3d 73 3f ce 15 9f be ff 36 3b 3f
       -0.26952648 0.9501527 -0.31071323 0.7313079
000010 b9 45 d3 be e5 8f 4c 3f ca de 16 3f 20 65 de bf
       -0.41264132 0.79907066 0.589337 -1.7374611
000020 fd ef 2f 3f d7 90 9a bf 4f b4 87 3f bb c3 aa 3c
       0.6872557 -1.2075452 1.0601901 0.020845285
000030 e6 ec 92 3f bb 7f 4e 3f 72 83 3d 3f a2 c2 a6 3f
       1.1478546 0.8066365 0.74028695 1.3028147
000040 1b 82 04 3f 71 2a 04 be 81 ac e7 bf 23 f3 3d 3f
       0.51761025 -0.12906815 -1.8099519 0.7419912
000050 b9 75 3b 3f ae 5a df be bc 7b 81 be d0 66 e7 3f
       0.73226506 -0.4362387 -0.25289714 1.8078251
000060 6e 87 49 be 38 d4 60 be 55 a1 90 3c d2 7d 1d 3e
       -0.19680569 -0.21955955 0.017655054 0.15380028
000070 20 5d 60 bd 7c 46 a1 bd 8c d3 26 3e 79 00 7a 3f
       -0.05477631 -0.07874772 0.16291636 0.9765697
000080 95 fd f3 3f 1c 76 06 be 23 26 bc 3f 0a 34 be 3f
       1.9061762 -0.13130993 1.4699138 1.4859631
000090 8c fa 1e bd 57 7d 25 be 4c 06 24 3d 6f 3f 96 bf
       -0.03881316 -0.16161095 0.040045068 -1.1738108
0000a0 c6 a0 19 3f eb 39 1a 3f cc 40 89 be b7 89 bc bc
       0.60010946 0.60244626 -0.2680725 -0.023014886
0000b0 7e aa da 3f 46 ee 4c bf 7f 4c 9b 3f d4 1f b2 be
       1.708328 -0.80051076 1.213272 -0.34789908
0000c0 a5 2c ca 3e 07 36 e1 be 45 19 59 3f b8 d5 6e be
       0.39487186 -0.43986532 0.84804183 -0.23323715
0000d0 1b d1 25 3f e0 2e 4e be 2c 2f 85 3f 88 fe 59 3f
       0.64772195 -0.20135069 1.0405021 0.8515401
0000e0 6f e4 a0 be 87 09 10 bf ba 77 5e bf 01 ea 95 3c
       -0.3142428 -0.5626454 -0.8690144 0.018300058
0000f0 b2 36 86 3e 9b 33 a6 be 99 01 84 be bd 7f 80 3f
       0.26213604 -0.32461247 -0.2578247 1.0038983

net.2.weight f4 [64, 64]
000000 d7 28 88 3d 5d d0 ed bc ac 2d 1e bd 96 00 6d 3d
       0.066484146 -0.02903002 -0.038617775 0.057861887
000010 78 c9 89 3e b4 29 2e 3e 08 d1 f4 3d 9d 9e f2 3d
       0.2691152 0.17008096 0.11953932 0.11846659
000020 74 a7 2d be e9 ba 60 3e 5a a1 6a be 7c a0 00 be
       -0.1695841 0.219463 -0.22913113 -0.1256122
000030 34 73 66 be 79 ec 29 3e 54 5e 7e bd e7 57 27 3e
       -0.22504884 0.16594113 -0.062101677 0.16342126
000040 ac 6d ab bd 4e 2d 01 3b 61 d2 95 be 2f bb ad bd
       -0.083705276 0.0019710842 -0.2926207 -0.08482968
000050 73 07 02 3e ce ac 42 3d e0 88 e6 3d 8e 39 7c 3e
       0.12698154 0.04752808 0.112565756 0.2463133
000060 cb b2 33 be 25 26 0f 3d b6 09 0c 3e f4 43 fc 3d
       -0.17548673 0.034948487 0.1367558 0.123176485
000070 f8 e8 c7 bc 5e 95 80 bd a1 dd 8d 3e 29 bb 1e 3e
       -0.02440308 -0.062784895 0.27708152 0.15501083
000080 65 3f 42 3e 4c dc ed 3c 81 cd 30 be d9 0e 03 3d
       0.18969496 0.02903571 -0.17265894 0.03199658
000090 b2 d7 af bb 6b b1 2e 3e 6c fd 89 bd dc 14 ec bd
       -0.005366289 0.17059867 -0.067377895 -0.11527416
0000a0 38 7e 9d 3d 38 61 ed 3d 11 70 ab be 34 21 48 3d
       0.0769009 0.11590809 -0.33483937 0.04885979
0000b0 fa 94 1a bc 8d bf b8 3d 64 4d b4 bd 3a e2 55 3e
       -0.009434933 0.090209104 -0.088038236 0.2088708
0000c0 07 4a 98 3d d0 14 a4 3e ae 88 e9 be 69 86 5c bc
       0.074359946 0.3204713 -0.4561209 -0.01345978
0000d0 61 ee c4 3e 17 44 8d bd 22 76 d4 3d 9e 12 e5 bd
       0.3846312 -0.06897753 0.103740945 -0.111851916
0000e0 3f 28 c9 bd a3 2d f2 be 4c df 64 bd f6 5d c8 be
       -0.098221295 -0.47300443 -0.055877015 -0.39134187
0000f0 bc e0 65 bd 07 8b f4 bd 45 da 91 3d 35 74 21 bf
       -0.056122527 -0.1194058 0.0712171 -0.6306794
000100 41 7a 63 bd f0 16 94 bc 74 31 cd bd e1 72 3e bf
       -0.055536512 -0.018077344 -0.10019198 -0.7439404
000110 40 b8 bf be c4 c3 3f 3e 26 00 8a bc 0c ef 85 bd
       -0.3744526 0.18727022 -0.016845774 -0.06539735
000120 8a 0f c1 3d b7 52 dc be 5d 18 91 3c f0 ca 51 be
       0.09426792 -0.43031856 0.017711813 -0.20487571
000130 be 9d 6d 3d 2f 21 3c bc c0 af ad bd 42 b4 9f be
       0.058011763 -0.011482521 -0.08480787 -0.31192213
000140 02 25 19 3d 07 83 dc bd 76 37 d4 be 45 a5 89 3e
       0.03738881 -0.10767179 -0.41448563 0.26883903
000150 a7 4e 2e 3d 3b d2 26 3e 22 9f a1 be bc fe 11 3e
       0.042555477 0.16291134 -0.3156672 0.1425733
000160 7f 96 65 3a 4b cb 73 3d d8 1a 3b 3c 2a 67 2e be
       0.00087580824 0.059520047 0.011419974 -0.17031541
000170 fe b2 c3 3d 8e d8 cc 3d 7d 98 84 be 80 3b e5 3d
       0.095556244 0.10002242 -0.2589759 0.11192989
000180 c9 dd 92 3d d6 6e c6 bd 9f e5 47 3e 50 7c 93 bc
       0.071712084 -0.09689109 0.19521187 -0.018003613
000190 62 25 26 3e 07 19 2a bc cb 7d 0d 3c 17 54 f4 3e
       0.16225198 -0.010381944 0.008635948 0.47720405
0001a0 16 9e 73 bd ad d3 05 be 62 33 a2 bd 5b a6 04 3c
       -0.059476934 -0.13069029 -0.07919957 0.008096303
0001b0 3f bd 0a 3e 55 9d 80 3d 16 35 43 3e 33 b5 fe 3d
       0.13548754 0.06280009 0.1906322 0.12436905
0001c0 99 fb b8 3c b7 3c 04 3e cd af 2f be 9a 61 d5 bd
       0.022580909 0.12913786 -0.17156906 -0.10419007
0001d0 c1 ec 3e 3e 23 70 14 be 01 02 ef bd a8 5d fd 3c
       0.18645002 -0.14495902 -0.11670304 0.030928448
0001e0 bd fe 11 3d ef 59 52 be e1 ad d1 be 7e 46 41 3d
       0.035643328 -0.2054212 -0.40952972 0.047186367
0001f0 cd d6 b0 bb 7b e0 d2 be a5 96 cb 3d c2 38 dc bb
       -0.0053967 -0.4118689 0.099408425 -0.0067206332
000200 9a 11 b8 bc d4 69 aa 3d 73 6d 43 3d f1 d7 38 be
       -0.02246933 0.08320966 0.0477118 -0.18051125
000210 16 75 77 be 36 e8 5b 3e 8b 3e be bc 95 e6 ca bd
       -0.24165758 0.214753 -0.023223182 -0.09907261
000220 4e 01 84 3d 83 ba 9d 3d b7 37 d1 bd cb 40 21 be
       0.06445561 0.0770159 -0.10215705 -0.15747373
000230 b4 59 6a 3d 2d 43 98 3d 21 64 47 be 9d ba 2a 3f
       0.057214454 0.07434688 -0.1947179 0.66691
000240 48 7c 64 3d c2 82 84 3d 7d 07 16 bf 5b a0 c3 3e
       0.055782586 0.064702526 -0.58605176 0.3820828
000250 84 84 16 3d 1b c6 cd 3a 43 df 51 be 9d a1 2f 3f
       0.03674747 0.0015699299 -0.20495324 0.6860598
000260 9e 92 89 bd eb 0d 1f bd 3f 24 7a 3d 43 ae c1 bd
       -0.06717418 -0.038831633 0.061069723 -0.09457066
000270 5c af c5 bd a6 16 cd bd dd 91 11 3e 94 4d 06 3e
       -0.09652588 -0.100140855 0.14215799 0.13115531
000280 7f 65 5b 3f d5 32 a2 bc 46 89 1d 3e 88 a7 02 3f
       0.85701746 -0.01979963 0.15384397 0.5103688
000290 b1 56 81 3d ce 77 58 be b9 62 97 3c f5 e2 a5 bf
       0.06315363 -0.21139452 0.018479692 -1.2959887
0002a0 89 73 37 3d b8 88 f2 3d 0b ee c3 bd 37 3c 3c bd
       0.044787917 0.11842483 -0.095668875 -0.045955863
0002b0 da 51 d7 3d 2e 38 27 3e ed 98 18 be 46 b0 99 bd
       0.10513659 0.16330025 -0.14902087 -0.075043246
0002c0 4b f6 96 be 2a be 67 bd f5 91 07 be cc 79 d2 bd
       -0.29484782 -0.05657784 -0.13239272 -0.10277137
0002d0 eb b9 54 3e 6d b0 4d 3a 65 d0 5b be 95 67 b1 3d
       0.20774047 0.0007846419 -0.21466215 0.08662335
0002e0 42 64 33 be e0 da 7a be 77 30 ad 3d 90 d6 70 be
       -0.17518714 -0.24497557 0.084565096 -0.23519349
0002f0 f4 98 bb be 9b d0 c4 bb 45 46 02 bc e6 ca 6b be
       -0.3664013 -0.006006313 -0.007951324 -0.23026618
000300 69 4a 8c 3e 4c 61 d0 3d 62 cd fd bd 6b ae c2 be
       0.2740052 0.10174808 -0.12392689 -0.38023695
000310 ee 25 d8 be f1 21 f4 3d 94 5a 77 3c 40 5c 01 3d
       -0.42216438 0.11920536 0.015097279 0.031582117
000320 74 c3 0f bc 90 39 89 3e 95 34 09 be 98 c5 81 be
       -0.008774627 0.2680173 -0.13398965 -0.25346065
000330 1e bd 61 3e 9b ed b4 3d f4 a6 1c be bd 51 bf 3d
       0.22044799 0.08834382 -0.15298063 0.09341762
000340 62 19 48 3c 62 f6 63 bd 2f 77 9f be b4 8f 3e 3e
       0.012213083 -0.05565489 -0.31145617 0.18609506
000350 cf 66 45 3d 94 59 32 3d 32 c5 82 bd a7 2a be 3d
       0.04819375 0.04354246 -0.06385268 0.09285479
000360 2d 95 5e bb 61 ab b3 3d ae fe b0 3d 09 df d1 3d
       -0.0033963427 0.08772922 0.08642326 0.10247619
000370 a0 d7 6f 3c 10 b6 53 bd 37 32 9d 3d 22 23 82 bd
       0.014638811 -0.0516873 0.07675593 -0.06354357
000380 e9 15 a7 b9 3c 60 a5 3e 61 8a 5b be e2 5d f4 3a
       -0.00031869047 0.32299984 -0.21439506 0.0018643702
000390 2f 7b ee 3c 29 f4 41 bd 57 35 1e be 9c 29 8d be
       0.029111473 -0.04735199 -0.15450035 -0.27570808
0003a0 06 3e ea 3c 90 3f fe bc 10 0e dc bd cc 03 6a 3e
       0.028594028 -0.031036168 -0.1074487 0.22853011
0003b0 08 65 22 3e 45 68 dd 3c ce a9 c5 3d e0 0b 5e 3d
       0.15858853 0.027027259 0.09651528 0.054210544
0003c0 39 ff b9 be 4b 27 f7 3c 20 82 68 be d1 28 a5 3c
       -0.36327532 0.030170104 -0.22705889 0.020161064
0003d0 fd 2e 8c 3d cf 93 25 3e 5a 47 bc be 7a 34 60 bd
       0.068449 0.16169666 -0.36773187 -0.054737546
0003e0 6c 58 97 3d f8 b4 fa bc 39 3b 0e 3e e1 54 b4 be
       0.07389912 -0.03060387 0.13889779 -0.35221007
0003f0 5c 3b c2 be cd e4 fd 3b 37 8a 0e be d0 d7 b3 be
       -0.37935913 0.0077482224 -0.13919912 -0.3512559

net.2.bias f4 [64]
000000 3c 8a 58 3f e8 52 6d 3e df a7 c0 3f 0f 05 ea bd
       0.8458593 0.23176157 1.505123 -0.11426746
000010 88 23 35 bf 69 be ac bd a6 b7 ad 3d 0e ab b4 3f
       -0.7075734 -0.08434755 0.08482294 1.4114702
000020 fa 41 15 bc d3 6f dd 3f f2 64 03 3c 03 9e 02 40
       -0.009109968 1.7299751 0.008019673 2.0408943
000030 24 ac 78 3f 21 b6 2d bf 80 31 24 3d 1c 08 95 3f
       0.97137666 -0.6785603 0.04008627 1.16431
000040 1f 8d 92 3f 9d b9 66 3f 04 06 5f 3d 69 da 11 40
       1.1449317 0.90126973 0.054449096 2.2789557
000050 c8 a1 cd 3f e6 3b 00 40 d9 9a c2 3e 39 67 72 3f
       1.6064997 2.003656 0.38008764 0.94688755
000060 75 2e 24 bd ae b4 4d 3f 92 ce af 3f 20 86 bd 3b
       -0.040083367 0.8035382 1.3734915 0.005783811
000070 cb d6 0f bb a0 71 0f be 67 9a 70 3f 01 c0 f8 3d
       -0.0021948095 -0.14008188 0.939856 0.12145997
000080 97 04 6d 3f 92 5c a6 3e b8 ca ec 3e c4 cf 9a 3f
       0.9258513 0.324925 0.46248412 1.2094655
000090 95 dc 0c be 0f 22 4a 3f 16 31 ef 3f ff 15 8f 3f
       -0.1375602 0.7895822 1.8686855 1.1178588
0000a0 45 57 d7 be de c0 2b be 1d 67 60 bd d4 a5 f3 3f
       -0.4205877 -0.16772792 -0.054785836 1.9034982
0000b0 e2 6c 2f be 61 2e d1 3e 66 a1 f0 3f 25 a2 33 3f
       -0.17131379 0.40855697 1.8799255 0.7016929
0000c0 9f 12 b8 3f 60 c1 75 3f a8 0f 39 be 4b 46 e2 3f
       1.4380683 0.9599819 -0.18072379 1.7677702
0000d0 a4 f3 bb 3f 7d dd 17 3f 5e ac 2a be 38 ad 5b bc
       1.4683728 0.5932234 -0.16667315 -0.013407998
0000e0 56 0c 02 40 d9 d0 86 3f dd ac a7 be cc 4a 3c 3d
       2.032003 1.0532485 -0.32749072 0.04596977
0000f0 d2 00 13 3f 21 d4 d6 3e 88 31 cd 3c 97 ab ba 3f
       0.57423127 0.41958717 0.025048032 1.4583615
