runs/dqn_agent.pt (torch, 158343 bytes, 32 tensors)

net.0.weight f4 [64, 8]
00000000: a2b9 b7bd d3a3 d03c bd8e 623e 494e 8340
00000010: fa32 8fc0 ccb6 a2bf a165 3f3f a528 013d
00000020: 14f3 213f 3bbc d8be 0b12 eebc 1455 873f
00000030: 6256 bdbf 2dc3 1440 b870 babe 0986 6cbc
00000040: c2f4 68bd d59a a23d 05c7 d1be 39fc 2c40
00000050: 4453 7ac0 cbdb 973f 3426 ed3e d09b c53d
00000060: 0e99 373e cb0d 6a3e 3ec9 03be c6b1 2740
00000070: c513 3040 ac07 9cc0 56d9 833e 752d 35bc
00000080: b995 afbe f070 37be 871b 473e bbf2 4340
00000090: fa7a 59c0 55c0 85bf 9913 f93e a8ba 373e
000000a0: 67d9 d6be 30cd a23c cda5 aabe 51fc 01c0
000000b0: dfac 5e40 1b8c 37c0 53ff ddbe 6df1 9a3d
000000c0: 9273 4a3e 98e6 aa3e bb92 0e3e fe85 01be
000000d0: 8e63 b93e 1d12 1a3d 742c 553d 81cf 52be
000000e0: a307 05be 54d6 493c 4ea9 943e f517 0ac0
000000f0: 1d8e 6640 57d3 b4bf 20cc 18bf 812b 573d
00000100: e67f 6cbc f4a8 49bc d71a a23e 781b e1bf
00000110: a532 4c40 b779 1240 94cc 8cbf 8ec3 2f3e
00000120: 1d51 9bbe 3dd6 46be 745b e2bd 0528 52c0
00000130: 2354 6ac0 cd9f 7b40 4e9b b13e dca7 823d
00000140: 7523 1ebd 8c62 97bd ddb2 633e 9e26 8cbf
00000150: 7771 13bf 0a8a b63f 682a 4d3e f6b3 8abe
00000160: edb2 893e 52b4 96be 9cbf dfbd eb7e 5340
00000170: 7851 81c0 4cec 1ac0 4704 0b3d 4e0a 993d
00000180: f7be 83be 8915 1a3c 1d35 e4bd 9811 5140
00000190: 5b33 3540 a0bf a0bf 33d7 8cbf f8ca 383e
000001a0: 85ec 373e b4c3 80bd 252d 76be c4c2 8a40
000001b0: 88ea 3ebf d4e4 94c0 adfc bbbe a489 8f3d
000001c0: 219e aabe 0d6d bb3e 40ac f13c 6847 65c0
000001d0: 0242 d33f 6929 7540 3b70 dfbe 56ce 653b
000001e0: 01cd c9bd debe 523e acc2 b2bd 2e6c 99c0
000001f0: e3c9 6abf 1fc0 a240 d55c 5b3e 01a2 5a3d
00000200: c135 413e e8bc 843e ec31 b0bd 002f 1540
00000210: 10d4 92c0 2f1a f53f d5fa c63d 8e68 013d
00000220: 6013 a43d e727 c73d c234 37be 98d7 1fbd
00000230: e07c 6b3c c007 383c 92e9 30be 990e 58be
00000240: 0ef8 9c3e e854 e0bd 1a4d 7d3e 6cad 4b40
00000250: 2015 82c0 5284 593f f80b aebe 12c9 dc3d
00000260: fc9c 68be e2c7 15be 308a b1be ed75 a5be
00000270: f70b 803d d68f e4ba a158 d63b d681 02bc
00000280: cc97 853d 80c9 e83b e5e7 25be 3926 853e
00000290: dbcc 38be 981f 61bd 5355 aebe 36d8 92be
000002a0: fe86 a1be 5cd2 c2bd c862 143d e0e7 5e3d
000002b0: e4a2 febd aede 6c3e 169d 3c3e f601 1fbe
000002c0: 20fc 793d 507f e5bc dfa6 0abe 4b83 06be
000002d0: 06dd 90be e070 cd3d 3e4f 69be e669 55be
000002e0: 3bd9 9bbe 1357 5dbe d6e5 5ebe ce95 3f3e
000002f0: a00f 01bc 7e9f 633e e2d9 38be f10c b3be
00000300: de71 913c dca7 1abe 1d0f 683e 1982 90c0
00000310: b94d 7a40 8e79 3d40 3d9c bebc a14e 593d
00000320: b07d b2be 70ce 68be dfff 4abe f2f4 733e
00000330: acad 8e3d 8620 1b3e 0040 a7bb fd0a 32be
00000340: 54da 423e 1a26 95bd a6fa 34bd 72b5 84c0
00000350: 84a7 5b40 6b9a 0940 e93d 6cbf 7a41 da3d
00000360: 25ab 213e 2c25 54be 61e8 8c3c ca75 7540
00000370: 6c19 85c0 f6d1 0bbf ae0f 083e 8a5f 1e3e
00000380: 90d3 89be bb40 203e 2a08 783e 2c75 1bbe
00000390: 1724 533d ca74 b0be 7131 14bf 96b4 62be
000003a0: e265 253e d1ef 0c3d 26c3 443e bfc5 6c40
000003b0: 8663 9240 4b19 a9c0 2c39 cbbe 893a 0f3c
000003c0: 7f0f b7bd fa67 af3e a80b 503d e7a5 fbbf
000003d0: be68 0040 ceb2 3cba 0a06 dfbe 0f2b 5ebd
000003e0: 2a8b 10be ce58 3ebe 63db 163f ab87 0f40
000003f0: 88c4 4bc0 1094 a23f 8514 21be 308c f9bc
-0.089709535 0.025468742 0.22124763 4.1033063 -4.4749727 -1.2712035 0.7476445 0.031532902
0.6326153 -0.42331108 -0.029061338 1.0572839 -1.4791987 2.3244126 -0.36414123 -0.014436253
-0.056874044 0.07939688 -0.40972152 2.7028944 -3.9113321 1.186395 0.4631821 0.096488595
0.1792948 0.22856824 -0.12869737 2.6202254 2.7512066 -4.8759365 0.25751752 -0.011058201
-0.34293917 -0.17914176 0.19444095 3.06169 -3.398131 -1.044932 0.48647764 0.17942297
-0.4196274 0.019873232 -0.3332962 -2.0310252 3.4793012 -2.8679264 -0.4335886 0.075655796
0.19770649 0.33379054 0.1392316 -0.1264877 0.36208767 0.03761493 0.052044347 -0.20586969
-0.12991194 0.012319166 0.2903542 -2.1577122 3.602424 -1.4126996 -0.5968647 0.052531723
-0.01443479 -0.012308348 0.31661102 -1.7586508 3.190591 2.288679 -1.0999932 0.17164442
-0.30335322 -0.19417663 -0.110525995 -3.2836926 -3.6613853 3.9316285 0.346888 0.06379673
-0.038608033 -0.07391843 0.222362 -1.0949285 -0.5759501 1.4260876 0.20035708 -0.27090424
0.26894322 -0.29434448 -0.109252185 3.3046215 -4.041195 -2.4206724 0.033939626 0.074726686
-0.25731632 0.009404548 -0.11142943 3.2666988 2.8312595 -1.2558479 -1.1003174 0.18046176
0.17961319 -0.062873274 -0.24040659 4.336275 -0.74576616 -4.652933 -0.36716214 0.07008675
-0.33323768 0.36606637 0.02950108 -3.5824833 1.6504519 3.8306525 -0.43640313 0.0035065613
-0.098535545 0.20580623 -0.08728537 -4.7944555 -0.91714305 5.0859523 0.21422131 0.053377155
0.18868162 0.25925374 -0.08603272 2.3309937 -4.5883865 1.9148616 0.09715811 0.03159385
0.08011508 0.09724408 -0.1789122 -0.039023966 0.014373034 0.0112323165 -0.172766 -0.21099319
0.30658 -0.109536946 0.24736443 3.1824598 -4.0650787 0.8496753 -0.33993506 0.107805386
-0.22716135 -0.1462703 -0.3467574 -0.32316533 0.06252282 -0.0017437886 0.006541327 -0.007965526
0.065230936 0.007104099 -0.16201742 0.26005724 -0.18046896 -0.05496177 -0.34049472 -0.2868058
-0.31548303 -0.09512779 0.036227018 0.054420352 -0.12433413 0.2313182 0.18419299 -0.15528092
0.06103146 -0.028014809 -0.13540219 -0.13136022 -0.28293628 0.10031295 -0.22784135 -0.20841178
-0.3043917 -0.21615247 -0.21767363 0.1870949 -0.00787726 0.2222881 -0.18051866 -0.3497081
0.017754491 -0.15103096 0.22662015 -4.515881 3.9109938 2.960544 -0.02326786 0.053053502
-0.34861517 -0.22735 -0.1982417 0.23823908 0.06966719 0.15149125 -0.005104065 -0.17387004
0.19028598 -0.07282658 -0.04418435 -4.147149 3.4320993 2.15005 -0.9228197 0.1065702
0.15787943 -0.20717305 0.01720065 3.8353143 -4.1593533 -0.5461725 0.13287231 0.15466133
-0.26919222 0.15649693 0.24221864 -0.15181416 0.05154809 -0.34464103 -0.5788794 -0.221392
0.16152146 0.034408394 0.19215068 3.6995695 4.574649 -5.2843375 -0.39692056 0.008741983
-0.089385025 0.34259015 0.050792366 -1.9660004 2.006393 -0.0007198275 -0.43559295 -0.054240283
-0.14115587 -0.18588564 0.5892851 2.2426555 -3.1838703 1.2701435 -0.15730484 -0.030462354

net.0.bias f4 [64]
00000000: 94e1 9fbf 82f0 3b3f 4c86 65bf dbe9 303f
00000010: d1b5 3cbf 7e58 773d 2ac9 89be 7210 8c3f
00000020: 6e7e 143f ea62 c8bf abf5 323f 5e6b 1fbf
00000030: 98cf c03f 99af 913e fd0a 883f fb2e 35be
00000040: 732c 0abf 45ff 74be 9c9b 9bbd e245 9c3f
00000050: f2f9 93be 0ab3 9e3f 5dc8 48be 774f b3be
00000060: caee 883f a04f bfbc aea2 753e 3911 27bf
00000070: 92af 4a3f 8792 343f 9175 2ebd c7b5 823e
00000080: 1a0e 663f 4ece d4bd 64af 85bf bb12 a7be
00000090: d884 6cbf 4b62 4dbd 40bd 283e 9c0b 843f
000000a0: 4d11 8fbc d0c7 823d eab0 f03e 4f50 933f
000000b0: 251c 39be 421c e03e 9907 a53e bd4c 1ebf
000000c0: 2067 f7bb c79b 2fbd 0506 b13f e864 e93f
000000d0: 6044 31bc 3938 e93e 27ce 4d3f b8e6 c93f
000000e0: 45b2 843f 3ab4 dabe 6bdf 743f 3ea6 863f
000000f0: df4d 173d ea65 b13f 920f 5f3f 8e29 a53f
-1.2490716 0.7341386 -0.89658046 0.69106835 -0.7371493 0.060387127 -0.26911288 1.0942519
0.58005416 -1.5655186 0.6990611 -0.62273204 1.5063353 0.28454283 1.0628353 -0.17693703
-0.53974074 -0.23925503 -0.075980395 1.2208827 -0.2890163 1.2398388 -0.19607683 -0.35021564
1.0697873 -0.023353398 0.23987839 -0.65260655 0.7917415 0.70536083 -0.04259259 0.2552931
0.8986527 -0.10390912 -1.044415 -0.32631478 -0.92390203 -0.050142568 0.16478443 1.0316043
-0.017464304 0.063857675 0.47009975 1.1508883 -0.18077143 0.4377156 0.3223236 -0.61835843
-0.0075501353 -0.04287317 1.3829962 1.8233919 -0.0108195245 0.45550707 0.8039269 1.5773535
1.0366904 -0.42715627 0.9565341 1.0519483 0.036939498 1.3859227 0.87133133 1.2903306

net.2.weight f4 [64, 64]
00000000: b7ca 333e 6017 aa3c 8b4f e93d 0d4b 223f
00000010: 9875 ab3d 8b5a a7bd a65a 8c3d 9ae7 01be
00000020: 25df c63d 3e34 adbd 0280 ae3d 8e7c 3e3d
00000030: 07fb d03c da4d 0d3e d544 893c 4b28 9fbe
00000040: 6bd7 ac3d ee2b fabb 801b 373c 755c af3e
00000050: 2cea 6d3d 8aa5 273e c881 b73c e291 8fbd
00000060: 83ae 92bc 7e27 87bd 5b57 933c c4a8 8e3d
00000070: 7431 c23e f952 353f 62f6 29be baf6 98be
00000080: f61c 13bf 4c8a 99bd 780c 1abe d446 afbc
00000090: fe48 60bd 1873 fcbc 32a9 0bbe 0fe3 3d3e
000000a0: a2e5 cf3d 897d bf3d 370c 703e 4f62 b03e
000000b0: 35d1 323e 1d47 0abe b459 033e f32d 86be
000000c0: aeba 0ebe 3d94 d93c 79b8 d33e 2fc0 3cbd
000000d0: 1cdc 25bd e848 0c3e 007f 2c3e d86f 063e
000000e0: c929 87be 3ec9 bebe 0293 733e 217a 6f3e
000000f0: 8003 62be b5ed f93d 2548 d03d b5af e5bd
00000100: 9b22 04be 4218 a3bd f615 90bd 9c7d 0c3d
00000110: 98ef 813c e413 b0bd cb41 3bbd 2690 32bd
00000120: 79b6 d8bd 0e44 99bd 303d e0bc 1161 d6bd
00000130: 2742 6b3d 8473 9c3d 48c1 b9bc d399 343d
00000140: 594d 96bd 924e abbc e1a5 d83d 6a5a 843d
00000150: ba88 f93d 44b1 dfbd 807d 3a3d 1afd 803d
00000160: 22dd 653d e8bf 81bd 372a 983d eb1d 3ebd
00000170: 4179 08be 93ed fcbd 65d1 83bc 3916 f4bd
00000180: 9cca 97bd df2d 3dbd ed55 fcbd 61d4 eabd
00000190: ed12 a53b c078 0f3c 8c71 ecbd 3241 bfbd
000001a0: 6050 7ebd bc39 eebd c4fc 2c3d 2a6e d8bd
000001b0: c4e5 623d 9f3d 25bd c12a c2bd 6754 3a3d
000001c0: b463 dabd 2e2a a73d 5378 4b3d 7bb1 d03c
000001d0: ca82 cb3d 85e7 c0bd 8b39 823d eccb 283b
000001e0: 6817 4cbd a15f 5fbd 2ce2 9fbd 8206 b5bd
000001f0: d7d7 ca3d d0bd 0b3d 705c 82bd 06c7 933c
00000200: 929e c73e 1501 933d add0 b33d 1aff 4a3e
00000210: 1877 a13d f642 5fbd 61a8 9ebe 56c5 1bbe
00000220: 7e2d 17bd 72c8 86bd 7860 33bd fe69 713d
00000230: a470 1d3e 7e84 5d3d dc67 9ebe 2e17 0fbe
00000240: cccf 4e3e 0076 13ba af60 d63d 57d5 0e3e
00000250: 7a0c 93bd e237 853e 08b9 e23c 8080 133b
00000260: b427 b4be 505d 093c ca7a ffbd 2f11 ec3d
00000270: 705d 01bd 24f6 af3e 79e2 2d3f bf4f 8e3e
00000280: 4ec1 29be d302 0abf 7b6e da3d 2bad 773e
00000290: 896a 45bc 28e3 b93c 9a18 2abe 58e9 a73d
000002a0: d58a b3be 3fe8 41be fd9a 25be b882 d93d
000002b0: eae8 acbd 154d 9b3b f2e8 523d 974a 35be
000002c0: 8d41 39be 6c17 4dbe c90c 8c3e a9ff 39be
000002d0: 30d8 86bd 942e 643e a06e 683e 8ffd 0fbd
000002e0: 9d66 66be 43d9 d93d 0a9f 953e d777 a13e
000002f0: 4d06 b1be a232 873e 4293 293e 649d 8dbd
00000300: c7fe c9be ca60 8c3e 7750 4ebe bc83 e13c
00000310: e82d 273d 89d1 de3d bace 4bbe b30c 473d
00000320: 36d1 0fbe 3975 8dbe c869 223c 4d4b 79bd
00000330: 2574 ba3d 32cc 1dbe 312c 863d 2877 40be
00000340: 86bb 03bf fbd5 2d3d 4d1c 2dbe 680d 373e
00000350: ca1e e7bd b66b ab3e fc92 03bd 4429 27bd
00000360: 8548 5e3e e804 fabc edeb e7bd 4d78 dcbd
00000370: 6fe9 6dbd 2fc7 1b3f 79bb 933e a647 a9be
00000380: 248f d43d 689a 09be 6fa2 a4bd 3c69 763c
00000390: 0b39 c2bc 1822 31bd cc81 e83c a2c8 783e
000003a0: 3773 6d3e 1695 c43d 26b3 3b3c d500 913e
000003b0: 9f07 7abd 5b9d 043c cbc2 9f3d e144 c2be
000003c0: 814f c0be bf23 b8bd 90bf d03e 2f48 b13e
000003d0: 5012 86bd 4b7d b53d 829b 863d 0140 823d
000003e0: a291 073f b93f e0bd fecc 4e3e b417 883e
000003f0: d6f9 aebc 5ad9 5a3e 568b 963e bbab 1cbd
0.17557798 0.0207631 0.11392125 0.6339577 0.083720386 -0.081715666 0.06853227 -0.12686005
0.0971053 -0.0845723 0.08520509 0.046505503 0.025510324 0.1379923 0.016756454 -0.3108543
0.08439525 -0.0076346314 0.01117599 0.34250227 0.05808465 0.16371742 0.022400752 -0.07010247
-0.01790548 -0.065993294 0.01798599 0.06965783 0.37928355 0.7082973 -0.16597894 -0.29875737
-0.57466066 -0.07497081 -0.15043819 -0.021396078 -0.05475711 -0.0308166 -0.13638762 0.18543647
0.10151221 0.09350116 0.2344216 0.34450004 0.17462619 -0.1350369 0.12827188 -0.2620693
-0.139384 0.026559943 0.4135168 -0.046081718 -0.040493116 0.13699687 0.16845322 0.13128603
-0.26399067 -0.3726291 0.23786548 0.23386432 -0.22071648 0.12203542 0.101700105 -0.11215154
-0.12903826 -0.07963611 -0.07035439 0.034299478 0.015861318 -0.08597544 -0.045717042 -0.043594502
-0.10581679 -0.074836835 -0.027372926 -0.10467733 0.057436135 0.0763922 -0.022675171 0.04409201
-0.07338972 -0.020911489 0.10578514 0.064625576 0.12184282 -0.109224826 0.045529842 0.06298275
0.05611909 -0.06335431 0.07429927 -0.04641525 -0.13327505 -0.12350001 -0.016091058 -0.11918301
-0.074116915 -0.046186324 -0.123210765 -0.11466289 0.0050376565 0.008756816 -0.11545095 -0.09338607
-0.06208837 -0.11632106 0.042233244 -0.10567887 0.055394903 -0.04034197 -0.09480811 0.04549065
-0.10663548 0.08162342 0.049675297 0.025475254 0.099370554 -0.09419159 0.06358632 0.0025756313
-0.04982701 -0.05453456 -0.07806811 -0.08839132 0.099044494 0.034116566 -0.06365287 0.018039238
0.38988167 0.07177941 0.08780036 0.19823876 0.078840435 -0.05450722 -0.30987838 -0.15211996
-0.03690862 -0.06581201 -0.04379317 0.058938973 0.15375 0.054081433 -0.30938613 -0.13973686
0.20196456 -0.00056251884 0.1046766 0.1394857 -0.07180114 0.26019198 0.02767612 0.0022507012
-0.3518654 0.008384064 -0.12474592 0.11526715 -0.03158325 0.34367478 0.67923695 0.27795216
-0.16577646 -0.5391056 0.10665604 0.24187152 -0.012049326 0.022691324 -0.16610947 0.08198804
-0.35066858 -0.18936251 -0.16172405 0.10620636 -0.08442862 0.0047394135 0.051491685 -0.17704235
-0.18091412 -0.20028466 0.27353504 -0.18163933 -0.06584203 0.22283393 0.2269845 -0.03515392
-0.22500081 0.106371425 0.292229 0.31536743 -0.3457512 0.26405817 0.1656008 -0.069147855
-0.39452192 0.27417594 -0.20147882 0.027528636 0.040815264 0.108798094 -0.19903079 0.048596095
-0.14044651 -0.27628496 0.0099129155 -0.060862828 0.09104184 -0.15409926 0.065513976 -0.18795455
-0.51458013 0.042440396 -0.16905327 0.17876208 -0.112851694 0.33480614 -0.032122597 -0.04081084
0.21707352 -0.030519918 -0.11324296 -0.10765133 -0.058083948 0.60850805 0.28853968 -0.33062476
0.103788644 -0.13437808 -0.08038794 0.015039738 -0.02370884 -0.043245405 0.028382204 0.24295285
0.23188482 0.095987484 0.011456287 0.28320947 -0.061042424 0.008094157 0.07800826 -0.37943175
-0.37560657 -0.08991193 0.4077115 0.34625384 -0.065464616 0.08861788 0.065726295 0.06359864
0.52956593 -0.10949654 0.20195386 0.26580584 -0.021359365 0.21371976 0.2940318 -0.038249712

net.2.bias f4 [64]
00000000: 2405 c23e ffb2 09be f316 603f b17c b53f
00000010: f3e6 5d3f 07d1 9f3f 663c 763f a402 573d
00000020: 5c09 153f 5aa1 0cbe 0a35 dfbc 7c5b 863e
00000030: a789 343f af8d 063d e869 5ebd b431 183f
00000040: 7c3f b93f d132 923f bf1b 9f3f d033 c63e
00000050: 3318 5e3f dbf6 793f e3da b93f 51fc 4e3f
00000060: a055 2a3f 520b cd3f d639 04be 407a a53e
00000070: 9e9e 173f f937 843c 8155 a53f 7aa7 6c3f
00000080: 2cd9 b43f 5818 3f3f 4ed5 ae3f 08b8 a93d
00000090: 32c9 983f 1ec7 b63d e6ef 4c3f 14c2 86bd
000000a0: 424d 0ebe 17d2 f93e 9bf7 533f ce08 bebd
000000b0: 9327 77be 780c 98bd aa40 363f 3527 623e
000000c0: 7cc7 2b3d eed3 863f c756 183f 1de1 973f
000000d0: 111e 20be 098d 83be 9c77 be3f 2397 023e
000000e0: c9a4 00bd 7366 1abe f305 3b3e 4963 8c3f
000000f0: 4db4 483f 415d 3b3f dba8 22be ca79 9fbd
0.37894547 -0.13447188 0.8753502 1.4178678 0.86680526 1.2485665 0.9618591 0.052492753
0.58217406 -0.13733426 -0.02724697 0.26241672 0.7052254 0.032849964 -0.05430022 0.5945084
1.4472499 1.1421758 1.2430342 0.38711405 0.86755675 0.97642297 1.4519924 0.80853754
0.66536903 1.601908 -0.12912688 0.32319832 0.59226406 0.016139971 1.2916719 0.9244305
1.4128776 0.7464652 1.3658845 0.08287054 1.19364 0.08924697 0.80053556 -0.06579986
-0.13896659 0.48793098 0.8279969 -0.09279023 -0.2413619 -0.07424253 0.7119242 0.22085269
0.04193829 1.0533426 0.5950741 1.1865574 -0.1563647 -0.2569354 1.4880252 0.12752967
-0.03140715 -0.15078144 0.18263988 1.09678 0.7840012 0.7318917 -0.15884726 -0.07786901

net.4.weight f4 [64, 64]
00000000: 7ceb b43b 4e10 afbd 92d8 f2bd 5350 583d
00000010: 63ce c43e 0488 20be de87 21be 1986 bcbd
00000020: 66b2 a9bc 7e5e b2bd 2eb0 8b3d b146 20be
00000030: fa2c 87be f7e2 b33c 64ce 09bd c7a1 483e
00000040: 4a25 573d ed6d 053e c671 ddbd 97a2 d4bd
00000050: a8aa 94bc d1a0 4e3d 22bf a2bd 203e 5e3d
00000060: 86a2 1d3e eb4a ddbd 9b06 5c3d 2d06 c23c
00000070: 3aba 0cbe 67e9 4abd 1f0f 0fbe c545 2fbd
00000080: 8c3a 0cbd ebf4 5fbe 12cc 0b3d 3202 c03d
00000090: e9cc b5bd 95ed e0bd e837 ebbd 402f ef3b
000000a0: bc0e 833c 6061 15be ef2b a8bd a6eb 923d
000000b0: b4eb 9abe 9d18 96bc c4de c9be 7996 a5bd
000000c0: 736c 9a3d b9d6 89be 6801 00bf ff13 de3c
000000d0: 4922 fbbe 25f1 043e f238 413e 0744 e23d
000000e0: 5615 623d 7e72 febd e9ca b0be 1c8b fc3d
000000f0: 5d50 e83d 7f32 1fbe c341 cabd 4c90 513d
00000100: aa4b 2ebe 862b 883d 1b83 e3bd 7ed2 4f3e
00000110: fed4 973e dccf 353e 1a35 f23d 705d 723d
00000120: 9f4d 31bd c5bc 29bb 5329 2db9 3c6b 893d
00000130: d18e d03c a6a0 6e3d 0821 f23c d666 e6bd
00000140: a077 833e 1794 8e3e 3429 b23e 559f 9d3e
00000150: d8d3 c63e 610f 913e 35b9 e6bd 67ea 883d
00000160: bcfa ac3e 86bd 2abd 7394 e5bd 850b 0b3e
00000170: 19a0 b43d ecee f73b 880a a23e cc38 47bd
00000180: bf56 c33e 25a9 48be f495 923e 04e1 5f3d
00000190: ce4f 163f a395 0fbe abd8 643e 30a1 91bc
000001a0: 2f74 f3bd 1eb5 36be 0553 073f ace9 303d
000001b0: c868 11bf 7437 c6bd d9ea 63be 4dbe 87be
000001c0: 5111 d13d 299a 083e 805b 9bbe f920 1c3e
000001d0: cf73 68be 286d 063e cb1d b83e 9b00 54bd
000001e0: 4b0b 05bd a6fe 713d e0b0 75be af89 1b3e
000001f0: c21b 93bd 55c4 e6bb 7b59 5f3d 69ae ebbd
00000200: cb03 c63d ea18 753c 6ad7 74bc 04dc 2f3e
00000210: a9e1 d43d 4777 6c3e 7d9f 953d 4266 aa3d
00000220: c51b 2b3e 54cf ec3d e0bb 6dbd a296 1d3e
00000230: 34f6 69be 54e9 3abc ce43 9dbd 8c67 0ebe
00000240: 4ea8 553d ee8d 6c3e 147b 273e 9bb5 7a3c
00000250: 8c7c 803e 95bc 2a3e 5624 ec3e 1dee bf3d
00000260: fc9e 783d a71a 973e d42d b6bb fdc4 4cbe
00000270: e2cc 1b3e 8903 92bd 5dc5 753e 2e6d 4bbd
00000280: 9d3d 0c3e 10d2 343e dcf4 983e f097 bfbd
00000290: 5114 e63e 291a 84bd 52f4 823e 4c35 583d
000002a0: 6512 00be 0122 c73a 0907 ec3e 84c0 af3d
000002b0: 4cdb 41bd 65f1 09bc 8b20 86bc eb86 1b3e
000002c0: 83e9 99bd ac66 3b3e e22b b33c b2bd 413e
000002d0: 8ede 48bd 3eaf acbd 6519 a73e a4db 123e
000002e0: a7b8 643d 60e0 fe3c 985f 8fba 55be 183e
000002f0: ceeb 8b3d 54e8 d33d 8ada 73bd 6cf7 1a3d
00000300: 6b69 f7bd 6c91 1f3d 6a64 e0bd f890 a9bd
00000310: 11d4 8e3c b728 f33c d30a 74bd f327 363c
00000320: b3a0 a23c ba6c f53d 908d d0bc 4235 cebd
00000330: 99eb 32bb 40b4 1e3b c631 e13d 799d 11bd
00000340: 05e4 1fbd 6315 5bbb 9420 cabd 1e56 aa3d
00000350: b3c4 d63d 92f8 b53c cc81 ecbd 4eb4 d13c
00000360: 1fe1 2ebb d39a 0cbe 9822 c03c 9f23 d63c
00000370: 69c4 f33c 2789 a7bc dec1 b2bd 328d 9a3d
00000380: f57a d3bd 9f23 debd 6545 bebd bc58 0a3d
00000390: d888 cbbd 4587 37bd 59cf ab3b 56a2 e63d
000003a0: 9022 c43d e2ce 023d 3400 c0bd 0094 4eb9
000003b0: 3abf c1bd 8c6e 19bd 7c51 37be 201b cebc
000003c0: 1477 9b3c e404 2fbd 6f48 99bc d225 ddbd
000003d0: 7727 ebbd 8991 e3bd cb10 f83c 48d2 8ebd
000003e0: 8cee b3bd fa8d 99bd 1547 54bd 6227 fcbd
000003f0: 7ced 2abe 149d 74bd b0b3 1bbd f27f cdbd
0.005521236 -0.08548032 -0.11857714 0.05281098 0.3843871 -0.15676886 -0.15774485 -0.092052646
-0.02071495 -0.08709429 0.06820713 -0.15651967 -0.26401502 0.021958811 -0.033644095 0.19592963
0.052525796 0.13030215 -0.10812716 -0.10382574 -0.018147781 0.050446335 -0.07946612 0.054258466
0.15394029 -0.10805305 0.053717237 0.023684585 -0.13742915 -0.049538996 -0.13970612 -0.042791147
-0.034235522 -0.21870773 0.034130163 0.09375419 -0.08876974 -0.10982815 -0.11485273 0.007299334
0.015998237 -0.14587927 -0.08211505 0.071738526 -0.30257952 -0.018322283 -0.3942777 -0.08085341
0.07540216 -0.26921633 -0.50002146 0.027109144 -0.49049595 0.12982614 0.18869379 0.110481314
0.05519613 -0.124241814 -0.34529808 0.123312205 0.11343453 -0.15546606 -0.09875824 0.051163003
-0.17021051 0.066489264 -0.11108991 0.2029514 0.29654688 0.17755073 0.118265346 0.05917114
-0.043286916 -0.002589987 -0.0001651396 0.067099065 0.025458725 0.058258675 0.029556766 -0.11250083
0.25677204 0.2784736 0.3479706 0.30785623 0.388335 0.28332046 -0.11265794 0.06685334
0.33785045 -0.04168465 -0.11209955 0.13578613 0.08819599 0.0075663235 0.3164866 -0.04863815
0.3815212 -0.19595774 0.2863003 0.05465795 0.5871552 -0.14021926 0.22348277 -0.017777056
-0.11887395 -0.17842528 0.5286105 0.043191597 -0.5680051 -0.096785456 -0.22257556 -0.26512375
0.10208381 0.13340057 -0.30343246 0.15246953 -0.22700427 0.13127577 0.3596023 -0.05175839
-0.032481473 0.059080742 -0.23993254 0.15189241 -0.07183029 -0.0070424476 0.054528695 -0.115078755
0.09668692 0.014959553 -0.014943937 0.17173773 0.10394604 0.23092376 0.073058106 0.083202854
0.16709812 0.11562982 -0.0580405 0.15389493 -0.22847825 -0.011408169 -0.07678948 -0.13906687
0.05216246 0.23101017 0.16355544 0.015302087 0.25095022 0.16673501 0.46121472 0.093715884
0.060698494 0.29512522 -0.0055596624 -0.1999702 0.15214875 -0.071295805 0.2400107 -0.04966467
0.13695379 0.17658257 0.29874313 -0.09355152 0.44937375 -0.06450302 0.25577027 0.052785203
-0.12507017 0.0015192629 0.46099117 0.08581641 -0.04732828 -0.008419369 -0.01637294 0.15188186
-0.07515242 0.18300885 0.02187151 0.1892002 -0.04904037 -0.08431862 0.32636562 0.14341599
0.05584016 0.03111285 -0.0010938523 0.14916356 0.068320855 0.103470474 -0.059534587 0.037833616
-0.12080654 0.038957044 -0.109566525 -0.08279604 0.017435106 0.0296825 -0.059580635 0.011117923
0.019852018 0.119836286 -0.025458127 -0.10068752 -0.0027301072 0.0024216324 0.10995822 -0.03555057
-0.039035816 -0.0033429496 -0.09869495 0.08317207 0.10486736 0.022213254 -0.11548194 0.025598671
-0.0026684476 -0.13730936 0.023453996 0.026140032 0.029756742 -0.020451142 -0.087283835 0.07546462
-0.103261866 -0.10846638 -0.0929058 0.03377603 -0.0993821 -0.044806737 0.0052432236 0.11261432
0.09576905 0.03193558 -0.09375039 -0.00019700825 -0.09460302 -0.03745894 -0.17902178 -0.025159419
0.01897768 -0.042729273 -0.018711297 -0.10798229 -0.11482137 -0.11111743 0.030281445 -0.06973702
-0.087857336 -0.07497783 -0.0518256 -0.12312199 -0.16692156 -0.059720114 -0.03801316 -0.10034169

net.4.bias f4 [64]
00000000: 2fc3 0c3e d82a a93f d40d b53f d0e9 1c3d
00000010: 1546 8cbc 6b00 95bd 698a 2b3f 5b0c c83e
00000020: 79e6 963f 82f9 a53f e825 323f aedd ddbd
00000030: cd08 b8bc 342a ea3e 9ad2 f83e 28fb 89bd
00000040: 64da c3be ffba a9bd cc29 6d3f 9027 133e
00000050: 91d2 743f 6d15 a83f 8314 c33f 87fe 593f
00000060: 274c fa3b ea14 9d3f f728 ca3f c4f7 09be
00000070: a9d2 7e3f ca16 953f 9219 08bf 2894 8f3f
00000080: 2c57 4f3f f686 2dbf 7148 d73e d9cd 633f
00000090: a769 03bf 48f0 983e 22a5 a7bd d94e af3f
000000a0: 1d9b 873f ddd6 9d3d 1804 acbd f494 8c3d
000000b0: 53b8 a3be f89e 923f 8845 6a3f 5159 403f
000000c0: 36bc ff3e 508d d0be d1fa 08be 6776 dcbd
000000d0: 977a f5bd 4e33 28bd 1869 babd 6eb9 b23d
000000e0: 82f3 953f 0a33 b5bd 9a2c 723f c232 473f
000000f0: bf7b c23c 9f60 0f3f d4ce 5f3f 8575 8a3d
0.13746332 1.32162 1.4144845 0.03830892 -0.017123261 -0.0727547 0.6700807 0.39071926
1.1789085 1.2966769 0.6958909 -0.10833298 -0.022465134 0.45735323 0.48598176 -0.067373574
-0.38252556 -0.0828762 0.926419 0.1437056 0.956338 1.3131539 1.5240635 0.85154
0.0076384726 1.2272007 1.5793751 -0.13473421 0.9954019 1.164758 -0.5316402 1.1217089
0.8099239 -0.6778406 0.42047456 0.88985974 -0.5133309 0.2987082 -0.081857935 1.3695937
1.0594212 0.077069975 -0.08399218 0.06864348 -0.31976566 1.1454763 0.91512346 0.75136286
0.4994828 -0.40732813 -0.13376929 -0.10764771 -0.11986273 -0.041064553 -0.09102076 0.08726774
1.1714938 -0.088476256 0.94599307 0.77811825 0.023740647 0.5600681 0.8742497 0.06760696

net.6.weight f4 [3, 64]
00000000: 0e81 cd3d 3794 c5be 3129 49be 1ca2 27bd
00000010: dfda 843c cafb df3c 976b 7dbe bf7d 973e
00000020: 565a 0abd eedb abbd e554 c3be 1b99 f5bb
00000030: f6e4 72bd d930 803e 509e bbbe 41c8 bbbc
00000040: 6543 20bd 27b3 67bd 6971 c4be 861b dabe
00000050: 5e14 16bf 22a1 dbbd 3e84 49be a64f 11bf
00000060: 900b a23c 49c7 90bf 2a71 38bf 970a 9c3e
00000070: 84c6 2ebf 9dc2 1ebf 7fcf 103f a074 2abe
00000080: 1530 95be a6d6 8d3e 04b7 2fbe e6dc d8bd
00000090: 1c24 ed3c 9582 763d 52e0 073d 0e1a 4cbe
000000a0: 76ee 1cbf 7bd8 60bd b823 9ebd ea57 633e
000000b0: c686 c13e 84d3 2bbe 6f05 a2be 68cc b8be
000000c0: 0e68 8d3c c826 733e c7c8 8a3d 4239 6bbd
000000d0: d27c ec3e 51ca 06bd fd25 7e3c 5697 043e
000000e0: 5879 76be 3e90 8cbd 1115 08bc 9a52 65bc
000000f0: b092 03be b700 0cbd 4936 87bf 3086 733e
00000100: 95ff 37bf 3b6c f9be 04ce 66be c06c 013b
00000110: 2c87 13bd c2d7 91bd 2196 283d 6ff6 d9be
00000120: 861d 18be 5319 c9bd 7357 33be b94c 8c3d
00000130: 2853 b03d 6aa1 a2bd f5a4 19bd 545c 2c3d
00000140: 3626 923e 8dc3 063f 4316 a6bd 1e71 423c
00000150: d94d 7abf dfbf 3fbe 0035 7ebe 1e12 1dbe
00000160: 9c1b 76bd 1e70 35be 9f87 42bf d24a 4c3c
00000170: 8039 82bf 76c0 6ebe 7b7b 6c3e fa91 27bf
00000180: a2ed 82be b3d2 d1bd 7740 54be a2ae cbbe
00000190: 2c5c 2a3e 3e4d b0bd 5348 103c 896a 1fbe
000001a0: 0723 a3be e13e f2bc a64e 213d 75ee 1f3e
000001b0: 7ed9 aa3e 7ad1 45be 0ea0 b9be 331a dfbe
000001c0: ea76 b8bd 609c 103f 7f68 4ebb 5933 5c3d
000001d0: 39f9 253f 68de a33d 9185 643d 16e5 143e
000001e0: 5cac cebc 8679 9c3e d76c 0ebe 0641 cfbe
000001f0: 3e30 84be e4a3 debd 63ce 7ebe e10f 2b3e
00000200: 192e adbe 4446 f6bd c2d9 a3bd a156 abbd
00000210: 8958 ce3d 9c29 fb3d 54f9 b3bc c7dd 46bf
00000220: f9bb 53be 674d 39be f07e 03bf 8675 d63d
00000230: dd3f 0d3d 8fff aebe 8193 88be 3836 393d
00000240: 40f1 24be dc2d f63b 6f04 07be 2c26 833e
00000250: aad8 2bbe fd1b cfbd 4b60 40be 45e2 74be
00000260: c8d2 163d 6000 56bf 649f 0bc0 a92d 8c3d
00000270: 6242 3ebf 6d6b babd 444d 263f 62bb 1f3d
00000280: 22bf debe b427 9d3e 8939 81be 2038 a3be
00000290: 2959 a83e 249b 11bf ea7a 07bd 7d84 31be
000002a0: c02f 6abe 6f0d 5e3d efc0 cbbd ce41 d63d
000002b0: dced 373e 2637 2fbd 7c8a 923d f325 aabd
000002c0: 2e41 e0bd f486 8dbe 9206 bf3c a4ac 99bd
000002d0: f01a bcbd 723d d63d 5378 dc3d 3762 33be
000002e0: 3475 3fbe 0197 053e 5d35 29be b1d7 04bf
000002f0: b9a8 29be 7f5e 28bf 00bb 90be 2065 973e
0.10034381 -0.3858964 -0.1964462 -0.040926084 0.016217647 0.027341742 -0.24748074 0.29588124
-0.033777557 -0.08391558 -0.38150707 -0.0074950582 -0.059300385 0.25037268 -0.3664422 -0.022922637
-0.039126772 -0.056567337 -0.38367775 -0.42599124 -0.5862483 -0.10724093 -0.19679353 -0.5676216
0.019780904 -1.1310817 -0.72047675 0.3047683 -0.6827166 -0.62015706 0.56566614 -0.16646051
-0.29138246 0.27702826 -0.17159659 -0.10589008 0.028947882 0.060183126 0.033172913 -0.19931814
-0.6130136 -0.054893952 -0.077216566 0.22201505 0.37798136 -0.16779906 -0.3164477 -0.3609345
0.017261531 0.23745263 0.067765765 -0.057427652 0.4618898 -0.032907788 0.015511987 0.12948355
-0.24069726 -0.068634495 -0.008305804 -0.0139967445 -0.12848926 -0.03418037 -1.0563442 0.23781657
-0.7187436 -0.48715386 -0.22539526 0.0019748658 -0.03601758 -0.07121231 0.0411588 -0.42570826
-0.14855012 -0.09819283 -0.17513828 0.06850571 0.08609611 -0.079409435 -0.03751083 0.04208024
0.28544778 0.52642137 -0.08109715 0.01186779 -0.97775036 -0.18725537 -0.24824905 -0.15338942
-0.060084924 -0.1771855 -0.7598819 0.01246901 -1.0173798 -0.23315606 0.23093979 -0.6545712
-0.25571924 -0.10245266 -0.20727716 -0.39781672 0.16636723 -0.08608483 0.008806306 -0.15567984
-0.3186266 -0.029570999 0.039381646 0.15618308 0.33369058 -0.1931819 -0.36254925 -0.43574676
-0.09007056 0.5648861 -0.003149539 0.053759906 0.6483341 0.08001405 0.05579144 0.14540514
-0.025228672 0.30561465 -0.13908707 -0.40479296 -0.25818056 -0.108711034 -0.24883418 0.16705276
-0.33824232 -0.12025121 -0.080005184 -0.083661325 0.100754805 0.12263796 -0.021969475 -0.77682155
-0.20677175 -0.18095933 -0.51365566 0.104716346 0.034484733 -0.3417935 -0.26675037 0.045217723
-0.16107655 0.007512791 -0.13185285 0.2561506 -0.1678187 -0.1011276 -0.18786733 -0.2391444
0.03682211 -0.8359432 -2.1816034 0.068446465 -0.7432004 -0.09102521 0.6496165 0.03899706
-0.43505198 0.30694354 -0.25239208 -0.31878757 0.32880524 -0.5687735 -0.033076204 -0.17335697
-0.22869778 0.05421203 -0.099489085 0.1046177 0.1796183 -0.042777203 0.0715532 -0.083080195
-0.10949932 -0.27642024 0.023318563 -0.07503632 -0.091848254 0.104609385 0.107651375 -0.17517935
-0.18697053 0.13045885 -0.16524263 -0.5189162 -0.16568269 -0.6576919 -0.2826767 0.2956934

net.6.bias f4 [3]
00000000: aa97 86bf cad5 4fbf 3643 30bf
-1.0515034 -0.8118559 -0.68852556

net.0.weight f4 [64, 8]
00000000: 1bb5 b7bd 6484 d93c 1ef6 5e3e 1623 8240
00000010: 4b88 8dc0 73b0 9fbf 3a4d 3e3f db7d 063d
00000020: b81f 203f dea0 dfbe a89d bfbc 8cc4 853f
00000030: 9949 c4bf 90d0 0f40 3522 b8be b45b 64bc
00000040: 29d1 30bd fdeb a23d e698 d0be 2eb5 2a40
00000050: 1306 77c0 9519 903f 6e67 eb3e 0c89 c93d
00000060: 18a7 3e3e 3f0e 693e 41f5 dfbd edb5 2740
00000070: 1860 2d40 d4bd 9ac0 2ebc 833e 5228 0abc
00000080: 3c60 aebe 90d9 42be 94f1 413e b523 4140
00000090: bcfb 55c0 a7ca 82bf c89f f53e 61d8 363e
000000a0: 1b6f c0be 58e9 ccba 658a b8be 411f fcbf
000000b0: 2a1c 5e40 414f 31c0 130c e3be 53c4 903d
000000c0: 96c3 3d3e 6585 aa3e 807a 1b3e fe85 01be
000000d0: 1f51 ab3e 1d12 1a3d 1648 b03d 22b5 49be
000000e0: aae3 07be a8bc 623c 0bdf 923e 7dce 06c0
000000f0: e4e5 6240 2e76 aebf 33df 15bf 214c 6b3d
00000100: 9844 9bbc 05e1 f4bb bb63 a23e 7fc0 dcbf
00000110: 777b 4740 9f81 1040 703c 8bbf 57af 343e
00000120: e64f 99be cbcf 52be 4e89 d6bd f72d 52c0
00000130: 570a 67c0 ef55 7a40 064f ae3e 8b9b 7e3d
00000140: 7523 1ebd 8c62 97bd 417d 373e 9e26 8cbf
00000150: 7771 13bf 0a8a b63f 682a 4d3e f245 9ebe
00000160: e6be 813e 87f7 96be 0f5a c9bd 9e88 5140
00000170: 756a 7fc0 392f 1ac0 92e4 f23c bf4c 983d
00000180: c420 7fbe 1697 5a3c 424d c7bd 7387 5040
00000190: 11a3 3140 0f53 9cbf c1a6 8bbf 58ee 3e3e
000001a0: 6e7e 363e 1a40 89bd a137 6cbe dd83 8a40
000001b0: 6e99 42bf d6ad 93c0 2f89 bdbe 26a8 8f3d
000001c0: 8af2 aabe f4d6 b73e f340 bb3c 1fda 65c0
000001d0: e096 cc3f 70f0 7440 5300 dfbe 5415 8fba
000001e0: ed08 c4bd 4494 503e 7df8 c2bd 2827 99c0
000001f0: 6126 5fbf f8ab a140 ab1d 5d3e 5f0a 5b3d
00000200: 8022 493e 8fc7 843e ca27 b2bd fe29 1240
00000210: ab3e 91c0 bd20 ea3f 0e71 c43d 423b 073d
00000220: 6013 a43d e727 c73d c234 37be 98d7 1fbd
00000230: e07c 6b3c c007 383c 92e9 30be 990e 58be
00000240: 924c 9d3e a961 c8bd 4844 803e 028e 4940
00000250: d119 81c0 c99e 553f 07e3 a8be e283 ed3d
00000260: fc9c 68be e2c7 15be 308a b1be ed75 a5be
00000270: f70b 803d d68f e4ba a158 d63b d681 02bc
00000280: cc97 853d 80c9 e83b e5e7 25be 3926 853e
00000290: dbcc 38be 981f 61bd 5355 aebe 36d8 92be
000002a0: fe86 a1be 5cd2 c2bd c862 143d e0e7 5e3d
000002b0: e4a2 febd aede 6c3e 169d 3c3e f601 1fbe
000002c0: 20fc 793d 507f e5bc dfa6 0abe 4b83 06be
000002d0: 06dd 90be e070 cd3d 3e4f 69be e669 55be
000002e0: 3bd9 9bbe 1357 5dbe d6e5 5ebe ce95 3f3e
000002f0: a00f 01bc 7e9f 633e e2d9 38be f10c b3be
00000300: 6470 7f3c 18d5 14be dc7e 653e 1fc3 8fc0
00000310: cd1d 7740 60b2 3c40 0472 a2bc 0f69 5c3d
00000320: b07d b2be 70ce 68be dfff 4abe f2f4 733e
00000330: acad 8e3d 8620 1b3e 0040 a7bb fd0a 32be
00000340: 4371 323e 033b 8ebd 8f93 27bd 23f9 83c0
00000350: eb3e 5840 1d31 0940 f870 6abf 81f2 e03d
00000360: f073 263e fca8 50be 24d0 fe3c 8ad9 7340
00000370: c84c 83c0 b68e 08bf d050 063e be0f 223e
00000380: 90d3 89be 4aae 193e 4330 643e 2c75 1bbe
00000390: 1724 533d ca74 b0be 5842 11bf d678 73be
000003a0: c29e 253e 5db2 0c3d 0eed 4d3e fd1b 6d40
000003b0: 61d8 9040 b5d0 a7c0 0802 cbbe f655 0f3c
000003c0: 420b a8bd fb55 b23e c1d3 233d 0268 00c0
000003d0: 9f62 fa3f a391 b2bc 0679 e0be d807 6dbd
000003e0: 6efb 4bbe 0dfb 53be 6663 143f b5db 1040
000003f0: 5e7d 4ac0 4a85 a83f 0c5a 22be ecc6 0ebd
-0.0897009 0.026552387 0.21773574 4.066783 -4.4228873 -1.2475723 0.7433659 0.03283487
0.625484 -0.4367742 -0.023390606 1.0450606 -1.533496 2.2471046 -0.35963598 -0.013937879
-0.04316822 0.079551674 -0.40741652 2.6673083 -3.8597457 1.1257807 0.45977348 0.09840593
0.18618429 0.2275934 -0.1093545 2.6204789 2.70899 -4.8356724 0.25729507 -0.008432465
-0.34057796 -0.19028306 0.18939811 3.0178044 -3.3434896 -1.0218095 0.47973466 0.1785598
-0.37584767 -0.0015633507 -0.36043087 -1.9697038 3.470469 -2.7704623 -0.4434515 0.07068696
0.18531641 0.33304897 0.15183449 -0.1264877 0.33460328 0.03761493 0.08607499 -0.19698003
-0.1327044 0.0138389245 0.28685793 -2.106353 3.5452814 -1.3629816 -0.585437 0.05744565
-0.018953606 -0.0074731135 0.31716713 -1.7246245 3.1169107 2.2579114 -1.0877819 0.17645012
-0.2994377 -0.20587079 -0.104754075 -3.2840555 -3.610006 3.911495 0.34044665 0.062160056
-0.038608033 -0.07391843 0.17918874 -1.0949285 -0.5759501 1.4260876 0.20035708 -0.3091274
0.25340956 -0.29485723 -0.098316304 3.2739635 -3.9908726 -2.4091322 0.029650006 0.07436513
-0.24914843 0.013341686 -0.09731533 3.2582672 2.7755778 -1.2212847 -1.0910264 0.18645608
0.17821667 -0.067016795 -0.23068096 4.3285966 -0.76015365 -4.61497 -0.37018725 0.07014494
-0.33388168 0.35906184 0.022858119 -3.591438 1.5983543 3.8271751 -0.43554935 -0.001091639
-0.09572015 0.20369059 -0.09520052 -4.78603 -0.87167937 5.0522423 0.21593349 0.053476688
0.19642067 0.259335 -0.086989954 2.283813 -4.5389 1.8291241 0.09591876 0.033015497
0.08011508 0.09724408 -0.1789122 -0.039023966 0.014373034 0.0112323165 -0.172766 -0.21099319
0.3072248 -0.09784252 0.25052094 3.1492925 -4.0344014 0.8344541 -0.32985708 0.1159742
-0.22716135 -0.1462703 -0.3467574 -0.32316533 0.06252282 -0.0017437886 0.006541327 -0.007965526
0.065230936 0.007104099 -0.16201742 0.26005724 -0.18046896 -0.05496177 -0.34049472 -0.2868058
-0.31548303 -0.09512779 0.036227018 0.054420352 -0.12433413 0.2313182 0.18419299 -0.15528092
0.06103146 -0.028014809 -0.13540219 -0.13136022 -0.28293628 0.10031295 -0.22784135 -0.20841178
-0.3043917 -0.21615247 -0.21767363 0.1870949 -0.00787726 0.2222881 -0.18051866 -0.3497081
0.015590761 -0.14534414 0.22411674 -4.4925685 3.861194 2.9483871 -0.019829758 0.05381113
-0.34861517 -0.22735 -0.1982417 0.23823908 0.06966719 0.15149125 -0.005104065 -0.17387004
0.17426018 -0.06944849 -0.040912207 -4.124162 3.3788402 2.1436226 -0.91578627 0.10983754
0.16255164 -0.20376962 0.031105109 3.8101525 -4.1031227 -0.5334276 0.13116765 0.15826318
-0.26919222 0.15007892 0.22284035 -0.15181416 0.05154809 -0.34464103 -0.5674186 -0.23776564
0.16173843 0.034349788 0.2010996 3.7048333 4.5264134 -5.244227 -0.39649987 0.008748522
-0.08205272 0.34831223 0.039996866 -2.0063481 1.9561347 -0.02179796 -0.43842334 -0.05786881
-0.19920132 -0.20701237 0.5796417 2.2634099 -3.1639018 1.3165677 -0.15854663 -0.034857675

net.0.bias f4 [64]
00000000: 933a 9cbf 531e 393f 6aab 5cbf 62bf 303f
00000010: d42a 36bf 7ca6 483d b878 8abe 01b2 883f
00000020: f70d 0e3f 6b43 c5bf 5ee2 373f bdb6 1abf
00000030: deea bf3f c335 923e 0e5f 853f e7ce 35be
00000040: 3068 03bf 45ff 74be 3582 87bd 653c 9d3f
00000050: f2f9 93be 45b0 9f3f 5dc8 48be 774f b3be
00000060: a59e 873f a04f bfbc b01f 643e bb2c 1fbf
00000070: 959b 4d3f c606 313f 17b2 16bd 0a75 863e
00000080: 63a3 653f da18 c5bd 30bb 81bf eec9 a9be
00000090: a7ca 66bf 4b62 4dbd 81f2 233e a1bb 843f
000000a0: 3147 9ebc 5db1 5f3d 6508 ed3e 1f5e 943f
000000b0: 1f8d 39be 8df7 d63e c7e4 a03e 643b 1dbf
000000c0: 480d 6cbc dfc0 3dbd 125b b13f 18da e73f
000000d0: 6044 31bc 5642 eb3e d787 503f bfba c93f
000000e0: 0b75 813f a17a d0be 71e3 753f 2eb9 873f
000000f0: fbff e83c 7c31 b03f b7c4 5a3f b88e a33f
-1.2205375 0.72311896 -0.8619906 0.69042027 -0.711591 0.048986897 -0.27045226 1.0679322
0.5549006 -1.5411199 0.71829784 -0.60435086 1.4993551 0.28556642 1.0419633 -0.17754708
-0.5133085 -0.23925503 -0.06616632 1.2284056 -0.2890163 1.2475668 -0.19607683 -0.35021564
1.059529 -0.023353398 0.22277713 -0.6217763 0.80315524 0.6915096 -0.036790933 0.2626117
0.89702433 -0.09623881 -1.013525 -0.33161873 -0.9015297 -0.050142568 0.16010477 1.036976
-0.019321056 0.054612506 0.46295467 1.1591223 -0.1812024 0.4198574 0.31424543 -0.6141875
-0.014407463 -0.046326514 1.3855917 1.8113432 -0.0108195245 0.45949048 0.81457275 1.5760115
1.0113844 -0.40718558 0.96050173 1.0603387 0.028442373 1.3765101 0.85456413 1.2777929

net.2.weight f4 [64, 64]
00000000: 1fa9 303e b179 bf3c 5be2 ea3d ef8d 223f
00000010: a585 a83d 01c5 c4bd 95f2 9e3d 2430 03be
00000020: 0783 cb3d 1c8f b8bd 8ebf a93d e9f6 513d
00000030: e74a d03c 69b6 103e da52 65bb 5bdf 9ebe
00000040: 8fd9 b63d ee2b fabb 2afa 813c 29f6 ad3e
00000050: 2cea 6d3d d3d8 243e c881 b73c e291 8fbd
00000060: 1d15 67bc 7e27 87bd 4c74 b43c 1641 943d
00000070: 6538 c03e b78c 363f 4c61 27be 32fc 8bbe
00000080: 6639 14bf 9bc9 76bd 3b0a 1bbe ea4d 22bc
00000090: 11ab 6ebd 1873 fcbc d5cc 0bbe c71e 3b3e
000000a0: 50b9 c93d a6f5 b63d 46b4 633e e4fd ae3e
000000b0: dae3 323e cee8 05be 7d20 133e 3bf7 84be
000000c0: 90ca fdbd a070 fa3c 386a d13e 860c 37bd
000000d0: 1cdc 25bd 50ad 0e3e 8dd3 293e b9c5 043e
000000e0: 44b4 87be 0154 aebe d099 713e 9eb6 6c3e
000000f0: 08ca 54be 5e3c f63d c06e cd3d ecf7 d6bd
00000100: 9b22 04be 4218 a3bd f615 90bd 9c7d 0c3d
00000110: 98ef 813c e413 b0bd cb41 3bbd 2690 32bd
00000120: 79b6 d8bd 0e44 99bd 303d e0bc 1161 d6bd
00000130: 2742 6b3d 8473 9c3d 48c1 b9bc d399 343d
00000140: 594d 96bd 924e abbc e1a5 d83d 6a5a 843d
00000150: ba88 f93d 44b1 dfbd 807d 3a3d 1afd 803d
00000160: 22dd 653d e8bf 81bd 372a 983d eb1d 3ebd
00000170: 4179 08be 93ed fcbd 65d1 83bc 3916 f4bd
00000180: 9cca 97bd df2d 3dbd ed55 fcbd 61d4 eabd
00000190: ed12 a53b c078 0f3c 8c71 ecbd 3241 bfbd
000001a0: 6050 7ebd bc39 eebd c4fc 2c3d 2a6e d8bd
000001b0: c4e5 623d 9f3d 25bd c12a c2bd 6754 3a3d
000001c0: b463 dabd 2e2a a73d 5378 4b3d 7bb1 d03c
000001d0: ca82 cb3d 85e7 c0bd 8b39 823d eccb 283b
000001e0: 6817 4cbd a15f 5fbd 2ce2 9fbd 8206 b5bd
000001f0: d7d7 ca3d d0bd 0b3d 705c 82bd 06c7 933c
00000200: 70ca c23e ddf2 873d 1089 af3d c43b 413e
00000210: d149 923d 1573 5dbd 61a8 9ebe 65bd 25be
00000220: 3e79 36bd f231 81bd 9d59 23bd c63b 5d3d
00000230: acac 163e 7e1b 453d a3bf a3be c7f2 12be
00000240: 84ba 483e 0076 13ba b1de c73d 2ea2 123e
00000250: 7a0c 93bd 701e 873e 08b9 e23c 8080 133b
00000260: 7e0d b8be 505d 093c 3cc1 05be b7ac de3d
00000270: 917f e3bc cd16 a63e 79a4 2e3f 1682 8d3e
00000280: 7365 23be c947 15bf 886d d03d ffb0 8f3e
00000290: 84ff 95bc 28e3 b93c 5266 31be 2a92 af3d
000002a0: c6da a5be 7a2a 49be ec89 2cbe 9e23 e13d
000002b0: eae8 acbd 6787 943a 4fcc 213d 597d 3bbe
000002c0: 0547 00be 0110 4abe 04f7 863e a249 3cbe
000002d0: 30d8 86bd c140 603e 1858 6c3e 4ebb 2cbd
000002e0: 47ca 6cbe 538a e13d 6b84 923e a162 a33e
000002f0: bef2 b1be 0229 8c3e 1cf1 223e adcd 8fbd
00000300: 6048 c7be 58aa 933e 3b73 4dbe 2a0d fe3c
00000310: a01b 333d 6e44 e83d 13f0 50be 0bc0 583d
00000320: 28c2 0bbe d50b 8ebe 775b 4abb cc43 6dbd
00000330: 43e3 bd3d 9cbc 1cbe b03e 783d 4d29 42be
00000340: 11e6 02bf fbd5 2d3d 9a16 28be 7675 2a3e
00000350: ca1e e7bd 4d1f a53e fc92 03bd 4429 27bd
00000360: 7936 623e e804 fabc c318 e2bd dea7 d5bd
00000370: 5623 93bd 03c9 1e3f 7c2b 983e afd4 a5be
00000380: 078d d63d 945e eebd 20d0 a1bd d63b 923c
00000390: 2286 acbc 1822 31bd a2d7 ff3c e739 6c3e
000003a0: 7353 793e f937 ca3d a696 803c 3eb6 8a3e
000003b0: 6005 9cbd 4d22 093c d3f2 bf3d 7812 c1be
000003c0: d674 c0be 6eb5 abbd 673f d23e bd2f b03e
000003d0: 5012 86bd 1338 b53d 6b43 5b3d a29e 833d
000003e0: b840 083f 55f4 d7bd 7f6c 503e 12cf 813e
000003f0: e027 80bc 93f5 543e 3e44 993e 73d3 11bd
0.17252015 0.023373457 0.11468955 0.63497823 0.08228616 -0.09607888 0.077611126 -0.12811333
0.09937101 -0.09011671 0.08288489 0.051260862 0.025426341 0.14132084 -0.003499201 -0.31029782
0.08928215 -0.0076346314 0.015866358 0.33976868 0.05808465 0.16098337 0.022400752 -0.07010247
-0.014104155 -0.065993294 0.02202811 0.07238977 0.37543026 0.71308464 -0.1634571 -0.27340847
-0.57900083 -0.06025086 -0.15140621 -0.0099062715 -0.05826861 -0.0308166 -0.13652356 0.1827346
0.09849799 0.089335725 0.22236738 0.34178078 0.17469731 -0.13077089 0.14367862 -0.25969872
-0.12392151 0.030571282 0.4090135 -0.044689678 -0.040493116 0.13933301 0.16584606 0.1296605
-0.2650472 -0.34048465 0.23593831 0.23116538 -0.20780194 0.12023233 0.100308895 -0.10496506
-0.12903826 -0.07963611 -0.07035439 0.034299478 0.015861318 -0.08597544 -0.045717042 -0.043594502
-0.10581679 -0.074836835 -0.027372926 -0.10467733 0.057436135 0.0763922 -0.022675171 0.04409201
-0.07338972 -0.020911489 0.10578514 0.064625576 0.12184282 -0.109224826 0.045529842 0.06298275
0.05611909 -0.06335431 0.07429927 -0.04641525 -0.13327505 -0.12350001 -0.016091058 -0.11918301
-0.074116915 -0.046186324 -0.123210765 -0.11466289 0.0050376565 0.008756816 -0.11545095 -0.09338607
-0.06208837 -0.11632106 0.042233244 -0.10567887 0.055394903 -0.04034197 -0.09480811 0.04549065
-0.10663548 0.08162342 0.049675297 0.025475254 0.099370554 -0.09419159 0.06358632 0.0025756313
-0.04982701 -0.05453456 -0.07806811 -0.08839132 0.099044494 0.034116566 -0.06365287 0.018039238
0.38045073 0.06638119 0.085710645 0.18870455 0.071429856 -0.05406483 -0.30987838 -0.1618553
-0.04454922 -0.063083544 -0.039880384 0.054012083 0.14714307 0.04812192 -0.31982145 -0.14350425
0.196024 -0.00056251884 0.09759272 0.14319679 -0.07180114 0.2639041 0.02767612 0.0022507012
-0.35947794 0.008384064 -0.13061994 0.108727865 -0.02777079 0.3243927 0.68219715 0.2763831
-0.15956669 -0.5831266 0.101771414 0.28064725 -0.018310316 0.022691324 -0.17324188 0.085728005
-0.32393473 -0.1964511 -0.16849488 0.109931216 -0.08442862 0.0011331857 0.039501484 -0.18309535
-0.12527092 -0.19732668 0.26360333 -0.18387464 -0.06584203 0.21899702 0.2308048 -0.042170815
-0.23124038 0.110127114 0.28616652 0.31911185 -0.3475551 0.27375036 0.15912288 -0.070216514
-0.38922405 0.288409 -0.20063488 0.031012136 0.043727517 0.11341177 -0.20404081 0.05291752
-0.13648283 -0.27743402 -0.0030877271 -0.057925984 0.09271862 -0.15306324 0.06060666 -0.18961067
-0.51132303 0.042440396 -0.16414872 0.1664637 -0.112851694 0.32250443 -0.032122597 -0.04081084
0.22091092 -0.030519918 -0.11039879 -0.10432409 -0.07184474 0.6202547 0.29720676 -0.32388827
0.104761176 -0.11639133 -0.07901025 0.017850798 -0.021060053 -0.043245405 0.031230751 0.23068963
0.2434824 0.09873957 0.015696835 0.27092165 -0.07618213 0.008369994 0.09372487 -0.37709403
-0.3758914 -0.08384214 0.41063997 0.3441142 -0.065464616 0.08848586 0.05353109 0.06426741
0.5322375 -0.105446495 0.20353888 0.25353295 -0.015644014 0.20796804 0.29934877 -0.035602044

net.2.bias f4 [64]
00000000: ab03 cc3e ffb2 09be 83d2 5f3f 5933 b43f
00000010: 9aec 593f 3773 9e3f 8160 703f d376 4d3d
00000020: e78c 113f 5aa1 0cbe 0a35 dfbc d707 8a3e
00000030: 86a3 363f af8d 063d e869 5ebd 6221 1d3f
00000040: 5112 b53f 10e8 8d3f 309a 9d3f 3b1a d23e
00000050: 745d 643f 1849 773f ef13 b93f 7ec7 4d3f
00000060: ad7f 243f e34a cb3f e4cb 08be eff7 ab3e
00000070: c171 163f 1846 8f3c 7e24 a33f af9e 6a3f
00000080: a176 b13f 5563 423f ea31 ad3f 08b8 a93d
00000090: f6d1 993f 9b79 9f3d a00d 513f 14c2 86bd
000000a0: 424d 0ebe f5b2 013f 8358 583f ce08 bebd
000000b0: e6f1 4ebe 780c 98bd f54b 363f 1958 623e
000000c0: 7cc7 2b3d 2d75 853f 2945 173f e0fc 943f
000000d0: e497 12be db86 70be 7371 ba3f 70a4 033e
000000e0: c9a4 00bd 7366 1abe dc4e 503e a814 8a3f
000000f0: 82d3 4a3f 98fb 373f dba8 22be ca79 9fbd
0.39846548 -0.13447188 0.8743059 1.407817 0.8512665 1.2378911 0.93897253 0.050162148
0.56855625 -0.13733426 -0.02724697 0.26959106 0.71343267 0.032849964 -0.05430022 0.61379063
1.4146215 1.1086445 1.2312679 0.41035637 0.892051 0.9659591 1.4459208 0.80382526
0.6425732 1.5882229 -0.13359028 0.33587596 0.58767325 0.017489478 1.2745512 0.9164838
1.3864328 0.7593282 1.3530858 0.08287054 1.20172 0.07786866 0.81661415 -0.06579986
-0.13896659 0.5066369 0.8451006 -0.09279023 -0.20209464 -0.07424253 0.7120965 0.22103919
0.04193829 1.0426384 0.59089905 1.1639671 -0.14315754 -0.23488943 1.4565872 0.12855697
-0.03140715 -0.15078144 0.20342582 1.0787554 0.79228985 0.71868277 -0.15884726 -0.07786901

net.4.weight f4 [64, 64]
00000000: a909 e8bc 4e10 afbd b816 06be 570f 103d
00000010: fefb b43e e4ce 1cbe e8f4 3cbe 1986 bcbd
00000020: 3e2e c6bc 7e5e b2bd 2eb0 8b3d 9b27 1dbe
00000030: 373d 88be f7e2 b33c 64ce 09bd d6a0 1d3e
00000040: 4f91 113d 63d5 ab3d 06bb 03be 7d27 e3bd
00000050: a8aa 94bc 494e 2b3c 864e b1bd 69b4 2dbc
00000060: 013e 023e 2a50 e4bd 9b06 5c3d 166d 3fbc
00000070: e674 0cbe 67e9 4abd b2e6 1fbe f607 8abd
00000080: 0dae 92bd 50ab 5dbe 69a2 053b 3202 c03d
00000090: 9ddc b5bd 95ed e0bd e837 ebbd 402f ef3b
000000a0: bc0e 833c 371c 14be ef2b a8bd a6eb 923d
000000b0: 9148 a0be 9d18 96bc c4de c9be 7996 a5bd
000000c0: 736c 9a3d dfb1 91be 0516 c2be fab4 1abd
000000d0: af71 ebbe a369 db3d 5ad3 2d3e 0744 e23d
000000e0: 5615 623d 7e72 febd 3c01 bfbe 18d8 d23d
000000f0: c340 e13d 2b04 ffbd c341 cabd 4c90 513d
00000100: 66d2 17be 862b 883d b88a 27be be75 2d3e
00000110: 7f01 853e 9003 323e 458f fd3d 4071 983d
00000120: 18aa 5ebd c5bc 29bb 5329 2db9 09d1 933d
00000130: 0034 243d a6a0 6e3d 0821 f23c 6869 b3bd
00000140: 32c9 3c3e 4f37 953e 186f b73e accf 923e
00000150: d1a4 b93e af1d 963e b1c1 e5bd 250e ac3d
00000160: 9dfe b03e 7bfd 59bd 35fb e3bd b507 1e3e
00000170: 5205 8d3d c143 fa3b eb1e a63e 6e58 35bd
00000180: 3434 c53e 6e49 4ebe 5f60 883e 04e1 5f3d
00000190: a9b0 0f3f eacf 0dbe d54b 4a3e 30a1 91bc
000001a0: 2f74 f3bd 3d73 2dbe eca7 003f ace9 303d
000001b0: 61d2 19bf 7437 c6bd c318 5bbe c840 86be
000001c0: 5111 d13d d54b a13d 0fec a4be 94fb 253e
000001d0: 55aa 63be 89b3 a43d 8af3 b13e c118 54bd
000001e0: 4b0b 05bd a6fe 713d 1a72 6ebe 05cc 083e
000001f0: 0def 92bd 4e0c 98bc 7b59 5f3d 69ae ebbd
00000200: 3bdf d63d ea18 753c a5d8 323c 99b1 273e
00000210: 53d6 e93d b607 6d3e 0e74 9e3d c431 c43d
00000220: 8b5b 263e 54cf ec3d e0bb 6dbd a187 233e
00000230: 028a 60be 54e9 3abc ce43 9dbd abb8 e9bd
00000240: 353f 863d b316 773e 0414 2e3e 352d 4dba
00000250: a783 6b3e 84dd 323e 98f9 e93e 54d6 d63d
00000260: bc90 7e3d cd7f 973e 3a0f 96bb 3ccd 39be
00000270: ca98 153e 98eb 91bd 6729 7e3e 67b9 35bd
00000280: 2376 113e 65c8 323e 17e8 993e f097 bfbd
00000290: 7b4a db3e 4219 82bd 9f4e 703e 4c35 583d
000002a0: 6512 00be b73d 013c 292b e13e 84c0 af3d
000002b0: 0869 32bd 65f1 09bc a68c 32bc 4f2d 193e
000002c0: 83e9 99bd 662a 393e 110b aa3c 9abb 483e
000002d0: 8eb2 2abd dda8 b0bd cb54 a73e 71d8 123e
000002e0: a7b8 643d 60e0 fe3c 2107 c93b 9d7f 1c3e
000002f0: 3e59 8d3d c86f d23d 8ada 73bd 6cf7 1a3d
00000300: 6b69 f7bd 6c91 1f3d 6a64 e0bd f890 a9bd
00000310: 11d4 8e3c b728 f33c d30a 74bd f327 363c
00000320: b3a0 a23c ba6c f53d 908d d0bc 4235 cebd
00000330: 99eb 32bb 40b4 1e3b c631 e13d 799d 11bd
00000340: 05e4 1fbd 6315 5bbb 9420 cabd 1e56 aa3d
00000350: b3c4 d63d 92f8 b53c cc81 ecbd 4eb4 d13c
00000360: 1fe1 2ebb d39a 0cbe 9822 c03c 9f23 d63c
00000370: 69c4 f33c 2789 a7bc dec1 b2bd 328d 9a3d
00000380: f57a d3bd 9f23 debd 6545 bebd bc58 0a3d
00000390: d888 cbbd 4587 37bd 59cf ab3b 56a2 e63d
000003a0: 9022 c43d e2ce 023d 3400 c0bd 0094 4eb9
000003b0: 3abf c1bd 8c6e 19bd 7c51 37be 201b cebc
000003c0: 1477 9b3c e404 2fbd 6f48 99bc d225 ddbd
000003d0: 7727 ebbd 8991 e3bd cb10 f83c 48d2 8ebd
000003e0: 8cee b3bd fa8d 99bd 1547 54bd 6227 fcbd
000003f0: 7ced 2abe 149d 74bd b0b3 1bbd f27f cdbd
-0.028324919 -0.08548032 -0.13094604 0.03517088 0.35348505 -0.15313298 -0.184528 -0.092052646
-0.024191972 -0.08709429 0.06820713 -0.1534714 -0.26609203 0.021958811 -0.033644095 0.15393385
0.035538968 0.0839031 -0.12864313 -0.11091516 -0.018147781 0.010455676 -0.08657555 -0.010602095
0.12718965 -0.111481026 0.053717237 -0.011683723 -0.13716468 -0.049538996 -0.15615347 -0.067398
-0.07162104 -0.21647382 0.0020390993 0.09375419 -0.08879969 -0.10982815 -0.11485273 0.007299334
0.015998237 -0.14463888 -0.08211505 0.071738526 -0.31305364 -0.018322283 -0.3942777 -0.08085341
0.07540216 -0.28456017 -0.37907425 -0.03777025 -0.4598517 0.10713508 0.16975155 0.110481314
0.05519613 -0.124241814 -0.3730563 0.10295123 0.109986804 -0.12451967 -0.09875824 0.051163003
-0.14826354 0.066489264 -0.16361511 0.16939446 0.25977704 0.17384171 0.12380842 0.07443476
-0.054361433 -0.002589987 -0.0001651396 0.07217605 0.040088654 0.058258675 0.029556766 -0.08760339
0.18436125 0.2914376 0.35826945 0.28674066 0.36258557 0.29319522 -0.11218584 0.08401135
0.34569255 -0.053220253 -0.11131898 0.15432627 0.068857804 0.0076374714 0.32445464 -0.044273786
0.3851639 -0.20145199 0.26636025 0.05465795 0.56128937 -0.13848844 0.1975549 -0.017777056
-0.11887395 -0.16938491 0.5025623 0.043191597 -0.6008664 -0.096785456 -0.21396165 -0.262213
0.10208381 0.07875792 -0.32211348 0.1620925 -0.22232945 0.08042056 0.34756118 -0.05178142
-0.032481473 0.059080742 -0.23285714 0.13359077 -0.071745016 -0.018560555 0.054528695 -0.115078755
0.104917966 0.014959553 0.01091591 0.16376342 0.11417832 0.23147473 0.077369794 0.095798045
0.16245858 0.11562982 -0.0580405 0.15969707 -0.21927646 -0.011408169 -0.07678948 -0.11412176
0.065550245 0.24129753 0.16999823 -0.0007826866 0.2299944 0.17467314 0.45698237 0.104900986
0.06214975 0.29589692 -0.004579452 -0.18144697 0.14609066 -0.07125014 0.24820481 -0.044366267
0.14205222 0.17459257 0.30059883 -0.09355152 0.42830262 -0.06352474 0.23467492 0.052785203
-0.12507017 0.007888249 0.4397824 0.08581641 -0.043557197 -0.008419369 -0.010897791 0.1495869
-0.07515242 0.1808258 0.02075723 0.19602814 -0.04167419 -0.08625958 0.3268188 0.14340378
0.05584016 0.03111285 0.006134883 0.15283056 0.06901787 0.10275227 -0.059534587 0.037833616
-0.12080654 0.038957044 -0.109566525 -0.08279604 0.017435106 0.0296825 -0.059580635 0.011117923
0.019852018 0.119836286 -0.025458127 -0.10068752 -0.0027301072 0.0024216324 0.10995822 -0.03555057
-0.039035816 -0.0033429496 -0.09869495 0.08317207 0.10486736 0.022213254 -0.11548194 0.025598671
-0.0026684476 -0.13730936 0.023453996 0.026140032 0.029756742 -0.020451142 -0.087283835 0.07546462
-0.103261866 -0.10846638 -0.0929058 0.03377603 -0.0993821 -0.044806737 0.0052432236 0.11261432
0.09576905 0.03193558 -0.09375039 -0.00019700825 -0.09460302 -0.03745894 -0.17902178 -0.025159419
0.01897768 -0.042729273 -0.018711297 -0.10798229 -0.11482137 -0.11111743 0.030281445 -0.06973702
-0.087857336 -0.07497783 -0.0518256 -0.12312199 -0.16692156 -0.059720114 -0.03801316 -0.10034169
