runs/dqn_agent.pt (torch, 158343 bytes, 32 tensors)

net.0.weight f4 [64, 8]
0.48401225 0.12504686 0.4941092 -4.217052 6.2958455 -4.5133 0.48268884 -0.017630095
0.13195135 0.17768373 -0.14313325 -3.3155005 4.3113813 -0.013822863 -0.41414782 0.015455099
-0.09877924 -0.30287698 0.046159368 -3.5218358 1.5703435 3.9681604 0.14756928 0.06229112
-0.32248658 -0.07926297 -0.30530548 -0.018975437 0.11994904 -0.20734142 -0.1580937 -0.2814771
0.1400563 -0.23556119 -0.24432592 3.369586 -2.1752496 -2.5435965 0.04748178 0.10322664
0.12792659 -0.13401563 -0.041312832 3.65593 -2.9361548 -3.674589 -0.26037577 0.048646092
0.030765478 0.4389075 0.25426337 -1.6096323 0.89637846 -0.76270026 -0.14546512 -0.17830537
0.07556027 -0.30833402 -0.22296175 0.18177393 -0.32449895 -0.037433892 0.093372434 -0.28591898
-0.30414724 0.2123968 -0.009197381 -0.4205734 -0.19447686 -0.2230261 -0.6380151 -0.42871287
-0.3190473 -0.24327278 -0.06950256 0.16458979 -0.06509188 -0.022229165 0.0015176237 -0.12565847
-0.18893707 0.12897281 -0.19302084 2.471122 3.4172792 -4.307423 -0.41044512 0.098279834
0.39861122 -0.6885955 -0.02268375 1.6270288 -2.5809624 -1.1562605 0.48756498 -0.048263013
0.27051568 0.03921371 0.38002113 -0.21049616 -2.5233917 -0.5613361 0.2814506 -0.085471176
-0.3539216 -0.33811915 0.028547995 -0.99733466 -4.446432 4.45091 0.14419848 0.19539599
-0.3011733 0.044983502 -0.028429363 2.0091782 3.6280165 -4.949227 -0.02914955 0.13794194
0.38495156 -0.02064633 0.32985514 0.55925775 -4.5531845 2.4992764 0.027668014 -0.057983223
0.1104671 0.14339279 0.024770804 -2.1037667 -3.6128705 4.744622 -0.24485596 0.003501497
-0.16092922 -0.21556023 -0.14609222 0.26667514 0.14463541 -0.043448567 0.16635785 -0.3031128
-0.075826705 0.20510466 0.10924838 -1.1451081 -1.4931467 3.5342047 -0.38945523 -0.049781922
-0.2032538 0.3573532 0.021048483 -0.28563786 -0.37422782 1.1986992 0.3395191 -0.18698938
0.41077185 -0.50986755 -0.08461683 0.34562463 0.21518846 3.047866 -0.27900591 0.0051920987
-0.3017535 0.19764498 0.1595752 -3.2356198 3.906069 3.4736981 -0.16157135 0.03799448
-0.051519092 0.0054734596 -0.1651248 -3.7160416 0.48012 5.0190635 0.37098506 0.037409857
-0.14592111 -0.05651399 -0.10286873 2.221551 3.3879862 -4.686551 -0.25767592 0.066564836
0.16755474 -0.65388554 0.531248 3.417911 1.0289353 -0.14514834 -0.09339898 0.021842461
-0.05362373 0.21724947 -0.048684034 -3.116058 1.9108106 4.6045604 -0.45796785 0.020057468
-0.0006656661 -0.3527162 -0.24152268 1.3896936 2.7489684 -4.3472385 0.28625187 0.07792003
-0.17904978 -0.17591505 -0.12304435 2.2509332 -5.0165133 4.4474125 -0.4747045 0.06219437
0.19412722 0.29959047 -0.41812414 0.40273038 -0.12883611 -0.51677215 0.3909876 -0.21063012
-0.05855177 -0.12918074 -0.75771886 1.1520207 0.08415761 -1.3568649 -0.24874122 -0.0015399617
0.083336934 0.08888186 -0.058209185 2.9575853 -1.4771366 -4.0233064 0.22279283 0.027740587
0.38813007 0.12214596 -0.07736362 -0.14526634 -1.0128831 0.20940831 0.4069739 -0.13944435
00000000: 74d0 f73e 490c 003e e2fb fc3e 17f2 86c0
00000010: 9177 c940 f46c 90c0 fe22 f73e fd6c 90bc
00000020: 411e 073e b9f2 353e 8691 12be 2931 54c0
00000030: d6f6 8940 4a79 62bc 2f0b d4be 6237 7d3c
00000040: c54c cabd b112 9bbe 9b11 3d3d c265 61c0
00000050: 0401 c93f 57f6 7d40 671c 173e f924 7f3d
00000060: f61c a5be a054 a2bd 0051 9cbe 6072 9bbc
00000070: d8a7 f53d 4f51 54be 51e3 21be c41d 90be
00000080: eb6a 0f3e f436 71be 9330 7abe 4ca7 5740
00000090: 4a37 0bc0 49ca 22c0 417c 423d 7d68 d33d
000000a0: 30ff 023e 653b 09be a537 29bd c2fa 6940
000000b0: f6e9 3bc0 772c 6bc0 f94f 85be 2041 473d
000000c0: e207 fc3c 7cb8 e03e cf2e 823e 6e08 cebf
000000d0: 0f79 653f 5340 43bf cff4 14be af95 36be
000000e0: 58bf 9a3d f5dd 9dbe 1650 64be f222 3a3e
000000f0: ba24 a6be 4854 19bd 0c3a bf3d f963 92be
00000100: 30b9 9bbe 8c7e 593e 9db0 16bc 6655 d7be
00000110: f124 47be f460 64be f554 23bf 4180 dbbe
00000120: 2b5a a3be 801c 79be 5c57 8ebd 3a8a 283e
00000130: e44e 85bd f019 b6bc 00eb c63a 9dac 00be
00000140: b878 41be 7311 043e 41a7 45be dd26 1e40
00000150: b4b4 5a40 69d6 89c0 dd25 d2be f046 c93d
00000160: c516 cc3e cb47 30bf 46d3 b9bc 7b42 d03f
00000170: 7d2e 25c0 5800 94bf 1ea2 f93e 70af 45bd
00000180: 0881 8a3e 8e9e 203d 2192 c23e 4e8c 57be
00000190: 407f 21c0 b9b3 0fbf 4b1a 903e 830b afbd
000001a0: 3635 b5be f41d adbe 7cdd e93c 5351 7fbf
000001b0: 2c49 8ec0 db6d 8e40 c4a8 133e e315 483e
000001c0: 6333 9abe 9f40 383d b2e4 e8bc 6096 0040
000001d0: 6c31 6840 1160 9ec0 09cb eebc a740 0d3e
000001e0: 5f18 c53e 7e22 a9bc c6e2 a83e 842b 0f3f
000001f0: b0b3 91c0 25f4 1f40 08a8 e23c d17f 6dbd
00000200: 933c e23d 8fd5 123e 24ec ca3c 1da4 06c0
00000210: 4539 67c0 f2d3 9740 85bb 7abe 5f79 653b
00000220: a1ca 24be d2bb 5cbe 3399 15be a589 883e
00000230: 4e1b 143e 20f7 31bd b659 2a3e 9a31 9bbe
00000240: 084b 9bbd f506 523e 9dbd df3d e792 92bf
00000250: 6e1f bfbf 6930 6240 ad66 c7be 21e8 4bbd
00000260: c421 50be 00f7 b63e de6d ac3c 203f 92be
00000270: ca9a bfbe fa6e 993f 73d5 ad3e 257a 3fbe
00000280: b050 d23e ae86 02bf 974b adbd b6f5 b03e
00000290: 5d5a 5c3e 3d10 4340 ddd9 8ebe 7b22 aa3b
000002a0: 6f7f 9abe 7263 4a3e ae67 233e 6514 4fc0
000002b0: 09fd 7940 1251 5e40 f672 25be 1aa0 1b3d
000002c0: af05 53bd b55a b33b 7a16 29be a0d3 6dc0
000002d0: 4ad2 f53e 2b9c a040 c1f1 bd3e 143b 193d
000002e0: 586c 15be 377b 67bd d7ac d2bd e42d 0e40
000002f0: c4d4 5840 3af8 95c0 19ee 83be 2553 883d
00000300: 7893 2b3e 0b65 27bf deff 073f 0ebf 5a40
00000310: 27b4 833f c4a1 14be f747 bfbd f6ee b23c
00000320: 8ea4 5bbd a576 5e3e e968 47bd 7f6d 47c0
00000330: 7195 f43f 8f58 9340 c37a eabe 8f4f a43c
00000340: 1980 2eba 3897 b4be b951 77be 7be1 b13f
00000350: 19ef 2f40 941c 8bc0 9b8f 923e 8994 9f3d
00000360: d358 37be 1323 34be adfe fbbd 4a0f 1040
00000370: 4787 a0c0 3451 8e40 780c f3be 86bf 7e3d
00000380: 49c9 463e ec63 993e 5e14 d6be ad32 ce3e
00000390: 9ded 03be 2e4b 04bf 872f c83e 6caf 57be
000003a0: fbd3 6fbd f547 04be ddf9 41bf 6a75 933f
000003b0: d35a ac3d c0ad adbf 05b6 7ebe 8ad8 c9ba
000003c0: 8eac aa3d b107 b63d c16c 6ebd 1449 3d40
000003d0: d012 bdbf edbe 80c0 ce23 643e 3a40 e33c
000003e0: fcb8 c63e a927 fa3d d170 9ebd b3c0 14be
000003f0: 27a6 81bf 226f 563e e25e d03e 80ca 0ebe

net.0.bias f4 [64]
-0.6531307 0.82843494 -0.025956059 -0.121631205 0.279462 -0.2231829 -0.054791138 -0.23788203
-0.21370137 1.5014533 1.0898937 -0.13328344 -0.12709647 -1.1731106 -0.165326 0.46449736
-0.5744107 1.2282412 0.17830719 -0.06763928 1.0727913 0.19716674 -0.07557528 0.9299036
1.8494507 0.45899755 -0.20942776 0.37773222 -0.29713875 1.1213769 -0.60558647 0.6447968
1.7363406 -0.30947512 -0.10685953 0.03276552 0.55446047 -0.5924787 0.26141766 -0.1984669
-1.3107972 0.25618634 -0.81703895 1.3387151 1.305688 0.4144174 2.155514 0.9779379
0.06928732 1.8507895 0.14418273 -0.50869596 -0.030813947 -0.3188184 0.38135457 1.1132587
1.30556 0.19796985 0.33011752 0.048071943 -0.11596847 -0.35278612 2.0554144 1.2377715
00000000: 9333 27bf 5014 543f cda1 d4bc c819 f9bd
00000010: a515 8f3e 0f8a 64be ac6c 60bd 5997 73be
00000020: 88d4 5abe 9f2f c03f a381 8b3f 747b 08be
00000030: 9425 02be 7d28 96bf 384b 29be 99d2 ed3e
00000040: 940c 13bf 0237 9d3f 2996 363e 7686 8abd
00000050: 3a51 893f 14e6 493e 36c7 9abd 2a0e 6e3f
00000060: cdba ec3f ba01 eb3e 3b74 56be 1e66 c13e
00000070: 9222 98be 4789 8f3f b707 1bbf 6711 253f
00000080: 6940 de3f 8673 9ebe 2bd9 dabd 2335 063d
00000090: 1ff1 0d3f afac 17bf 89d8 853e e83a 4bbe
000000a0: 34c8 a7bf db2a 833e 7729 51bf 045b ab3f
000000b0: c920 a73f 842e d43e f1f3 0940 235a 7a3f
000000c0: 83e6 8d3d ace6 ec3f a3a4 133e e639 02bf
000000d0: 886d fcbc 2a3c a3be e840 c33e 437f 8e3f
000000e0: 971c a73f 9cb8 4a3e 2a05 a93e 16e7 443d
000000f0: e180 edbd 62a0 b4be e98b 0340 4c6f 9e3f

net.2.weight f4 [64, 64]
0.0051915497 0.033634543 -0.064401284 0.06925714 -0.09369166 0.018950135 0.040921107 -0.08304961
-0.10264909 0.06407723 -0.085261896 0.09364435 0.11829385 0.01748088 -0.028957173 -0.015710577
0.06644438 -0.039423212 -0.010244027 0.112208426 -0.064014524 -0.043083847 -0.076627746 -0.029512897
-0.1230541 -0.022388995 0.032603577 0.05528058 0.03782879 0.02580756 -0.010989189 0.06772952
-0.04269387 0.05407445 0.080479026 -0.01568295 -0.0067351907 -0.09749277 -0.073694825 -0.014540121
-0.025751606 -0.066087335 -0.09648198 0.08098613 -0.07027447 -0.033033654 -0.08977616 0.03949794
-0.0787738 -0.06912032 -0.022679642 -0.12485877 -0.020957038 0.006736979 0.039959446 0.11953643
-0.102579266 -0.024698958 -0.124189585 -0.04576336 -0.0032655448 -0.10357985 -0.05215946 -0.024840608
-0.1022932 -0.18372963 -0.039353877 0.052338958 -0.006631783 -0.07924478 -0.15540536 -0.007665023
0.020458782 0.036996506 -0.0048726825 0.08772961 -0.12836511 -0.0023923744 -0.09330795 -0.17927924
0.076587595 -0.0070951204 -0.17106256 -0.13273959 -0.06997834 -0.06289985 -0.18373364 -0.035477325
-0.04316213 -0.10266731 0.004973119 -0.09050363 -0.09880279 -0.090749905 -0.025006447 -0.1221323
-0.05297882 -0.063520625 0.04642488 0.0054516857 0.008181958 -0.1415291 0.020185564 -0.05919668
-0.108591646 0.06226641 -0.06626745 -0.054568626 0.009295156 -0.010866152 0.02665188 -0.09837166
-0.024741767 0.030077353 -0.12278872 -0.028068557 -0.032225262 -0.08063347 -0.09051887 -0.06438445
0.020898608 0.026517889 -0.054112248 0.04640641 0.07902679 0.025841555 -0.048071224 -0.11737317
0.19042239 0.10718773 0.13159418 -0.0830546 -0.05077465 0.04588918 0.087527394 0.105450496
0.16695085 0.66651493 -0.009659799 -0.04267782 -0.3656662 -0.10746833 0.16696756 -0.2529962
-0.25307494 0.50062287 -0.18387052 -0.10920195 0.080138534 -0.10177368 -0.18461902 0.097855255
0.20351776 -0.058225643 0.22348131 -0.169992 0.026348585 0.16282995 -0.07505104 -0.33560547
0.6244147 -0.18159424 -0.29728666 -0.17244682 -0.06502503 0.019108927 -0.0066591688 -0.019902885
-0.05364915 0.0057585086 -0.059634835 0.49674955 0.045498505 0.11237764 0.16830172 0.090339616
-0.2717726 -0.0974249 -0.34485173 -0.09709797 -0.07533079 -0.3814953 0.030656004 0.025593583
-0.018281644 0.13377069 -0.34345415 0.012788731 -0.056360696 -0.26127598 -0.067478515 0.0099838665
-0.34262732 0.13253331 0.16697948 -0.036623865 -0.028102793 -0.22200531 -0.21533929 -0.033043355
-0.18756363 1.538401 -0.11409285 -0.05275104 -0.29237366 -0.13084975 -0.067386866 -0.013602256
-0.10392529 1.4563301 -0.006399626 -0.17387009 0.13227344 -0.06773784 0.013571551 -0.11828248
0.10005892 -0.022211496 -0.4467094 0.038492266 -0.06399258 0.21042944 -0.26212984 0.03076665
0.5303473 -0.01785057 -0.1474373 -0.3520437 -0.12737863 -0.058879618 -0.20347296 -0.009933591
-0.03796187 0.09484108 -0.21358795 1.4677758 0.053576212 -0.008028819 0.068384886 -0.1884124
-0.14815018 0.09445506 -0.09222451 -0.1747899 -0.13788463 -0.107532434 -0.106004834 0.35811204
-0.14075428 -0.030067075 0.121599816 0.25895143 -0.13013129 -0.41325217 0.06354087 0.016283123
00000000: e01d aa3b 60c4 093d d2e4 83bd b0d6 8d3d
00000010: 6ae1 bfbd 503d 9b3c e49c 273d ea15 aabd
00000020: b039 d2bd ec3a 833d ca9d aebd 9cc8 bf3d
00000030: 0c44 f23d 1034 8f3c 9837 edbc 78b3 80bc
00000040: fe13 883d 3c7a 21bd 90d6 27bc 88cd e53d
00000050: 0c1a 83bd b078 30bd 02ef 9cbd 08c5 f1bc
00000060: ca03 fcbd 2069 b7bc 548b 053d e46d 623d
00000070: 5cf2 1a3d 606a d33c 000c 34bc c6b5 8a3d
00000080: c4df 2ebd 2c7d 5d3d 30d2 a43d 8879 80bc
00000090: e0b2 dcbb 4aaa c7bd 50ed 96bd b039 6ebc
000000a0: 08f5 d2bc cc58 87bd 5898 c5bd 0edc a53d
000000b0: 10ec 8fbd 4c4e 07bd 90dc b7bd 98c8 213d
000000c0: 2854 a1bd f48e 8dbd a8ca b9bc f4b5 ffbd
000000d0: 18ae abbc e0c1 dc3b 84ac 233d 84cf f43d
000000e0: 1415 d2bd 7855 cabc 1c57 febd 5c72 3bbd
000000f0: c002 56bb ac21 d4bd 28a5 55bd 887e cbbc
00000100: 197f d1bd 9f23 3cbe 8831 21bd 6061 563d
00000110: 6e4f d9bb 164b a2bd 9522 1fbe e02a fbbb
00000120: 2d99 a73c a689 173d 06ab 9fbb 95ab b33d
00000130: 2572 03be 62c9 1cbb 3d18 bfbd fa94 37be
00000140: f5d9 9c3d 2f7e e8bb 062b 2fbe e3ec 07be
00000150: ce50 8fbd a3d1 80bd ac24 3cbe ac50 11bd
00000160: c6ca 30bd 3d43 d2bd 8cf5 a23b f859 b9bd
00000170: 1e59 cabd 16db b9bd 52da ccbc 8020 fabd
00000180: 5200 59bd 1a17 82bd 0428 3e3d 0ea4 b23b
00000190: 9f0d 063c 01ed 10be 325c a53c 3878 72bd
000001a0: 4c65 debd 100b 7f3d 3bb7 87bd 5a83 5fbd
000001b0: b64a 183c f207 32bc 0b55 da3c 1577 c9bd
000001c0: 3faf cabc c864 f63c a778 fbbd 08f0 e5bc
000001d0: a3fe 03bd 2923 a5bd f561 b9bd ffdb 83bd
000001e0: 8f33 ab3c 0b3c d93c cea4 5dbd a614 3e3d
000001f0: ccd8 a13d abb1 d33c 55e6 44bd 5861 f0bd
00000200: 16fe 423e 3e85 db3d a0c0 063e 8818 aabd
00000210: 14f9 4fbd 4bf6 3b3d 9041 b33d 6ef6 d73d
00000220: 2af5 2a3e b9a0 2a3f 2244 1ebc f0ce 2ebd
00000230: 9a38 bbbe 5b18 dcbd 8bf9 2a3e b888 81be
00000240: 0a93 81be d228 003f 8e48 3cbe 46a5 dfbd
00000250: ac1f a43d b86e d0bd c50c 3dbe 5668 c83d
00000260: f666 503e 037e 6ebd 49d8 643e 6212 2ebe
00000270: fdd8 d73c e5bc 263e 5cb4 99bd 7bd4 abbe
00000280: a4d9 1f3f d7f3 39be f535 98be e695 30be
00000290: d82b 85bd 538a 9c3c 2835 dabb 600b a3bc
000002a0: 36bf 5bbd dfb1 bc3b a843 74bd f555 fe3e
000002b0: a45c 3a3d 4026 e63d 4957 2c3e fa03 b93d
000002c0: c725 8bbe b586 c7bd 6890 b0be 4ddb c6bd
000002d0: 0747 9abd 5a53 c3be 4d22 fb3c a2a9 d13c
000002e0: 63c3 95bc 2ffb 083e 39d9 afbe d387 513c
000002f0: 79da 66bd f7c5 85be 2d32 8abd 5f93 233c
00000300: d96c afbe d0b6 073e abfc 2a3e e802 16bd
00000310: d437 e6bc 5c55 63be e781 5cbe 7858 07bd
00000320: ae10 40be 53ea c43f 83a9 e9bd 7911 58bd
00000330: 00b2 95be 7afd 05be 2002 8abd ffdb 5ebc
00000340: c8d6 d4bd 0669 ba3f f4b3 d1bb 000b 32be
00000350: b072 073e 23ba 8abd 365b 5e3c 163e f2bd
00000360: b1eb cc3d e2f4 b5bc 18b7 e4be 11aa 1d3d
00000370: 8b0e 83bd d17a 573e e235 86be 570a fc3c
00000380: d7c4 073f 5c3b 92bc cef9 16be 123f b4be
00000390: 8b6f 02be c12b 71bd 375b 50be 80c0 22bc
000003a0: e87d 1bbd 0a3c c23d cdb6 5abe 14e0 bb3f
000003b0: bb72 5b3d 4f8b 03bc 600d 8c3d 2eef 40be
000003c0: aeb4 17be a871 c13d 34e0 bcbd 20fc 32be
000003d0: a131 0dbe f739 dcbd 1019 d9bd 765a b73e
000003e0: e421 10be 3a4f f6bc 5309 f93d 4895 843e
000003f0: 2341 05be ca95 d3be b721 823d 2f64 853c

net.2.bias f4 [64]
-0.045129314 -0.04316318 1.1772138 1.2341471 0.054687355 -0.6083475 1.580845 -1.1593142
-0.081547655 -0.14186208 -0.4489735 1.400779 0.5686166 1.4513603 0.07478119 1.1817298
0.98848057 0.54438853 0.16135707 1.1527071 0.50319386 0.84447384 1.6840339 -0.103733405
1.0447034 0.00012753272 0.84503454 -0.29431993 1.2479484 0.6051669 0.18168429 1.8179647
0.6837784 1.4571446 0.8954105 -0.13350436 -0.13557637 -0.2508977 -0.104340866 0.65497077
0.052380607 -0.04389829 0.82946086 -0.07394894 -1.2069494 1.1888098 0.7322226 1.3417706
0.8653349 1.7470921 1.2111343 1.5009067 -0.083329394 -0.25494534 -0.5376609 1.1651171
0.02733141 2.3605945 0.8350971 0.8900002 0.18423617 0.39588356 -1.5221179 -0.05762836
00000000: 84d9 38bd e0cb 30bd f1ae 963f 88f8 9d3f
00000010: d9ff 5f3d a9bc 1bbf 2159 ca3f 6864 94bf
00000020: 7502 a7bd 4b44 11be dbdf e5be ba4c b33f
00000030: dc90 113f 2dc6 b93f e126 993d ec42 973f
00000040: 100d 7d3f 0c5d 0b3f ca3a 253e e88b 933f
00000050: 50d1 003f 702f 583f 6c8e d73f 2e72 d4bd
00000060: d7b8 853f 4eba 0539 2f54 583f 1ab1 96be
00000070: c6bc 9f3f 38ec 1a3f 720b 3a3e 11b3 e83f
00000080: 1a0c 2f3f b783 ba3f 9f39 653f 5eb5 08be
00000090: 88d4 0abe aa75 80be aab0 d5bd 2aac 273f
000000a0: 0c8d 563d b1ce 33bd 8c57 543f 8b72 97bd
000000b0: 517d 9abf eb2a 983f f172 3b3f 24bf ab3f
000000c0: 9786 5d3f b7a0 df3f 7306 9b3f b61d c03f
000000d0: 9aa8 aabd 3288 82be 25a4 09bf 8f22 953f
000000e0: 1fe6 df3c fb13 1740 ecc8 553f 0ed7 633f
000000f0: 68a8 3c3e 40b1 ca3e c2d4 c2bf b70b 6cbd

net.4.weight f4 [64, 64]
-0.107534304 0.0712602 -0.07826811 0.09521293 -0.00051511824 0.014805059 0.07507381 -0.01535079
-0.07855648 -0.06356977 -0.12721969 0.0068157623 0.044869162 0.10173765 -0.07947826 0.36115935
0.31143022 0.07998735 -0.036538552 -0.025053281 -0.06165586 0.12671594 -0.16840503 0.19505425
-0.034729414 -0.070221804 0.22161593 0.0568773 0.011412557 0.12571135 0.093723655 0.12828483
-0.028406015 -0.067662485 -0.0646567 -0.031165905 -0.10759604 0.16928141 0.114133015 -0.15610681
-0.028121887 -0.08480108 0.011609768 -0.13307926 -0.073747665 0.1488269 0.17430277 -0.011526522
-0.00823508 0.32092 0.06530699 0.12579574 -0.0071151406 0.021950692 -0.19680905 0.038004335
-0.06221105 0.376637 0.039646555 0.07300032 0.41986927 0.12496152 -0.29138136 0.44216084
0.0059161037 0.04605113 0.29807368 -0.041567743 0.11396296 -0.5839764 0.1789605 -0.64826685
-0.035414867 0.028352005 -0.5302809 -0.30456743 -0.691128 0.47139102 -0.43974134 0.08788007
0.00996119 -0.133832 -0.4181248 -0.08028537 -0.23912291 -0.20512243 0.23751761 -0.2808406
-0.5665519 0.06144368 -0.4033571 0.12960497 -0.22838189 -0.59539044 0.29256803 -0.26411563
-0.19501883 -0.16751765 0.39204565 -0.1148853 0.061203092 -0.10647218 -0.107035324 -0.43475193
0.38635817 0.03803033 -0.14860846 -0.04451629 -0.25259945 0.28746882 0.041717984 0.11184979
-0.2616666 -0.35887083 -0.06260576 0.37975723 0.043180987 -0.11689196 -0.105520226 0.29987577
-0.08100842 0.2812649 0.21011163 -0.32700828 0.08581981 0.3449018 0.19870436 -0.15879142
0.1051629 0.019862588 -0.10347958 0.5305082 -0.10700503 -0.058850553 0.13062976 -0.17945708
-0.016238686 -0.06747123 0.18658325 0.02492805 -0.17449449 0.23313934 -0.17619477 0.07300948
-0.046741847 -0.031995006 0.12029953 0.03587526 -0.3152284 -0.08719411 -0.08870248 -0.14514259
-0.119260356 -0.15817286 0.0027228338 0.028977059 0.12956096 0.060442645 -0.28612927 0.0034415885
-0.17514582 0.21066879 -0.01113866 0.106212944 -0.09804103 0.0017356906 -0.1244712 1.5796357
0.1687979 -0.08190061 0.35134396 0.118113756 -0.14588445 -0.008324327 0.10000469 -0.0379091
-0.055288237 0.18796027 0.3169485 0.16033728 0.081986025 -0.22211158 0.52422184 -0.02713363
0.040014595 0.32100537 -0.22237109 0.027671508 0.12510408 -0.07053579 -0.017597515 0.034051694
-0.051922023 0.049394574 0.15662237 0.19195786 -0.009966496 -0.05726847 0.18595898 -0.23661958
-0.01283896 -0.043952227 -0.74685085 -0.08617737 -0.100252666 0.25427228 -0.027503973 0.2720421
0.27526718 -0.21311508 -0.6155436 -0.27700615 0.06946205 0.21750623 -0.17742473 -0.10432043
-0.09192987 -0.029793318 0.36836398 -0.21419115 -0.16857858 -0.014127168 -0.16427135 -0.04754348
0.014735039 -0.0061871186 0.029009085 -0.060896188 0.11134843 -0.02147159 0.08643845 -0.64216375
0.0884705 -0.0651244 -0.22564106 -0.05541273 0.06571132 0.4090972 -0.11484241 -0.133893
0.048209976 0.47657317 -0.066190764 0.2564684 -0.02995491 -0.20062311 -0.11547556 0.053995427
-0.07260288 -0.0033609811 -0.3900012 -0.19284235 0.32113644 -0.24144298 0.035530347 -0.16075139
00000000: f23a dcbd def0 913d 084b a0bd fffe c23d
00000010: 0009 07ba eb90 723c 4cc0 993d e181 7bbc
00000020: 38e2 a0bd de30 82bd e145 02be c256 df3b
00000030: bac8 373d d45b d03d 7fc5 a2bd e1e9 b83e
00000040: c873 9f3e 68d0 a33d 73a9 15bd 8a3c cdbc
00000050: db8a 7cbd d3c1 013e 5e72 2cbe 4dbc 473e
00000060: 6e40 0ebd 73d0 8fbd 49ef 623e 2cf8 683d
00000070: bcfb 3a3c 7aba 003e 30f2 bf3d 195d 033e
00000080: bbb3 e8bc a192 8abd bb6a 84bd a44f ffbc
00000090: 505b dcbd 1b58 2d3e 92be e93d 77da 1fbe
000000a0: df5f e6bc 30ac adbd e536 3e3c ee45 08be
000000b0: 0409 97bd 1466 183e 6d7c 323e bdd9 3cbc
000000c0: 6eec 06bc a04f a43e acbf 853d 99d0 003e
000000d0: 2026 e9bb f0d1 b33c 5088 49be 6faa 1b3d
000000e0: 04d1 7ebd 91d6 c03e 6d64 223d 3181 953d
000000f0: 1bf9 d63e d3eb ff3d f02f 95be e862 e23e
00000100: e0db c13b 1ca0 3c3d 1d9d 983e f042 2abd
00000110: 6a65 e93d 7a7f 15bf 6c41 373e d1f4 25bf
00000120: 2e0f 11bd 7742 e83c 7dc0 07bf 43f0 9bbe
00000130: c4ed 30bf 2a5a f13e c725 e1be 77fa b33d
00000140: 4234 233c 410b 09be 7414 d6be a86c a4bd
00000150: a3dc 74be 9d0b 52be d137 733e 57ca 8fbe
00000160: 8c09 11bf 5eac 7b3d d284 cebe 2ab7 043e
00000170: f1dc 69be 826b 18bf 7acb 953e 2a3a 87be
00000180: 04b3 47be bf89 2bbe 35ba c83e fc48 ebbd
00000190: 18b0 7a3d 160e dabd 5635 dbbd ce97 debe
000001a0: bdd0 c53e b1c5 1b3d d12c 18be b756 36bd
000001b0: b754 81be 1d2f 933e 7ae0 2a3d 8111 e53d
000001c0: 2af9 85be ebbd b7be 7337 80bd 8a6f c23e
000001d0: 8cde 303d 0d65 efbd fd1a d8bd 5189 993e
000001e0: bee7 a5bd f401 903e 8127 573e a16d a7be
000001f0: 4cc2 af3d f896 b03e 2879 4b3e 389a 22be
00000200: a65f d73d deb6 a23c 1aed d3bd 63cf 073f
00000210: 7425 dbbd 470d 71bd cfc3 053e 99c3 37be
00000220: fe06 85bc 5b2e 8abd ae0f 3f3e e935 cc3c
00000230: afae 32be 14bc 6e3e 676c 34be ff85 953d
00000240: 6174 3fbd 320d 03bd 9a5f f63d f0f1 123d
00000250: 9e65 a1be d392 b2bd a5a9 b5bd 42a0 14be
00000260: c63e f4bd 11f8 21be 9271 323b 4c61 ed3c
00000270: a1ab 043e b592 773d 897f 92be 468c 613b
00000280: 6d59 33be 8fb9 573e ed7e 36bc 2c86 d93d
00000290: bcc9 c8bd 1d80 e33a c2ea febd 8131 ca3f
000002a0: 5bd9 2c3e 82bb a7bd 5be3 b33e a0e5 f13d
000002b0: bc62 15be c262 08bc 42cf cc3d 9346 1bbd
000002c0: eb75 62bd a878 403e 1347 a23e 752f 243e
000002d0: 4ae8 a73d 3871 63be 6733 063f 5947 debc
000002e0: 58e6 233d d15a a43e 3fb5 63be 5caf e23c
000002f0: 491b 003e 1175 90bd aa28 90bc ca79 0b3d
00000300: 30ac 54bd f751 4a3d 9d61 203e 9a90 443e
00000310: 844a 23bc 5892 6abd 086c 3e3e 674c 72be
00000320: 805a 52bc 4007 34bd 9e31 3fbf c37d b0bd
00000330: 4551 cdbd fa2f 823e 0350 e1bc 1a49 8b3e
00000340: d2ef 8c3e d73a 5abe 4494 1dbf c0d3 8dbe
00000350: 1f42 8e3d f4b9 5e3e d4ae 35be f3a5 d5bd
00000360: ba45 bcbd 1e11 f4bc 349a bc3e ed54 5bbe
00000370: dd9f 2cbe a375 67bc c036 28be f4bc 42bd
00000380: 3c6b 713c 50bd cabb 76a4 ed3c 486e 79bd
00000390: a50a e43d 30e5 afbc a406 b13d d864 24bf
000003a0: 0630 b53d f15f 85bd 730e 67be 75f8 62bd
000003b0: a893 863d 3075 d13e 7f32 ebbd 3f1b 09be
000003c0: d377 453d 6601 f43e 068f 87bd d34f 833e
000003d0: 0064 f5bc 2570 4dbe 737e ecbd 4f2a 5d3d
000003e0: d2b0 94bd e843 5cbb 3dae c7be 7778 45be
000003f0: ff6b a43e d43c 77be 4588 113d 039c 24be

net.4.bias f4 [64]
0.58508843 0.3660072 1.7250106 1.4063878 1.6382043 0.8316541 0.9133582 0.9964081
-0.28878114 1.9453105 0.8010258 1.3382034 -0.9731204 -0.15627779 -0.19124396 0.007461828
0.04856819 0.82076555 -1.4750694 0.7096326 -0.9524847 1.0283924 0.79485637 0.83877265
1.394939 0.92190814 0.8523342 1.4026542 0.31895676 0.6979653 1.6346961 -0.1727591
1.6872084 -0.24547721 1.0384034 -0.0044599827 0.0033035586 1.481241 0.12628758 -0.10569703
0.8112541 0.20596752 0.46541885 0.86764926 1.1830024 1.0322087 1.2795882 0.07280828
0.77010185 -0.110366926 -0.82590336 -0.7694194 0.77029514 0.090165384 1.5666182 0.040869854
1.7245084 0.6006776 0.36763406 1.6064829 0.018261962 -0.108929045 0.92707324 0.081211455
00000000: 5bc8 153f 4c65 bb3e 26cd dc3f 8404 b43f
00000010: aeb0 d13f 48e7 543f d8d1 693f 9a14 7f3f
00000020: 1fdb 93be efff f83f 0710 4d3f 404a ab3f
00000030: 6b1e 79bf 4907 20be 75d5 43be 5a82 f43b
00000040: 70ef 463d b11d 523f 13cf bcbf 7baa 353f
00000050: 0ad6 73bf 5da2 833f b57b 4b3f ceb9 563f
00000060: 5c8d b23f 2c02 6c3f 9332 5a3f 2c8a b33f
00000070: 4d4e a33e dbad 323f b93d d13f c3e7 30be
00000080: 72f6 d73f 615e 7bbe 67ea 843f 0c25 92bb
00000090: 8480 583b 4e99 bd3f 8851 013e af77 d8bd
000000a0: 59ae 4f3f 26e9 523e 614b ee3e 431e 5e3f
000000b0: 9f6c 973f 6a1f 843f 8cc9 a33f 821c 953d
000000c0: 6525 453f 0e08 e2bd 676e 53bf abf8 44bf
000000d0: 1032 453f a1a8 b83d f286 c83f 2667 273d
000000e0: b1bc dc3f 02c6 193f 883a bc3e 3ba1 cd3f
000000f0: 1c9a 953c 3116 dfbd ac54 6d3f 3152 a63d

net.6.weight f4 [3, 64]
-0.058209814 -0.09200839 -0.026049165 -0.598743 -0.20287523 0.09039217 -0.60408443 -0.07992674
-0.08184026 -0.7481531 -0.111317396 -0.21254134 0.3075877 0.030250926 0.011431205 0.02888731
-0.06378892 -0.5513009 0.49281463 0.17364247 0.42918956 -0.13174695 -1.4602168 -0.81421316
-0.019317174 0.008181478 -0.2439838 -0.15768108 -0.84255373 -0.24377283 -0.09610176 0.005646459
-0.08960448 -0.2556852 -0.39438385 0.019683694 0.603648 -0.19561052 -0.041388795 0.041686248
-0.12209049 0.2657263 -0.1986226 -0.12831126 0.087726004 -0.083360635 -0.56380093 -0.2371097
-0.54477835 0.023629902 0.3529976 -0.43878692 -0.3982772 0.17066313 -0.082016334 -0.049582813
-0.21593772 -0.33376512 0.058088124 -0.10939213 0.04730809 0.27466118 0.024097882 0.29654133
-0.21590647 -1.7745229 -0.065641224 -0.5321866 -0.07589281 -0.118706405 -0.056846026 0.028399616
-0.3004325 -1.0833863 0.08073724 -0.035145998 0.09811914 0.024675954 -0.017606383 -0.0037522672
-0.0664525 -0.038691178 0.358816 -0.39845976 0.16155379 -0.12638871 0.086188436 -0.50131196
-0.2053676 -0.853959 -0.34997937 -0.024996795 -0.873613 -0.2927936 -0.1302698 0.046562705
-0.08656472 0.16394782 -0.82282764 0.019170258 0.45064142 -0.13464738 -0.12601353 0.10044949
-0.15733078 -0.16118947 -0.07415165 -0.06028219 0.110460036 -1.2192013 -0.08844855 0.7378619
-0.026491392 0.04919937 -0.5692221 0.22990635 -0.14140016 0.3060074 -0.06649034 -0.1043739
-0.4315416 -0.07021264 -0.24296881 -0.17242603 0.072036624 -0.42923245 -0.008146886 0.62459195
0.16240793 -0.18040305 -0.6124004 -0.1480591 -0.18236682 -0.2227585 -0.30475214 -0.18944085
-0.051762357 -0.939525 -0.13131899 -0.19972153 -0.030318096 0.030473055 0.033149146 0.06762942
-0.00071190967 -0.09754273 0.2064276 0.11687344 0.45085293 -0.020971933 -0.12190422 -0.47849536
-0.26606956 -0.09325265 0.1196656 -0.4401211 -0.124974996 0.11910713 -0.20269635 0.037970454
-0.20036139 0.02737081 0.0056585353 0.057282094 0.24447277 -0.057541665 0.04439976 -0.005002073
0.04902949 0.028594347 0.23402405 -0.048471477 -0.39401492 -0.14891721 -0.11622006 -0.2359254
-0.41000527 -0.13222058 0.19105875 0.39153606 -0.67892456 0.27115265 -0.25208881 -0.059147403
-0.28310123 -0.23676667 -0.11270561 -0.09209927 -0.024580253 -0.2482294 -0.19425453 -0.07212597
00000000: 6a6d 6ebd e56e bcbd 0f65 d5bc 3947 19bf
00000010: 86be 4fbe 881f b93d 47a5 1abf a1b0 a3bd
00000020: de9b a7bd f686 3fbf 60fa e3bd 70a4 59be
00000030: 237c 9d3e cad0 f73c f349 3b3c 14a5 ec3c
00000040: c4a3 82bd 0e22 0dbf 3352 fc3e 55cf 313e
00000050: bcbe db3e ace8 06be 62e8 babf 4670 50bf
00000060: 0d3f 9ebc 9b0b 063c e4d6 79be 2677 21be
00000070: 9ab1 57bf 969f 79be 00d1 c4bd ee05 b93b
00000080: 8e82 b7bd 2ce9 82be aeec c9be b33f a13c
00000090: ad88 1a3f 204e 48be 4c87 29bd 33bf 2a3d
000000a0: 940a fabd 470d 883e b963 4bbe 0764 03be
000000b0: b1a9 b33d fbb8 aabd 4255 10bf e3cc 72be
000000c0: 9876 0bbf 7f93 c13c 1abc b43e aea8 e0be
000000d0: fdea cbbe 51c2 2e3e 2ef8 a7bd 5917 4bbd
000000e0: c71e 5dbe 43e3 aabe d0ed 6d3d fb08 e0bd
000000f0: 21c6 413d 64a0 8c3e ec68 c53c 44d4 973e
00000100: 9616 5dbe 9123 e3bf e86e 86bd 623d 08bf
00000110: b16d 9bbd 581c f3bd 61d7 68bd 50a6 e83c
00000120: 4ad2 99be 67ac 8abf 9159 a53d 40f5 0fbd
00000130: b0f2 c83d 3a25 ca3c 433b 90bc 99e8 75bb
00000140: 4018 88bd a47a 1ebd bbb6 b73e eb02 ccbe
00000150: 5b6e 253e 0b6c 01be 9083 b03d fb55 00bf
00000160: e24b 52be 0f9d 5abf 7f30 b3be 14c6 ccbc
00000170: 1aa5 5fbf 0be9 95be 7265 05be 89b8 3e3d
00000180: d848 b1bd f0e1 273e d5a4 52bf f20a 9d3c
00000190: 79ba e63e 01e1 09be b109 01be 76b8 cd3d
000001a0: 521b 21be da0e 25be d2dc 97bd 75ea 76bd
000001b0: df38 e23d ca0e 9cbf 8324 b5bd 84e4 3c3f
000001c0: 7a04 d9bc 4785 493d 8ab8 11bf 926c 6b3e
000001d0: 34cb 10be 00ad 9c3e 162c 88bd fcc1 d5bd
000001e0: 05f3 dcbe a5cb 8fbd d1cc 78be 7390 30be
000001f0: f087 933d 5bc4 dbbe 847a 05bc 42e5 1f3f
00000200: 444e 263e 94bb 38be 46c6 1cbf ce9c 17be
00000210: 5ebe 3abe ce1a 64be 7908 9cbe c8fc 41be
00000220: c404 54bd b684 70bf 7c78 06be cd83 4cbe
00000230: a85d f8bc a1a2 f93c 66c7 073d 4b81 8a3d
00000240: 739f 3aba 7cc4 c7bd c261 533e 585b ef3d
00000250: 32d6 e63e 55cd abbc eba8 f9bd 58fd f4be
00000260: 453a 88be 3ffb bebd 3d13 f53d 8e57 e1be
00000270: e4f2 ffbd 70ee f33d a28f 4fbe e886 1b3d
00000280: 892b 4dbe c038 e03c 3c6b b93b a1a0 6a3d
00000290: 1257 7a3e cfb0 6bbd 86dc 353d 6ee8 a3bb
000002a0: 26d3 483d b13e ea3c 00a4 6f3e 078a 46bd
000002b0: 53bc c9be c17d 18be c804 eebd 6e96 71be
000002c0: 36ec d1be d564 07be e8a4 433e 6a77 c83e
000002d0: 00ce 2dbf 85d4 8a3e c911 81be 8c44 72bd
000002e0: a5f2 90be f672 72be 33d2 e6bd 8b9e bcbd
000002f0: 875c c9bc d92f 7ebe a9ea 46be c8b6 93bd

net.6.bias f4 [3]
-0.9555099 -0.9713819 -1.0056564
00000000: 4c9c 74bf 7cac 78bf 59b9 80bf

net.0.weight f4 [64, 8]
0.51087713 0.12964508 0.49469197 -4.1796303 6.2550383 -4.5094504 0.48255667 -0.015374334
0.16527635 0.18678841 -0.13747549 -3.2538276 4.2717338 -0.010760915 -0.41939083 0.017292636
-0.11447419 -0.28655976 0.03568373 -3.4860442 1.5313404 3.9429843 0.14703766 0.06074393
-0.32248658 -0.07926297 -0.30530548 -0.018975437 0.11994904 -0.20734142 -0.1580937 -0.2814771
0.121797636 -0.22606078 -0.252849 3.2883074 -2.1493335 -2.5217876 0.0493258 0.09928392
0.12036438 -0.13286929 -0.02791188 3.594685 -2.9281921 -3.662667 -0.25018263 0.053331792
-0.027826386 0.43350646 0.27072644 -1.5569272 0.915632 -0.80566853 -0.13197139 -0.17358866
0.07556027 -0.30833402 -0.22296175 0.18177393 -0.32449895 -0.037433892 0.093372434 -0.28591898
-0.30414724 0.2123968 -0.009197381 -0.4205734 -0.19447686 -0.2230261 -0.6380151 -0.42871287
-0.3190473 -0.24327278 -0.06950256 0.16458979 -0.06509188 -0.022229165 0.0015176237 -0.12565847
-0.19302733 0.13590658 -0.18878649 2.4357705 3.4033046 -4.2789083 -0.40491334 0.10135167
0.40687773 -0.69887143 -0.009058634 1.6186786 -2.5567095 -1.1074135 0.49507862 -0.03732764
0.28497687 0.05297776 0.3985053 -0.19604465 -2.5452366 -0.5379119 0.28435647 -0.0788697
-0.36508998 -0.35085848 0.0384647 -1.0386777 -4.4582872 4.38873 0.14661539 0.19440147
-0.29525113 0.042492796 -0.028933676 1.9628283 3.588511 -4.9278703 -0.022248639 0.14084247
0.39778516 -0.019131796 0.32889605 0.5439743 -4.5449247 2.5839498 0.029666044 -0.053895656
0.11363411 0.14839688 0.05434562 -2.0974603 -3.6114228 4.718445 -0.24121371 0.007933755
-0.16092922 -0.21556023 -0.14609222 0.26667514 0.14463541 -0.043448567 0.16635785 -0.3031128
-0.092356086 0.19786775 0.09291692 -1.1162074 -1.5191576 3.526924 -0.39400354 -0.058161855
-0.21476854 0.37157303 0.04156686 -0.23203538 -0.3756455 1.1437865 0.38784003 -0.15572506
0.41168776 -0.49319807 -0.08698603 0.43073395 0.27024278 3.045884 -0.2937864 -0.0022058284
-0.33549836 0.19645764 0.14564887 -3.1806786 3.866762 3.5029027 -0.1791799 0.023593977
-0.04605166 0.013720578 -0.15202086 -3.6860344 0.46181035 5.002482 0.36986706 0.039897304
-0.15543148 -0.06615972 -0.10547984 2.1908133 3.387432 -4.6704698 -0.25751612 0.06370361
0.16103528 -0.683793 0.53098166 3.4702744 1.0721067 -0.16124707 -0.096054785 0.022139978
-0.06388817 0.21628429 -0.03097662 -3.0568233 1.9076794 4.6041503 -0.46733308 0.016566832
-0.010762808 -0.35005653 -0.2486483 1.3567125 2.7294052 -4.3260307 0.28756902 0.07615349
-0.2040097 -0.16433586 -0.10376303 2.2200356 -4.9677734 4.402958 -0.47076783 0.0671615
0.18073478 0.28994423 -0.41812414 0.40273038 -0.12883611 -0.51677215 0.41369462 -0.21871424
-0.05855177 -0.12918074 -0.75771886 1.1520207 0.08415761 -1.3568649 -0.24874122 -0.0015399617
0.07898749 0.08866926 -0.0609606 2.8647408 -1.4732003 -4.0091457 0.22524592 0.02428242
0.38707215 0.12650137 -0.082343705 -0.1533773 -1.0044482 0.2139178 0.41327244 -0.13599905
00000000: d8c8 023f aec1 043e 4448 fd3e 88bf 85c0
00000010: 4629 c840 6b4d 90c0 ab11 f73e a1e4 7bbc
00000020: 343e 293e 7645 3f3e 60c6 0cbe b63e 50c0
00000030: 0bb2 8840 8d4e 30bc 65ba d6be 49a9 8d3c
00000040: 7271 eabd f6b7 92be 1a29 123d 591b 5fc0
00000050: f602 c43f db59 7c40 0a91 163e a1ce 783d
00000060: f61c a5be a054 a2bd 0051 9cbe 6072 9bbc
00000070: d8a7 f53d 4f51 54be 51e3 21be c41d 90be
00000080: 0a71 f93d 7a7c 67be 6d75 81be a173 5240
00000090: ae8e 09c0 f864 21c0 da09 4a3d 5e55 cb3d
000000a0: 9a81 f63d e30e 08be 74a7 e4bc 520f 6640
000000b0: 8067 3bc0 2369 6ac0 f017 80be 7072 5a3d
000000c0: 29f4 e3bc 8ff4 dd3e a89c 8a3e 6449 c7bf
000000d0: dc66 6a3f 4b40 4ebf 8223 07be 3ac1 31be
000000e0: 58bf 9a3d f5dd 9dbe 1650 64be f222 3a3e
000000f0: ba24 a6be 4854 19bd 0c3a bf3d f963 92be
00000100: 30b9 9bbe 8c7e 593e 9db0 16bc 6655 d7be
00000110: f124 47be f460 64be f554 23bf 4180 dbbe
00000120: 2b5a a3be 801c 79be 5c57 8ebd 3a8a 283e
00000130: e44e 85bd f019 b6bc 00eb c63a 9dac 00be
00000140: f5a8 45be 182b 0b3e 3f51 41be aae3 1b40
00000150: becf 5940 d1ec 88c0 cd50 cfbe 7791 cf3d
00000160: 4752 d03e 3de9 32bf aa6a 14bc dc30 cf3f
00000170: 21a1 23c0 babf 8dbf f27a fd3e dee4 18bd
00000180: 7de8 913e 35ff 583d e308 cc3e eebf 48be
00000190: 28e5 22c0 98b4 09bf 2c97 913e 7086 a1bd
000001a0: 13ed babe b9a3 b3be 298d 1d3d 64f3 84bf
000001b0: 4aaa 8ec0 7a70 8c40 5822 163e 2e11 473e
000001c0: 282b 97be ed0c 2e3d 5106 edbc f53d fb3f
000001d0: 2aaa 6540 1db1 9dc0 c742 b6bc 0239 103e
000001e0: 7faa cb3e 49ba 9cbc 1065 a83e e641 0b3f
000001f0: 0670 91c0 6f5f 2540 3406 f33c b1c1 5cbd
00000200: 00b9 e83d 5af5 173e 8399 5e3d ca3c 06c0
00000210: 8d21 67c0 80fd 9640 ba00 77be 95fc 013c
00000220: a1ca 24be d2bb 5cbe 3399 15be a589 883e
00000230: 4e1b 143e 20f7 31bd b659 2a3e 9a31 9bbe
00000240: 3025 bdbd d89d 4a3e 3a4b be3d e2df 8ebf
00000250: c273 c2bf 1fb9 6140 d5ba c9be 203b 6ebd
00000260: 49ec 5bbe d23e be3e 0342 2a3d af9a 6dbe
00000270: 9b54 c0be 9967 923f f892 c63e 6476 1fbe
00000280: bdc8 d23e 7584 fcbe bb25 b2bd 2989 dc3e
00000290: 435d 8a3e c3ef 4240 2c6b 96be a98f 10bb
000002a0: 71c6 abbe 312c 493e fa24 153e 3d90 4bc0
000002b0: 0779 7740 8f2f 6040 f07a 37be 2848 c13c
000002c0: aaa0 3cbd 46cc 603c 5bab 1bbe fde7 6bc0
000002d0: 6872 ec3e 5514 a040 375f bd3e 5b6b 233d
000002e0: 6e29 1fbe bf7e 87bd d005 d8bd 4936 0c40
000002f0: b0cb 5840 7d74 95c0 27d9 83be 0a77 823d
00000300: 6fe6 243e 0f0d 2fbf 6aee 073f fa18 5e40
00000310: cb3a 893f f41d 25be 5fb8 c4bd e65e b53c
00000320: cdd7 82bd a179 5d3e aec2 fdbc fea2 43c0
00000330: d72e f43f 3355 9340 4846 efbe 2ab7 873c
00000340: 7d56 30bc 9c3a b3be a99d 7ebe c1a8 ad3f
00000350: 93ae 2e40 d86e 8ac0 3f3c 933e 5cf6 9b3d
00000360: ebe7 50be a947 28be b681 d4bd 1015 0e40
00000370: 00f8 9ec0 08e5 8c40 7b08 f1be f88b 893d
00000380: 8a12 393e 9273 943e 5e14 d6be ad32 ce3e
00000390: 9ded 03be 2e4b 04bf c8cf d33e a0f6 5fbe
000003a0: fbd3 6fbd f547 04be ddf9 41bf 6a75 933f
000003b0: d35a ac3d c0ad adbf 05b6 7ebe 8ad8 c9ba
000003c0: 31c4 a13d 3b98 b53d d2b1 79bd ea57 3740
000003d0: d491 bcbf ec4a 80c0 dea6 663e edeb c63c
000003e0: 522e c63e 9389 013e d1a3 a8bd f00e 1dbe
000003f0: c291 80bf 450d 5b3e 7298 d33e 5643 0bbe

net.0.bias f4 [64]
-0.64075214 0.8065363 -0.03711638 -0.121631205 0.28806296 -0.22942892 -0.060500767 -0.23788203
-0.21370137 1.5170932 1.0767062 -0.115643434 -0.114636295 -1.1894897 -0.17268594 0.47948128
-0.5685697 1.2436223 0.18201058 -0.053694017 1.07823 0.17457892 -0.06550139 0.9163511
1.8617086 0.45191044 -0.22083506 0.4147652 -0.30983865 1.1355728 -0.61896765 0.66392183
1.7345359 -0.3073909 -0.14808291 0.013493888 0.5726033 -0.61092633 0.2652543 -0.1984669
-1.3180324 0.2530079 -0.838536 1.3543302 1.2837775 0.40889385 2.1550875 0.99145937
0.05055972 1.860152 0.17257372 -0.50361264 -0.00908253 -0.3057534 0.37958238 1.1320024
1.3179451 0.16541891 0.36258912 0.039067566 -0.105395176 -0.35479733 2.0788302 1.2567
00000000: 5508 24bf 2a79 4e3f 5807 18bd c819 f9bd
00000010: fd7c 933e 6aef 6abe a7cf 77bd 5997 73be
00000020: 88d4 5abe 1c30 c23f 82d1 893f 77d6 ecbd
00000030: 6fc6 eabd 3341 98bf 95d4 30be 927e f53e
00000040: c98d 11bf 042f 9f3f fb60 3a3e 42ee 5bbd
00000050: 7103 8a3f d1c4 323e 9825 86bd fc95 6a3f
00000060: 784c ee3f ce60 e73e 9622 62be 1b5c d43e
00000070: 2ca3 9ebe 735a 913f aa74 1ebf c8f6 293f
00000080: 4605 de3f 5762 9dbe 0ca3 17be 7815 5d3c
00000090: 2196 123f ab65 1cbf 69cf 873e e83a 4bbe
000000a0: 49b5 a8bf 408a 813e 4caa 56bf b15a ad3f
000000b0: d252 a43f 895a d13e f4ec 0940 48d0 7d3f
000000c0: b517 4f3d 7619 ee3f 2ab7 303e c2ec 00bf
000000d0: e4ce 14bc b68b 9cbe 9f58 c23e 74e5 903f
000000e0: 6db2 a83f 9363 293e 48a5 b93e 5005 203d
000000f0: 6dd9 d7bd ffa7 b5be 8e0b 0540 8cdb a03f

net.2.weight f4 [64, 64]
0.0051915497 0.033634543 -0.064401284 0.06925714 -0.09369166 0.018950135 0.040921107 -0.08304961
-0.10264909 0.06407723 -0.085261896 0.09364435 0.11829385 0.01748088 -0.028957173 -0.015710577
0.06644438 -0.039423212 -0.010244027 0.112208426 -0.064014524 -0.043083847 -0.076627746 -0.029512897
-0.1230541 -0.022388995 0.032603577 0.05528058 0.03782879 0.02580756 -0.010989189 0.06772952
-0.04269387 0.05407445 0.080479026 -0.01568295 -0.0067351907 -0.09749277 -0.073694825 -0.014540121
-0.025751606 -0.066087335 -0.09648198 0.08098613 -0.07027447 -0.033033654 -0.08977616 0.03949794
-0.0787738 -0.06912032 -0.022679642 -0.12485877 -0.020957038 0.006736979 0.039959446 0.11953643
-0.102579266 -0.024698958 -0.124189585 -0.04576336 -0.0032655448 -0.10357985 -0.05215946 -0.024840608
-0.1022932 -0.18372963 -0.039353877 0.052338958 -0.006631783 -0.07924478 -0.15540536 -0.007665023
0.020458782 0.036996506 -0.0048726825 0.08772961 -0.12836511 -0.0023923744 -0.09330795 -0.17927924
0.076587595 -0.0070951204 -0.17106256 -0.13273959 -0.06997834 -0.06289985 -0.18373364 -0.035477325
-0.04316213 -0.10266731 0.004973119 -0.09050363 -0.09880279 -0.090749905 -0.025006447 -0.1221323
-0.05297882 -0.063520625 0.04642488 0.0054516857 0.008181958 -0.1415291 0.020185564 -0.05919668
-0.108591646 0.06226641 -0.06626745 -0.054568626 0.009295156 -0.010866152 0.02665188 -0.09837166
-0.024741767 0.030077353 -0.12278872 -0.028068557 -0.032225262 -0.08063347 -0.09051887 -0.06438445
0.020898608 0.026517889 -0.054112248 0.04640641 0.07902679 0.025841555 -0.048071224 -0.11737317
0.19481365 0.107241824 0.13118362 -0.0830546 -0.04857995 0.050253253 0.094107345 0.105450496
0.16695085 0.63535625 -0.012655204 -0.06590963 -0.44030288 -0.10658493 0.1660775 -0.24334018
-0.250403 0.46946982 -0.18340246 -0.1089701 0.10007895 -0.10633222 -0.18736914 0.09298886
0.20794064 -0.06320316 0.22244379 -0.1700516 0.026348585 0.13169014 -0.0713019 -0.36241987
0.6044513 -0.18291415 -0.29728666 -0.19060169 -0.06298038 0.022519886 -0.0042156656 -0.019902885
-0.049377616 0.018002074 -0.0590019 0.46559846 0.0426327 0.11305783 0.1653703 0.08979431
-0.26730996 -0.100261554 -0.37893268 -0.082476825 -0.07533079 -0.3652308 0.00055085385 0.02662293
-0.029190077 0.14016046 -0.33133772 0.014192487 -0.056085847 -0.29173255 -0.06419652 0.04802517
-0.34262732 0.13809079 0.16697948 -0.036623865 -0.021164423 -0.22200531 -0.21533929 -0.033043355
-0.18756363 1.5444816 -0.10810391 -0.05275104 -0.29237366 -0.13084975 -0.067386866 -0.008130606
-0.10392529 1.4624497 -0.0008074115 -0.17387009 0.13816097 -0.06375125 0.013571551 -0.11222627
0.105979495 -0.016909577 -0.4467094 0.044768993 -0.06399258 0.21653973 -0.26212984 0.037133176
0.53622085 -0.01785057 -0.1474373 -0.36079448 -0.121505626 -0.058879618 -0.19634415 -0.009933591
-0.03796187 0.10016481 -0.21358795 1.4738775 0.059460357 -0.002142311 0.07427057 -0.18222548
-0.14740892 0.100417696 -0.08570165 -0.1747899 -0.13788463 -0.107532434 -0.09994588 0.36399361
-0.13461961 -0.0262881 0.12808563 0.260146 -0.13013129 -0.41325217 0.06952004 0.022420023
00000000: e01d aa3b 60c4 093d d2e4 83bd b0d6 8d3d
00000010: 6ae1 bfbd 503d 9b3c e49c 273d ea15 aabd
00000020: b039 d2bd ec3a 833d ca9d aebd 9cc8 bf3d
00000030: 0c44 f23d 1034 8f3c 9837 edbc 78b3 80bc
00000040: fe13 883d 3c7a 21bd 90d6 27bc 88cd e53d
00000050: 0c1a 83bd b078 30bd 02ef 9cbd 08c5 f1bc
00000060: ca03 fcbd 2069 b7bc 548b 053d e46d 623d
00000070: 5cf2 1a3d 606a d33c 000c 34bc c6b5 8a3d
00000080: c4df 2ebd 2c7d 5d3d 30d2 a43d 8879 80bc
00000090: e0b2 dcbb 4aaa c7bd 50ed 96bd b039 6ebc
000000a0: 08f5 d2bc cc58 87bd 5898 c5bd 0edc a53d
000000b0: 10ec 8fbd 4c4e 07bd 90dc b7bd 98c8 213d
000000c0: 2854 a1bd f48e 8dbd a8ca b9bc f4b5 ffbd
000000d0: 18ae abbc e0c1 dc3b 84ac 233d 84cf f43d
000000e0: 1415 d2bd 7855 cabc 1c57 febd 5c72 3bbd
000000f0: c002 56bb ac21 d4bd 28a5 55bd 887e cbbc
00000100: 197f d1bd 9f23 3cbe 8831 21bd 6061 563d
00000110: 6e4f d9bb 164b a2bd 9522 1fbe e02a fbbb
00000120: 2d99 a73c a689 173d 06ab 9fbb 95ab b33d
00000130: 2572 03be 62c9 1cbb 3d18 bfbd fa94 37be
00000140: f5d9 9c3d 2f7e e8bb 062b 2fbe e3ec 07be
00000150: ce50 8fbd a3d1 80bd ac24 3cbe ac50 11bd
00000160: c6ca 30bd 3d43 d2bd 8cf5 a23b f859 b9bd
00000170: 1e59 cabd 16db b9bd 52da ccbc 8020 fabd
00000180: 5200 59bd 1a17 82bd 0428 3e3d 0ea4 b23b
00000190: 9f0d 063c 01ed 10be 325c a53c 3878 72bd
000001a0: 4c65 debd 100b 7f3d 3bb7 87bd 5a83 5fbd
000001b0: b64a 183c f207 32bc 0b55 da3c 1577 c9bd
000001c0: 3faf cabc c864 f63c a778 fbbd 08f0 e5bc
000001d0: a3fe 03bd 2923 a5bd f561 b9bd ffdb 83bd
000001e0: 8f33 ab3c 0b3c d93c cea4 5dbd a614 3e3d
000001f0: ccd8 a13d abb1 d33c 55e6 44bd 5861 f0bd
00000200: 3b7d 473e 9aa1 db3d 0055 063e 8818 aabd
00000210: c5fb 46bd 5bd6 4d3d 5abb c03d 6ef6 d73d
00000220: 2af5 2a3e b5a6 223f c657 4fbc a1fb 86bd
00000230: 616f e1be 3349 dabd 3810 2a3e 2b2e 79be
00000240: d234 80be 595e f03e dbcd 3bbe b72b dfbd
00000250: 31f6 cc3d b5c4 d9bd b2dd 3fbe f270 be3d
00000260: 64ee 543e a970 81bd 4ec8 633e 0222 2ebe
00000270: fdd8 d73c c8d9 063e bb06 92bd 198f b9be
00000280: 52bd 1a3f d94d 3bbe f535 98be 172d 43be
00000290: dcfb 80bd a07b b83c 9123 8abb 600b a3bc
000002a0: 2f40 4abd 1679 933c faab 71bd ec62 ee3e
000002b0: a09f 2e3d dd8a e73d d556 293e 14e6 b73d
000002c0: dadc 88be ee55 cdbd 7703 c2be 9ce9 a8bd
000002d0: 0747 9abd 88ff babe 2d67 103a 5518 da3c
000002e0: 0720 efbc 3986 0f3e 19a5 a9be 9b87 683c
000002f0: 46ba 65bd f85d 95be 7779 83bd 0ab6 443d
00000300: d96c afbe ac67 0d3e abfc 2a3e e802 16bd
00000310: 0361 adbc 5c55 63be e781 5cbe 7858 07bd
00000320: ae10 40be 93b1 c53f 9565 ddbd 7911 58bd
00000330: 00b2 95be 7afd 05be 2002 8abd 3c36 05bc
00000340: c8d6 d4bd 8d31 bb3f 78a8 53ba 000b 32be
00000350: 127a 0d3e 0490 82bd 365b 5e3c e3d6 e5bd
00000360: c70b d93d f485 8abc 18b7 e4be b15f 373d
00000370: 8b0e 83bd 97bc 5d3e e235 86be f518 183d
00000380: c545 093f 5c3b 92bc cef9 16be 0eba b8be
00000390: f1d7 f8bd c12b 71bd 710e 49be 80c0 22bc
000003a0: e87d 1bbd 3523 cd3d cdb6 5abe 05a8 bc3f
000003b0: b48c 733d 0466 0cbb 2b1b 983d 5199 3abe
000003c0: 5df2 16be cba7 cd3d 5984 afbd 20fc 32be
000003d0: a131 0dbe f739 dcbd 6db0 ccbd 5f5d ba3e
000003e0: b9d9 09be 245a d7bc e128 033e db31 853e
000003f0: 2341 05be ca95 d3be 8660 8e3d 32aa b73c

net.2.bias f4 [64]
-0.045129314 -0.04316318 1.1496584 1.2400436 0.054687355 -0.6136099 1.590713 -1.1425419
-0.081547655 -0.14186208 -0.4635373 1.4123225 0.61652267 1.4523684 0.102052875 1.1717585
0.98191047 0.5201052 0.15385015 1.1622491 0.5219696 0.8662882 1.6852653 -0.103733405
1.0592637 0.00012753272 0.8319499 -0.29305565 1.2611607 0.63811404 0.19520049 1.8298831
0.7147659 1.478206 0.8597458 -0.13350436 -0.13557637 -0.24011828 -0.104340866 0.67573464
0.071475595 -0.04389829 0.85972095 -0.07394894 -1.2199743 1.1878045 0.72279567 1.3508244
0.881907 1.7683376 1.2011012 1.5080725 -0.083329394 -0.25494534 -0.5202528 1.1415136
0.02733141 2.3604512 0.8450802 0.89775044 0.14482373 0.36717692 -1.5319333 -0.035220407
00000000: 84d9 38bd e0cb 30bd 0228 933f c0b9 9e3f
00000010: d9ff 5f3d 8a15 1dbf 7c9c cb3f d03e 92bf
00000020: 7502 a7bd 4b44 11be c354 edbe fcc6 b43f
00000030: 6ed4 1d3f 35e7 b93f 1901 d13d 2ffc 953f
00000040: 7c5e 7b3f 9d25 053f e58a 1d3e 94c4 943f
00000050: cd9f 053f 10c5 5d3f c6b6 d73f 2e72 d4bd
00000060: f495 873f 4eba 0539 abfa 543f 640b 96be
00000070: b76d a13f 715b 233f a3e2 473e 9c39 ea3f
00000080: e6fa 363f db35 bd3f 4d18 5c3f 5eb5 08be
00000090: 88d4 0abe 91e1 75be aab0 d5bd f2fc 2c3f
000000a0: cc61 923d b1ce 33bd ac16 5c3f 8b72 97bd
000000b0: 1e28 9cbf fa09 983f 2309 393f d0e7 ac3f
000000c0: a8c4 613f e358 e23f afbd 993f 8508 c13f
000000d0: 9aa8 aabd 3288 82be 4a2f 05bf 1e1d 923f
000000e0: 1fe6 df3c a211 1740 2d57 583f f9d2 653f
000000f0: ac4c 143e 9dfe bb3e 6416 c4bf 4643 10bd

net.4.weight f4 [64, 64]
-0.107534304 0.0712602 0.0060642757 0.071502514 -0.00051511824 0.01169559 0.07548324 -0.016192662
-0.07855648 -0.06356977 -0.11183188 0.008304211 0.020337276 0.124595635 -0.0875698 0.37680614
0.30513155 0.06316043 -0.06799521 -0.0227812 -0.049666513 0.12237239 -0.13926211 0.19505425
-0.032893416 -0.070221804 0.21998887 0.04643253 0.010093538 0.12083911 0.10138517 0.12619098
-0.027723242 -0.056941174 -0.058806196 -0.031165905 -0.10759604 0.1404385 0.114133015 -0.18395844
-0.014333797 -0.08480108 0.028882405 -0.13307926 -0.065406464 0.15400295 0.16760327 -0.0056526945
-0.1052946 0.34732297 0.09246971 0.13087542 -0.0071151406 0.021950692 -0.18824314 0.049773917
-0.06221105 0.35697487 0.042321254 0.06771547 0.4204187 0.13155724 -0.27825132 0.43917796
0.0059161037 0.04605113 0.30251172 -0.041567743 0.11396296 -0.5851197 0.17446734 -0.6215792
-0.035414867 0.028352005 -0.517561 -0.30222026 -0.6897871 0.47922984 -0.41429612 0.09793205
0.009937316 -0.15816657 -0.43402523 -0.050946962 -0.22702977 -0.16397311 0.25868875 -0.2808406
-0.57303 0.06144368 -0.30877233 0.12960762 -0.2292737 -0.59539044 0.3053811 -0.22909392
-0.20952715 -0.16733177 0.39593562 -0.1148853 0.061203092 -0.10647218 -0.107035324 -0.3928776
0.39240524 0.03803033 -0.1388615 -0.04451629 -0.2497956 0.29506144 0.046836544 0.113361165
-0.22856727 -0.35886905 -0.05381725 0.40448874 0.043180987 -0.11689196 -0.1161191 0.3083965
-0.08100842 0.2812649 0.22219545 -0.3138555 0.10239485 0.34544677 0.20093694 -0.15879142
0.1051629 0.019862588 -0.05909737 0.5437409 -0.10700503 -0.050083704 0.13351293 -0.18139227
-0.016238686 -0.06747123 0.2010481 0.024590634 -0.16350451 0.26700705 -0.17941324 0.09389501
-0.043299858 -0.038945887 0.13250676 0.045603774 -0.30885303 -0.049215727 -0.048695877 -0.14514259
-0.12815219 -0.15817286 0.072905056 0.023573978 0.1314187 0.06239678 -0.28976643 0.014281424
-0.16806377 0.24316129 0.0018828886 0.106212944 -0.09804103 -0.016243413 -0.1244712 1.5569521
0.15617038 -0.08190061 0.37368998 0.118113756 -0.13635471 0.018386591 0.097773544 -0.018498583
-0.044838242 0.21910475 0.30698365 0.16534436 0.081986025 -0.22211158 0.5291796 -0.013543503
0.040014595 0.32972988 -0.21782476 0.025377572 0.12651053 -0.065617196 -0.006678312 0.034051694
-0.051922023 0.049394574 0.1421326 0.19758125 -0.009966496 -0.06828264 0.19190374 -0.22373429
-0.01283896 -0.043952227 -0.7446805 -0.12287843 -0.093837164 0.27027977 -0.047628425 0.26961935
0.27789274 -0.22551414 -0.6155436 -0.2673042 0.024179444 0.23920536 -0.15187001 -0.10432043
-0.15023047 -0.029793318 0.38874304 -0.20726424 -0.17307171 -0.020627981 -0.1872957 -0.028780827
0.021101464 0.003859334 0.036924575 -0.060896188 0.11134843 -0.02147159 0.08643845 -0.6704979
0.08845084 -0.0651244 -0.20356931 -0.05541273 0.07559203 0.41232526 -0.12652273 -0.134653
0.07385455 0.49378347 -0.09451584 0.2529714 -0.02995491 -0.20062311 -0.08094373 0.057220824
-0.07260288 0.0012974681 -0.39096466 -0.16694617 0.34235066 -0.23006673 0.048039217 -0.16075139
00000000: f23a dcbd def0 913d d5b6 c63b e96f 923d
00000010: 0009 07ba dc9e 3f3c f596 9a3d 79a6 84bc
00000020: 38e2 a0bd de30 82bd 1d08 e5bd 630e 083c
00000030: 5c9a a63c ff2b ff3d cc57 b3bd bcec c03e
00000040: 343a 9c3e 415a 813d 1341 8bbd a49f babc
00000050: 1d6f 4bbd 609e fa3d ba9a 0ebe 4dbc 473e
00000060: 3fbb 06bd 73d0 8fbd c344 613e 0930 3e3d
00000070: 5e5f 253c 7f7a f73d 07a3 cf3d 3538 013e
00000080: da1b e3bc 263b 69bd c4de 70bd a44f ffbc
00000090: 505b dcbd 1ccf 0f3e 92be e93d 9a5f 3cbe
000000a0: 4dd8 6abc 30ac adbd cb9a ec3c ee45 08be
000000b0: d3f3 85bd f3b2 1d3e 31a0 2b3e 3d3a b9bb
000000c0: b2a4 d7bd 51d4 b13e c260 bd3d 3504 063e
000000d0: 2026 e9bb f0d1 b33c cfc2 40be bcdf 4b3d
000000e0: 04d1 7ebd 69c5 b63e 0d59 2d3d 69ae 8a3d
000000f0: 1f41 d73e f1b6 063e f576 8ebe efdb e03e
00000100: e0db c13b 1ca0 3c3d d1e2 9a3e f042 2abd
00000110: 6a65 e93d 68ca 15bf 91a7 323e d01f 1fbf
00000120: 2e0f 11bd 7742 e83c e17e 04bf 9dbc 9abe
00000130: e395 30bf 9d5d f53e 9f1e d4be 9990 c83d
00000140: 20d0 223c 6bf6 21be 8e38 debe c3ad 50bd
00000150: 7e7a 68be 91e8 27be da72 843e 57ca 8fbe
00000160: 18b2 12bf 5eac 7b3d 6817 9ebe dcb7 043e
00000170: bac6 6abe 826b 18bf e95a 9c3e 9997 6abe
00000180: 498e 56be 0559 2bbe 13b8 ca3e fc48 ebbd
00000190: 18b0 7a3d 160e dabd 5635 dbbd 4127 c9be
000001a0: 57e9 c83e b1c5 1b3d b631 0ebe b756 36bd
000001b0: 6bca 7fbe 4b12 973e add7 3f3d e629 e83d
000001c0: 8a0d 6abe afbd b7be 7a6f 5cbd 2619 cf3e
000001d0: 8cde 303d 0d65 efbd dacf edbd 25e6 9d3e
000001e0: bee7 a5bd f401 903e 3487 633e abb1 a0be
000001f0: 64b4 d13d 66de b03e 6ac2 4d3e 389a 22be
00000200: a65f d73d deb6 a23c 1510 72bd 9b32 0b3f
00000210: 7425 dbbd 9224 4dbd 9db7 083e e5be 39be
00000220: fe06 85bc 5b2e 8abd 8edf 4d3e 4c72 c93c
00000230: ba6d 27be 26b5 883e 1bb8 37be 074c c03d
00000240: 315b 31bd b985 1fbd daaf 073e 06cb 3a3d
00000250: fc21 9ebe 6e96 49bd 5475 47bd 42a0 14be
00000260: 543a 03be 11f8 21be 3f4f 953d 371e c13c
00000270: a092 063e c493 7f3d 445c 94be a2fc 693c
00000280: e918 2cbe 46ff 783e 42cb f63a 2c86 d93d
00000290: bcc9 c8bd e810 85bc c2ea febd 354a c73f
000002a0: 21eb 1f3e 82bb a7bd 4b54 bf3e a0e5 f13d
000002b0: 92a0 0bbe 7a9f 963c 7f3d c83d 578a 97bc
000002c0: 4ea8 37bd ff5c 603e f62c 9d3e 0850 293e
000002d0: 4ae8 a73d 3871 63be 5078 073f 92e5 5dbc
000002e0: 58e6 233d 5bd2 a83e 740d 5fbe a0e4 cf3c
000002f0: fa8b 013e 4f62 86bd bed5 dabb ca79 0b3d
00000300: 30ac 54bd f751 4a3d 358b 113e bd52 4a3e
00000310: 844a 23bc c5d7 8bbd 6a82 443e 9a1a 65be
00000320: 805a 52bc 4007 34bd 62a3 3ebf b0a7 fbbd
00000330: b32d c0bd 1c62 8a3e 0616 43bd 8c0b 8a3e
00000340: f547 8e3e 2eed 66be 4494 1dbf 19dc 88be
00000350: f813 c63c 40f2 743e d083 1bbe f3a5 d5bd
00000360: 04d6 19be 1e11 f4bc 5409 c73e 143d 54be
00000370: b639 31be 03fc a8bc 72ca 3fbe c5c5 ebbc
00000380: fadc ac3c e1ec 7c3b 393e 173d 486e 79bd
00000390: a50a e43d 30e5 afbc a406 b13d c0a5 2bbf
000003a0: b725 b53d f15f 85bd 7974 50be 75f8 62bd
000003b0: ffcf 9a3d 4c1c d33e 2d8f 01be 7ae2 09be
000003c0: 0e41 973d 30d1 fc3e 8591 c1bd 7885 813e
000003d0: 0064 f5bc 2570 4dbe d4c5 a5bd 6260 6a3d
000003e0: d2b0 94bd ce0f aa3a 852c c8be f0f3 2abe
000003f0: 9648 af3e 9d96 6bbe c5c4 443d 039c 24be
