runs/dqn_agent.pt (torch, 158343 bytes, 32 tensors)

net.0.weight f4 [64, 8]
000000 b6 18 4d bf e4 99 bc 3e 11 10 0d 3f 78 d4 61 c0
       -0.8011583 0.3683616 0.5510264 -3.528593
000010 c3 95 96 40 ce 0b 9a bf 64 72 b3 3e ac d9 6f bc
       4.7057815 -1.2034853 0.3504821 -0.014639299
000020 b5 e8 1c be a8 d7 20 be 58 0f e8 bd 76 6f 02 c0
       -0.15323146 -0.15707266 -0.113310516 -2.038053
000030 6b 4c 47 c0 85 8c 3e 40 14 f3 f8 bd b1 a0 84 3a
       -3.1140392 2.9773266 -0.121557385 0.001011869
000040 80 ff 19 bc a6 46 1b 3e e0 e8 48 3d b3 fb 08 be
       -0.009399295 0.15163669 0.049050212 -0.13377266
000050 56 a7 7f 3e f4 7f 03 3e 2d 97 6c be c4 9b a7 be
       0.24966177 0.12841779 -0.23104544 -0.32736027
000060 9f 3d 39 be 16 69 9f be 46 95 23 3e 68 a2 39 c0
       -0.18089913 -0.31134862 0.15974912 -2.9005375
000070 a8 da 0a c0 2d 9f fd 3f 83 60 e7 3d 8a e0 66 3d
       -2.1695957 1.9814202 0.11297705 0.05636648
000080 6b d3 01 3c 2c 6c 2c 3e 68 9e ff bd 59 29 23 c0
       0.007923941 0.1683814 -0.124813855 -2.5493987
000090 01 54 5b 40 d0 7d 3a c0 93 e5 15 3f 59 b3 f9 3c
       3.4270022 -2.913929 0.5855343 0.030481027
0000a0 a7 bd 9b be 15 d1 14 3d 10 72 85 3e 00 f6 9a 3c
       -0.3041813 0.03633221 0.26063585 0.01891613
0000b0 d1 cb 2a 3b 43 b7 4a bf 2c a5 61 3e 32 69 01 be
       0.0026061425 -0.79185885 0.22035664 -0.12637785
0000c0 fc f6 92 bc 06 c4 42 bd 8b 28 36 be 10 af 52 40
       -0.017940037 -0.047550224 -0.17788903 3.291935
0000d0 e1 71 9c bd 32 41 25 40 d0 54 3b bf 4b 8b 1a 3d
       -0.07638908 2.5821042 -0.7317629 0.037730496
0000e0 42 4f 98 be 09 98 23 bd 45 60 81 be 0e 17 02 40
       -0.2974797 -0.039939914 -0.2526876 2.0326571
0000f0 66 3d ea bf 70 25 1d 40 82 0b d6 be 72 90 63 3d
       -1.8299987 2.45541 -0.41805655 0.055557676
000100 1c 61 b0 3e 79 6a fe 3d 53 d7 00 bd e4 49 36 40
       0.3444909 0.12422652 -0.03145535 2.84826
000110 b7 ca b5 3f 1e d5 4f c0 94 29 a1 3e 60 1e 90 bc
       1.4202489 -3.2473826 0.31477034 -0.017592609
000120 23 6f f4 3d 70 6c 73 be 06 6d e3 be 35 67 6c 40
       0.1193526 -0.23771834 -0.44419116 3.6937993
000130 8e a6 58 bf 87 99 99 bf 40 54 86 bf e7 c8 13 3e
       -0.8462914 -1.1999978 -1.0494461 0.14432107
000140 43 ee f7 be aa 54 0d 3c c8 5e 9b be 96 33 54 c0
       -0.48423967 0.0086261425 -0.3034575 -3.3156486
000150 6e 75 63 40 0d 78 81 bf 44 0b c1 be 99 29 f1 3d
       3.5540423 -1.0114762 -0.37703907 0.11775512
000160 d4 c9 8b be a2 d0 8f be 97 97 cd 3e d9 fb 28 3f
       -0.2730242 -0.28088862 0.40154716 0.6600929
000170 02 77 56 bf 08 16 cf 3f 7f 94 57 be ae 37 03 be
       -0.8377534 1.6178598 -0.2105274 -0.12814209
000180 32 ec 7d 3e 7b 3b 0e 3e c7 8a 30 3e a7 eb 8e c0
       0.24797133 0.13889877 0.1724044 -4.466266
000190 e3 e7 4a 3f 44 a1 43 c0 ea b7 9f 3f 9c 93 7b bd
       0.7926008 -3.0567179 1.2478001 -0.06142007
0001a0 a4 fc 31 3e a0 b8 27 3e 68 7f 29 bf 5d 80 2f 40
       0.17381531 0.16379023 -0.6621003 2.7422097
0001b0 dc 7f ed 3f 82 c0 1f c0 f3 b0 16 bf 0d 0b 04 3d
       1.8554645 -2.4961247 -0.58863753 0.0322371
0001c0 cb 9d 1b 3d 93 b7 6d be ac 7f 9e be 21 9c 72 40
       0.03799228 -0.2321456 -0.3095678 3.7907794
0001d0 cf 4b aa 3b f2 6f 15 c0 ea cc 35 bf 4b 5c 89 3d
       0.0051970254 -2.3349576 -0.710158 0.067070566
0001e0 72 a6 27 be 10 7e 85 3c 6c a6 48 bb 43 c1 81 c0
       -0.16372088 0.016295463 -0.0030616773 -4.0548415
0001f0 d2 c2 84 bf 86 22 4c 40 a1 5a 2b be 8d 58 45 3d
       -1.0371954 3.1896071 -0.16733791 0.04818015
000200 e6 4c c9 3d ca 39 1c 3e ec 60 b6 3a 38 f2 4e c0
       0.0982912 0.1525642 0.0013914383 -3.2335339
000210 13 5d 44 c0 6c 52 3e 40 18 44 10 3e ee 6f f0 3c
       -3.0681808 2.9737806 0.14088476 0.029350247
000220 75 17 b4 3e 42 dc 69 3d ea 6a 12 3e b1 7b 63 40
       0.35174146 0.05709482 0.14298597 3.5544245
000230 7c 29 06 c0 5c 3c 4c c0 96 51 8f 3e 39 b3 f6 bc
       -2.096282 -3.191184 0.27991933 -0.030114757
000240 34 e5 91 bd 4c ca ae 3d 0c 76 93 3d 31 5e a6 be
       -0.07123795 0.08534679 0.0720025 -0.32493737
000250 6e 13 27 be f0 02 97 bd 5e 17 65 be e4 6e 79 be
       -0.16316006 -0.07373607 -0.22372195 -0.24358708
000260 bf 9f 38 3e bc 91 5a 3e a3 12 a3 bd 37 18 e7 bf
       0.18029688 0.21344656 -0.07962539 -1.8054265
000270 a6 78 05 40 28 01 4f c0 47 77 7d 3f b5 3c 29 bd
       2.0854888 -3.2344456 0.9901013 -0.04131766
000280 41 e5 01 bf 7a 36 b2 be 8e d5 49 bd 12 c3 46 c0
       -0.5074044 -0.34807187 -0.049275927 -3.1056561
000290 ea 08 11 c0 24 3e cc 3f b3 b0 2e 3d 30 dd b4 3d
       -2.266169 1.5956464 0.042648982 0.08831251
0002a0 8b 81 59 3d 66 54 36 3e 70 e7 10 be 94 1f 09 c0
       0.053102057 0.17805633 -0.14150786 -2.1425524
0002b0 19 ca 03 40 c2 de 48 c0 76 ad 14 3f 76 f6 f2 3c
       2.05921 -3.138596 0.5807718 0.029658537
0002c0 ae 0f 3c 3e 09 79 98 bd 11 c2 a0 3e ef 45 73 3f
       0.18365356 -0.074449606 0.3139806 0.95028585
0002d0 a7 b5 78 be 82 c3 76 3e d4 00 94 be 7b 10 50 be
       -0.24288045 0.24098018 -0.28906882 -0.20318787
0002e0 bd 7b f0 3e d3 9e b7 bd 74 46 b0 bc 63 57 54 c0
       0.46969405 -0.0896584 -0.02151797 -3.3178337
0002f0 75 ab 9b 3f ef 30 4c 3f 4a 0d f4 3e 42 76 ee bc
       1.21617 0.79762167 0.4766639 -0.029109124
000300 4b 3e 6e 3d 68 32 62 3d ea eb b0 be 3d 68 3c 40
       0.058164876 0.055223852 -0.34554988 2.9438622
000310 09 44 64 40 c6 15 62 c0 78 bb dc be 1f d8 0c 3d
       3.5666525 -3.532579 -0.43111777 0.034385797
000320 e6 a5 1c 3e 39 78 a2 3d b2 69 a7 be ee da 42 40
       0.1529766 0.07933087 -0.32697827 3.0446124
000330 32 de 2f 40 6c f8 0d c0 98 13 2b bf 75 fa 39 3d
       2.7479367 -2.2182875 -0.6682677 0.04540487
000340 fd 17 9b bd 97 2b a1 3e 19 2f 88 3e 1a e1 66 c0
       -0.07572935 0.3147857 0.26598433 -3.607489
000350 e9 b1 ab 3f d0 a6 13 bf de 04 81 3f b8 69 7b 3b
       1.3413669 -0.5767641 1.007961 0.0038362574
000360 fe 68 2b 3e 55 56 03 bd 37 4c b2 be d4 12 8d c0
       0.1673927 -0.032064755 -0.34823772 -4.4085484
000370 27 ab 2f 40 29 f3 78 bf f8 03 7d 3f 82 0f 1a 3d
       2.7448213 -0.9724603 0.9883418 0.037612446
000380 a0 b8 5d 3d 55 95 e5 3d d6 31 ae 3e f8 6f 42 c0
       0.05413115 0.112101234 0.34022397 -3.038084
000390 00 4b 96 3f a5 99 14 3f 2b 8e d6 ba 6a 80 ca bd
       1.1741638 0.5804694 -0.0016369274 -0.09887774
0003a0 61 9b b9 be e8 77 b0 3e b8 7e 5c be 10 47 cb bf
       -0.36251357 0.3446648 -0.21532714 -1.5881062
0003b0 8a 5e 84 3f 23 05 33 40 f7 af cb be d9 61 f4 bd
       1.0341351 2.7971885 -0.39782688 -0.119327255
0003c0 d4 82 ea 3d 45 09 4e 3d 21 f1 01 3b 25 4d 62 40
       0.11450735 0.05030181 0.0019827562 3.5359585
0003d0 02 2b 9b c0 0c c8 55 40 c3 fc a2 be 2c 90 1b bc
       -4.849 3.340335 -0.31833467 -0.0094948225
0003e0 60 5f 18 3d 80 dd 88 bc d8 00 82 bd 99 2d a8 3e
       0.03720033 -0.016707182 -0.06347817 0.32847288
0003f0 08 4b c0 bd 5e 62 dd bd 4a 5d 30 3e 3e 6b a5 be
       -0.09389311 -0.10809778 0.17223087 -0.32308382

net.0.bias f4 [64]
000000 b1 0c 02 3f 93 5a 15 3f e8 88 56 bd be e7 17 3f
       0.50800616 0.5834133 -0.052376658 0.59337986
000010 1d 54 90 be d1 e9 40 3f 20 6c 18 3f 2f c9 14 3f
       -0.28189173 0.75356776 0.59539986 0.5811948
000020 02 56 32 bf 4b 85 4b 3f e5 31 9a be 77 48 3a 3f
       -0.6966249 0.79500264 -0.30116192 0.7276682
000030 43 08 a3 bf 82 2c 02 3f a0 7c 62 3f eb c4 66 3e
       -1.2736896 0.50849164 0.8847141 0.22536056
000040 0c 68 e2 be b3 ba 05 bf ae ac d9 bd 6c 2c 60 bf
       -0.44220006 -0.52238005 -0.10628639 -0.8756778
000050 1b 8f be be 06 4f a0 bf ac 6e 57 be bf 2e 8b 3e
       -0.37218556 -1.2524116 -0.21038312 0.27184102
000060 90 11 97 bd 73 b0 1a 3f ba 18 a5 bf 95 87 f2 3c
       -0.07376397 0.6042549 -1.2898171 0.029605666
000070 0b d6 a8 3e bc b2 34 3f 98 2e 48 3e 28 f8 84 bd
       0.32975802 0.70585227 0.19549024 -0.064926445
000080 00 7c aa be 24 9f 6b 3f cb f3 06 3f d0 84 c9 3e
       -0.3329773 0.92039704 0.5271575 0.3935914
000090 05 5c 0c be 86 8e 69 3f aa 57 e6 bd bd 37 95 3f
       -0.13706978 0.912331 -0.11247189 1.1657635
0000a0 b7 fe f1 bd 87 a6 df 3e 26 2a c0 be 79 6f 76 be
       -0.11816161 0.43681738 -0.37532157 -0.24065961
0000b0 76 44 17 3f c2 19 49 bd 51 86 b1 3e 6f 98 ab 3f
       0.5908884 -0.04909683 0.34672788 1.3405894
0000c0 22 6d 9a bd 5c 9c 0e 3d 13 34 83 3e d9 be 25 be
       -0.07540347 0.034817085 0.25625667 -0.16186084
0000d0 d4 2e 1c bc b0 c0 54 bd f3 5f 2e bf 61 fc f3 be
       -0.009532649 -0.051941574 -0.68115157 -0.47653487
0000e0 d6 15 72 3f 9a ed 98 3e 44 66 cb be 0f da da 3d
       0.9456457 0.29868776 -0.3972646 0.106861226
0000f0 9a 42 fc be 07 5a ae 3f ac 06 2c 3d b4 41 c5 3e
       -0.49269563 1.3621224 0.04199855 0.3852669

net.2.weight f4 [64, 64]
000000 86 eb b8 3d 3c 06 8c be c2 ca b7 bd 08 a0 26 ba
       0.090292975 -0.27348506 -0.0897422 -0.0006356244
000010 80 43 b7 bd 4f 52 48 3d a0 5f 95 3d 94 67 9c 3d
       -0.089484215 0.04890662 0.0729363 0.076369435
000020 97 76 77 3c 35 63 4b 3d df 0e 12 3e 82 68 0c be
       0.015103958 0.049655158 0.14263485 -0.13711742
000030 a4 f1 53 be bc 35 40 3d 7b 55 28 be 26 a2 e9 3d
       -0.20697647 0.046926245 -0.16438858 0.114078805
000040 c1 e8 9e 3d 1d a5 96 be 10 c3 b5 bc 8a d5 20 bd
       0.07759238 -0.29422846 -0.02218774 -0.039266147
000050 2d de df bd f7 b0 c6 3c 6f 4a 52 bd f6 72 6f be
       -0.109310485 0.024254305 -0.051340517 -0.23383698
000060 3c ec 7b 3d 85 bf 8f 3d 3e f5 3a bd 07 27 79 3d
       0.061504588 0.07018951 -0.045644037 0.060828235
000070 61 33 c0 bd 37 a2 97 3e 6c 1b bf bd c0 1f 4d 3d
       -0.093848 0.29615948 -0.09331402 0.050079107
000080 6c d9 89 bd 36 5f 95 bd bf 3b 34 bf fb 4a 9c bd
       -0.06730923 -0.07293551 -0.70403665 -0.07631489
000090 ac a7 a1 3d 28 c5 96 3d 04 dd de 3d 2a 01 e5 3c
       0.07893309 0.07361823 0.10881999 0.027954657
0000a0 3b 05 d3 bd 8b 96 b5 be 3e 73 30 bf 1e f1 d4 bd
       -0.10303732 -0.35466418 -0.68925846 -0.10397552
0000b0 7b 2a 8b be 31 ee 8a 3d 3e fd c1 ba 95 a1 76 be
       -0.27180848 0.06783713 -0.0014800203 -0.24085076
0000c0 14 5f 25 be fb de 11 be db fe 54 be 13 18 c9 bd
       -0.1614955 -0.14245217 -0.20800345 -0.09819045
0000d0 eb 21 ec 3d 60 09 b4 bb 69 f2 2b bd d7 98 05 bf
       0.11529907 -0.0054942816 -0.041979227 -0.5218634
0000e0 72 58 b4 bc 07 79 d4 be eb 2c ae be 60 f5 3c 3e
       -0.02201483 -0.41498587 -0.34018645 0.18452978
0000f0 b0 d4 cd bd b4 89 92 3e a3 d7 ca be c9 e9 1b be
       -0.100503325 0.28620684 -0.39617643 -0.152259
000100 eb 3e 8e 3e 0b dd bd be 80 7e 7e 3b 40 73 10 be
       0.27782378 -0.37082705 0.0038832724 -0.14106464
000110 37 a5 80 bd 16 b8 65 3e c7 4d 65 3b 7f bf 58 3e
       -0.06281512 0.22433504 0.0034988986 0.211668
000120 93 a9 96 be 61 b2 ff bd 8d 26 0e 3e 5e 2f 5e bb
       -0.2942625 -0.12485195 0.13881893 -0.0033902745
000130 71 e5 ed be 36 e8 41 3e fb 6f 5e 3e 48 57 9e bd
       -0.46464112 0.18936238 0.21722405 -0.07731491
000140 a8 4e 95 be 15 e8 1c bf cc 17 8e bd 78 ad cf bc
       -0.29161572 -0.6129163 -0.06938133 -0.025351271
000150 3b 15 8a bd 4c 98 33 be 9a 46 fb 3d 47 71 ab 3d
       -0.06742331 -0.17538565 0.122693256 0.08371215
000160 d1 cc 62 3d 39 29 b4 3d 59 2a 65 be 88 88 34 3d
       0.05537111 0.08796925 -0.22379436 0.04407552
000170 58 6b af 3d 52 77 ba 3e 2e 2a 4a bf f6 61 d6 3d
       0.08565396 0.3641916 -0.7897061 0.10467903
000180 38 28 41 3d 47 33 af be 3e 9b 9d be e0 ef a6 bd
       0.047157496 -0.3421881 -0.30782503 -0.08151221
000190 a9 bf 6c be dc 35 c7 3c 94 5b 18 bd 58 ad 6e be
       -0.23119988 0.024317674 -0.03719671 -0.23308313
0001a0 56 d3 16 bf 56 20 28 bf 97 af 97 be 3e df 86 bc
       -0.58916223 -0.6567434 -0.29626152 -0.016463872
0001b0 89 e3 69 bd d8 6c ff bd a7 ef 30 bf ed 01 bd bd
       -0.05710176 -0.12471932 -0.6911568 -0.09228883
0001c0 7d 70 35 be 9b b0 9d bc 7b ca 36 be b7 c1 e9 bc
       -0.17718692 -0.019249251 -0.17850678 -0.028534753
0001d0 6d 51 0b 3c 08 1c 70 3d 64 c0 c6 be 26 76 b9 be
       0.0085033 0.058620483 -0.38818657 -0.36222953
0001e0 aa 23 4b 3d 27 aa d4 be 0e 6a 89 be 71 7b 61 3e
       0.04959456 -0.41536066 -0.26838726 0.22019745
0001f0 1a 63 45 bd 41 3d c9 3c 4a 85 55 be 71 ac 37 3e
       -0.048190214 0.024565341 -0.20851627 0.17936875
000200 f8 fd 56 bd b5 d5 12 3e 76 cd b2 3d fd 90 13 bc
       -0.052488297 0.14339335 0.08730595 -0.009006736
000210 bf 41 c3 be f3 45 92 be ba d5 bb bd 68 45 4f 3e
       -0.38136098 -0.28568992 -0.091716245 0.2024132
000220 c1 39 97 bd 09 4b 1d 3d ed 34 08 bd 00 87 1d 3e
       -0.073840626 0.038401637 -0.0332536 0.1538353
000230 bf ac 87 be 1b f2 84 be 23 13 48 3e c6 62 0c bc
       -0.26498982 -0.25965962 0.1953855 -0.008568471
000240 bc 60 43 be 0f 62 11 be 82 69 db bd ed 05 4b be
       -0.1907987 -0.14197563 -0.107134834 -0.1982648
000250 f1 ba e5 bd 01 cf 5e be 2f f9 d9 bd c4 a8 34 be
       -0.11217297 -0.21758653 -0.10643231 -0.17642504
000260 a1 8d 8b bd 3d 60 ec bd 69 64 b8 be df 97 14 be
       -0.06814123 -0.115417935 -0.36014107 -0.14511059
000270 04 4e f3 3c 7c bc af bd 90 98 4e 3d 42 28 f9 bd
       0.029700287 -0.085808724 0.050438464 -0.12165882
000280 e6 99 88 3d 9a 7b 1e 3e 4d a7 40 3d a3 da a3 bd
       0.06669979 0.15476838 0.04703455 -0.08000686
000290 ac 7c d4 bd b2 87 2c be 70 a9 00 bc 6a 8b 28 3c
       -0.10375342 -0.16848639 -0.007852897 0.010287145
0002a0 a3 eb 2f 3d a0 27 01 3e ef ea b7 3a 43 16 96 3a
       0.04294933 0.12612772 0.0014031808 0.0011450726
0002b0 d2 d6 b5 bd 63 b5 92 bd 72 92 8b 3e 3d 37 da be
       -0.08878864 -0.07163503 0.27260166 -0.42620268
0002c0 a0 c4 37 be 5a e2 8f bd 48 e3 a2 3b 2d 72 8a bd
       -0.179461 -0.07025595 0.0049709417 -0.067600586
0002d0 5a 22 b7 bd 2c 42 dc bd 0b ba 0e be 6a 7b 09 3d
       -0.08942099 -0.10754809 -0.13938157 0.033564962
0002e0 3e aa 2b be fb b4 c7 bd b6 93 29 3e 33 43 68 be
       -0.16764161 -0.09751316 0.16560254 -0.22681884
0002f0 98 a8 88 bd ce a8 5e bc 13 35 08 be 35 d1 2a be
       -0.06672782 -0.013590051 -0.13301496 -0.16681369
000300 40 47 1f bd ca b3 e1 bd c6 f3 f9 bd b2 68 f1 bd
       -0.03888631 -0.1102062 -0.12204699 -0.11787547
000310 28 6c 03 bd 30 40 89 3d dc 96 b1 bc a0 92 a3 3c
       -0.032085568 0.06701696 -0.02167838 0.019967377
000320 64 99 63 3c 04 08 08 3d 14 b9 39 3d c0 bf c0 ba
       0.013891552 0.03321077 0.04534252 -0.0014705583
000330 9d 68 11 be a4 2c 87 bd f0 75 fe 3c 34 0f bd 3d
       -0.14200063 -0.066003114 0.031062096 0.092314154
000340 71 62 20 3d b5 98 36 3d 28 36 ee 3d fc 95 1d be
       0.03915638 0.044579227 0.11631423 -0.15389246
000350 44 28 cf bd 2b 2c 97 bd 66 3a a1 3d 78 ae ba bc
       -0.10115102 -0.07381471 0.07872467 -0.022788271
000360 7c e4 96 3d f8 69 84 3c dd 05 22 3d de cc cf 3d
       0.07367799 0.016163811 0.039556373 0.10146497
000370 b9 d9 ea bd 8c 92 03 bd b8 56 e6 bd 50 a0 39 bd
       -0.114673086 -0.03212218 -0.11247009 -0.0453189
000380 40 79 37 3c d8 b8 08 be 98 c0 70 3d 04 08 dd 3d
       0.011198342 -0.13351762 0.05877742 0.107925445
000390 d2 75 14 be 95 36 f7 bd 72 b6 a4 3d 13 85 ae bc
       -0.1449807 -0.120709576 0.08042611 -0.02130369
0003a0 cc e8 37 bd 94 8c b0 3c ba 61 bd bd 14 d4 5f bd
       -0.044899747 0.021551408 -0.092471555 -0.054645613
0003b0 ac 7b ce bc c9 c3 a1 bc 49 a7 a6 bd e2 37 a9 bd
       -0.025205456 -0.019746678 -0.08137376 -0.08262612
0003c0 e8 2a 1c bd e6 b6 d0 bd d1 bf 18 be 8b d2 b5 ba
       -0.038126856 -0.10191135 -0.14916922 -0.0013871951
0003d0 bd 3d a9 bc b0 ce f9 bd c8 52 09 be 02 17 31 3d
       -0.020659322 -0.12197626 -0.13410485 0.043234833
0003e0 63 f7 14 bd 86 16 b5 bd 18 6c 08 bd b0 96 b7 3c
       -0.03636874 -0.08842187 -0.03330621 0.02241072
0003f0 c4 b2 d7 bd 7c 56 a9 bd a0 56 84 bd ba 85 ba bd
       -0.10532144 -0.08268449 -0.06461835 -0.091075376

net.2.bias f4 [64]
000000 1c 7b 76 3f a5 d5 21 3f 58 2e 4d 3e af 53 10 3d
       0.962816 0.6321662 0.2003721 0.035236057
000010 bf 69 e9 3e da 08 66 3f a8 67 8e bc 6d 57 be bd
       0.4558849 0.89857256 -0.017383412 -0.09294019
000020 bd 73 20 bf 7b 69 4a 3f fe 28 a1 3e 4b d2 e3 bd
       -0.626766 0.790672 0.31476587 -0.111240946
000030 1b e9 86 3f 30 2c d3 3d 48 b2 42 3e a6 a7 08 3f
       1.0539888 0.103111625 0.19013321 0.5338081
000040 62 a4 f8 3e 5c 90 8a 3e 35 34 1d 3f 9b 19 2b 3d
       0.48562914 0.27063262 0.61407787 0.041772466
000050 e7 ba 41 3d 31 48 49 3f 83 42 ca 3d e6 1f c4 bd
       0.047297385 0.7862578 0.09875967 -0.09576397
000060 ca df 64 3f 50 8e 8b 3e 35 5c 2d 3e 28 b9 55 3f
       0.89403975 0.27257013 0.16929705 0.8348565
000070 36 a7 36 be 4f 0b 03 be 72 b4 46 3f 16 01 77 3f
       -0.17837223 -0.12797283 0.7761909 0.9648603
000080 92 6c 16 be 66 56 5c 3e a4 bb f3 3e 53 e8 0c 3f
       -0.14689854 0.21517333 0.47604096 0.55042
000090 28 f1 40 3e 63 f9 0d 3f 8b c5 91 3e c5 90 2a 3f
       0.18841994 0.5545866 0.28471026 0.6662715
0000a0 3e 0e 7f 3e 5e 29 d6 3d 0b f7 2a 3e a7 21 73 3f
       0.24907777 0.10457109 0.16695802 0.94973224
0000b0 5e 67 4e 3f 46 fe 3d 3e 6e 73 72 3e 4e e3 db bd
       0.80626476 0.18554029 0.23676845 -0.10736714
0000c0 8a 02 56 3f 5e 00 cb 3e b2 ac 58 3e f2 68 2a be
       0.83597624 0.39648718 0.21159628 -0.16641596
0000d0 6f 41 22 3f bf 00 8c bd 70 c6 21 3d a6 8e 59 3f
       0.63381094 -0.0683608 0.039495885 0.8498329
0000e0 36 3f c6 bc 33 a4 42 3f 95 4e c7 3e 84 73 0f be
       -0.024200063 0.760318 0.3892714 -0.1400891
0000f0 cf ac 8e bd 28 18 38 bd e9 de b7 3f 3e e9 30 3c
       -0.069665544 -0.044944912 1.4364902 0.010797797

net.4.weight f4 [64, 64]
000000 5c 2f c7 bd 81 fc 99 bd f8 94 19 be 98 da c8 bc
       -0.0972583 -0.075188644 -0.14998233 -0.024518296
000010 a5 91 b1 bd 49 c5 62 bc 5a c8 c6 3d 60 f4 c4 3b
       -0.086703576 -0.013840982 0.09706183 0.006010577
000020 e5 fd 84 bd 0e 53 0f be a9 de cc bd 7e 06 f9 3d
       -0.06493739 -0.13996527 -0.100034066 0.121594414
000030 13 c5 3e bd 00 f6 d0 bd 81 02 14 be 47 de 8f bd
       -0.046574663 -0.10203171 -0.1445408 -0.07024818
000040 55 f2 b3 bd 40 58 a1 bd 31 7f 14 ba 00 c0 f0 3c
       -0.087864555 -0.078781605 -0.0005664705 0.029388428
000050 98 31 11 be a8 9a b5 bd 73 b6 ad 3d c4 1e 81 3d
       -0.14179075 -0.08867389 0.08482065 0.06304696
000060 5a a7 31 be fe b8 ff bd 28 39 a3 bd fe 5d 50 3d
       -0.17348996 -0.12486456 -0.07969886 0.050870888
000070 22 e5 86 3d 24 5d 76 3d f3 74 af bd e3 37 94 3d
       0.06586672 0.06014742 -0.08567228 0.07237222
000080 20 de f8 3b 65 79 ea bc 39 12 fc bd 6f e5 1c be
       0.0075948387 -0.028622339 -0.12308163 -0.15321897
000090 3a f6 87 3d 02 aa f0 bc 0f 43 a5 3d 64 fd e2 3c
       0.06638761 -0.029377941 0.08069431 0.027708717
0000a0 25 87 73 bd ea 00 8e bd 96 a6 a9 bd ca e1 42 be
       -0.059455056 -0.06933768 -0.08283727 -0.19031444
0000b0 59 4e 1a 3d e9 fe fb bd 71 14 5d 3b 08 5a 4c bd
       0.037672374 -0.1230448 0.0033734108 -0.049890548
0000c0 ee 4d 87 bd 83 a0 7f bc 1c d3 d7 bd 60 1a 0f bc
       -0.06606661 -0.015602234 -0.10538313 -0.008734316
0000d0 00 b9 a6 bd cc cf e7 bd 79 ce 24 bd 9a 05 af bd
       -0.08140755 -0.11318931 -0.04023597 -0.0854599
0000e0 78 8e 8c bc 2f f1 0c be dd 10 18 bd d0 3c b2 3c
       -0.017157778 -0.13763879 -0.037125457 0.021757513
0000f0 be 36 d6 3d c2 b7 c0 3d 9f d4 d2 3d 01 ca 64 bd
       0.1045966 0.09410049 0.102944605 -0.05585671
000100 ad 3d ce bd a3 f3 3b bd cb ca 86 3d a2 66 c2 bd
       -0.100703575 -0.045886647 0.065816484 -0.09492232
000110 d7 a9 b0 3d 36 e1 70 3d 95 ea 75 bc 4a 65 f2 bd
       0.086261444 0.058808528 -0.015009542 -0.118357256
000120 ed 8e d1 3d 9a 35 22 bd 9a eb bf bb 6b b9 a1 3d
       0.10232339 -0.0396019 -0.0058569433 0.07896694
000130 6b 89 5b 3d ac e5 11 be 86 c5 04 3e 8d 71 a8 bc
       0.05359785 -0.14247769 0.12965974 -0.020561958
000140 90 a8 97 3e 29 a0 f4 3e 48 10 3e be 4a 59 87 3d
       0.2962079 0.47778443 -0.18560898 0.066088274
000150 49 74 f0 3d e8 89 49 3d 2d bc 4e be a6 63 ea bd
       0.1174093 0.049203783 -0.20188971 -0.11444788
000160 56 e2 5e 3e 87 62 0d 3b 50 2d c2 3d 31 80 67 3e
       0.21766028 0.002157362 0.09481299 0.22607495
000170 8b 7d 8e 3d 72 04 69 3d 61 74 86 3e 37 b2 24 bd
       0.06957539 0.056889005 0.26260665 -0.04020902
000180 3b e7 47 bb e6 0e 99 3c e8 15 96 3d a0 bc c2 3d
       -0.0030502814 0.018683862 0.07328397 0.095086336
000190 5e 31 02 3d 49 90 b6 3d aa 83 38 be 68 82 d1 be
       0.03178536 0.08914239 -0.18018976 -0.40919805
0001a0 3f 58 0e 3e 94 23 40 3d be 60 95 3e 03 c3 91 3d
       0.1390085 0.04690893 0.2917537 0.07117274
0001b0 e8 d0 2d be bd 4e 89 b9 89 00 18 be 25 9b f1 3d
       -0.16974223 -0.0002618934 -0.14843954 0.117971696
0001c0 25 5e 0b bf 53 50 c3 3d a8 08 1f be 8e d8 fe 3d
       -0.5444053 0.09536805 -0.15530646 0.12443648
0001d0 0a c8 53 3e 0e 28 1f 3d 30 4a ba bd 99 fe b1 bd
       0.20681778 0.03885656 -0.090961814 -0.08691139
0001e0 3e 8c f0 3d 33 52 cb 3d 37 89 c4 3e da cf 82 3d
       0.11745499 0.09927788 0.38385937 0.06387301
0001f0 f3 50 b4 bd 05 fa f9 3d f0 a8 ec bd cd ab 3e 3e
       -0.08804502 0.122058906 -0.1155566 0.18620224
000200 2a bf 02 bd c4 50 19 3e 7b e4 ce 3d 23 3f fa bc
       -0.03192059 0.14972216 0.10102173 -0.030547684
000210 6a 09 15 3c 5c 11 22 3d be 69 ad bd 90 26 3d 3c
       0.009096483 0.039567336 -0.08467434 0.011544839
000220 16 6f e8 bd 9c 2c 4f be 13 da dc bd 00 c7 2d 3b
       -0.11349313 -0.20231861 -0.10783782 0.0026516318
000230 40 0f 65 3e 4b d8 41 be e8 71 59 3d 64 07 46 be
       0.22369099 -0.18930165 0.053087145 -0.19338757
000240 14 7b 49 3e a8 53 ee 3c a1 fd 1f bd ea 49 e2 bc
       0.19675857 0.029092625 -0.03906024 -0.027623136
000250 24 f6 0b be 54 b7 a5 be c6 3b fb 3b 3c ba 82 bd
       -0.13668114 -0.3236643 0.0076670377 -0.06383178
000260 0c 7b 37 3e 51 bc 28 3e 53 ac c8 bb 7f 54 33 3e
       0.17918032 0.16478087 -0.0061240583 0.17512701
000270 48 82 c8 3d 68 f3 de 3c 0a 50 e3 38 e5 99 af 3e
       0.09790474 0.027215675 0.00010839112 0.342971
000280 63 cf 59 bd a6 ca 2b be 95 2c 47 3e 16 b3 29 3b
       -0.053176295 -0.16776523 0.194506 0.0025894097
000290 8b 49 f9 be b8 d2 89 3d 38 d8 34 3e 3b 98 86 bd
       -0.4868892 0.067296445 0.17660606 -0.065720044
0002a0 b1 47 b2 be d2 89 a0 3d 4a 77 fe 3d d8 74 dd 3d
       -0.3482032 0.07838787 0.12425096 0.10813302
0002b0 96 68 c6 3c a1 81 db 3c d1 b6 14 be 1c 49 ac bd
       0.024219792 0.02679521 -0.14522864 -0.08412382
0002c0 29 15 22 3e 80 33 6d 3b 40 95 9c be 7a 78 fd 3d
       0.15828384 0.0036194026 -0.3058262 0.12376495
0002d0 de 24 e3 3c aa a6 e9 3d b5 a3 35 be 87 d1 78 be
       0.02772754 0.11408742 -0.1773823 -0.24298678
0002e0 46 34 83 bd b5 ee 8f be 67 a5 e4 3d 57 db d3 bd
       -0.06406455 -0.28111807 0.111643605 -0.1034457
0002f0 98 df 89 bd b0 30 f5 3c 0b 5c bc bd b3 9b 4c 3d
       -0.067321 0.029930443 -0.09197243 0.049953174
000300 8a b5 1b be a1 37 ac 3b 73 d7 1a 3e 9e 7b 9a 3d
       -0.1520597 0.005255655 0.1512125 0.07543109
000310 e7 71 1e bc df 8d 89 bc f2 78 b1 bd 06 40 ce bd
       -0.009670711 -0.016791282 -0.086656466 -0.10070805
000320 0a d0 a9 bd c6 ed 02 3e 96 0b b3 3d 74 8b 3f bd
       -0.082916334 0.12786016 0.08742444 -0.046763852
000330 0c 1a 10 be 5b e1 de 3d 39 ed 6d 3d 27 be 4c 3e
       -0.14072436 0.10882827 0.05808756 0.19994412
000340 63 6d 4e 3e 09 f2 d8 3e a5 3a c0 3d 4e 64 90 3b
       0.20158915 0.42372158 0.093861856 0.0044064885
000350 29 38 ac 3d 6c dd 02 3d 46 1e bb bc 00 8f 86 3a
       0.08409149 0.031949446 -0.022841584 0.0010266006
000360 f4 4e cd bd 9c ef 9c bc 4c 4e 41 3d a1 d7 0a 3e
       -0.10024825 -0.019157223 0.04719381 0.13558818
000370 9a 23 fd bc 6f 82 dd 3d 1c 12 55 3e 2c ac 05 be
       -0.030900765 0.10815894 0.2080769 -0.1305396
000380 48 ab a2 bc 08 ce 4a bc 30 93 37 3e 2a 2f 00 3e
       -0.019857064 -0.012378223 0.17927241 0.12517992
000390 13 b4 1a 3e dc 63 90 bc 59 0a 43 bc c2 ab 35 3e
       0.15107755 -0.017625742 -0.011904323 0.17741302
0003a0 46 3c 1b 3e 80 7d 74 3d 1c 02 a5 3c c0 f0 82 bd
       0.15159711 0.05969 0.020142607 -0.06393576
0003b0 b3 13 fe 3d 8b 1f 77 3d 9d 19 34 3e fc fb 9d 3d
       0.12406101 0.060332816 0.17587896 0.07714078
0003c0 5c b0 97 bd f0 74 db bc 52 3c aa 3d 2d 7c 51 3d
       -0.07406685 -0.026789159 0.083122864 0.051143814
0003d0 fd 39 ab bc 28 a3 18 3e 0d e0 35 bd d5 f2 00 be
       -0.020901674 0.14905989 -0.044403125 -0.12592633
0003e0 3c 18 8e 3d 38 d4 13 bd 83 f1 ca 3d 46 a2 c3 bc
       0.06938216 -0.03609106 0.09909346 -0.023881089
0003f0 c6 06 7b bc 21 cf ae 3d ae bd 44 be 70 a9 2d be
       -0.015321439 0.085356005 -0.19212982 -0.16959167

net.4.bias f4 [64]
000000 96 72 9f bb bc 85 0e 3f 5d ff 2d bf 1e 23 5a 3f
       -0.0048659546 0.5567281 -0.6796778 0.85209835
000010 ff ba e8 3e 71 95 8a bc ae 7d 08 3c e1 e2 b4 be
       0.45455167 -0.016916962 0.008330746 -0.35329345
000020 89 da d6 3e 29 e2 84 3e 14 ed eb 3e 9e d7 e2 3e
       0.41963604 0.25953797 0.46079314 0.44305128
000030 1b 56 3d 3f 99 eb 26 be 66 09 30 3b a9 00 4b 3f
       0.7395951 -0.16300811 0.002686107 0.7929788
000040 1e 5b 21 be f1 1e e0 3e fc c9 36 3e 0f 95 86 3f
       -0.15757415 0.43773606 0.17850488 1.0514239
000050 b1 aa 29 3f 14 fc d1 3e 37 8d 54 3f 0b a4 46 3f
       0.6627608 0.41012633 0.83027977 0.7759406
000060 bf ad c7 3e 62 d8 84 be 5a 95 98 3e 19 d2 55 be
       0.38999745 -0.25946337 0.29801446 -0.20880927
000070 29 c9 14 3f 6c b8 95 be f0 20 23 3d c6 e4 8d 3e
       0.58119446 -0.29242265 0.039826334 0.27713603
000080 4c 65 a0 bd 9a 37 aa be dd 2d 58 3f 70 6c 80 be
       -0.07831821 -0.33245546 0.8444498 -0.2508273
000090 18 f3 db 3e 84 29 4a 3f fe ae 5a be 4a 29 25 3f
       0.42958903 0.789696 -0.21355817 0.6451613
0000a0 4c a9 42 3f b1 a9 80 bd 32 22 53 3e 03 7d b6 3e
       0.76039577 -0.06282366 0.20618513 0.3564225
0000b0 46 11 ea 3e a1 03 58 3d e7 9c f4 be e8 0b f5 3e
       0.45716304 0.052737836 -0.47775957 0.47860646
0000c0 bb 20 57 3e 14 f4 0f bc b5 5e 1d 3d 78 78 47 3d
       0.2100858 -0.00878622 0.038420398 0.048698872
0000d0 2e e6 ae 3e 50 19 c9 3d b6 ce e5 bb 8c 4c db 3c
       0.34159988 0.09819281 -0.0070131673 0.026769899
0000e0 56 57 a9 3e c3 01 03 3f ff 71 24 3e 3a a1 0d bd
       0.33074445 0.51174563 0.16059111 -0.034577586
0000f0 25 53 62 3e a6 b1 9d 3e 8f 32 36 be 24 f1 0f 3d
       0.2210203 0.30799598 -0.17792724 0.03514208

net.6.weight f4 [3, 64]
000000 69 c2 1f 3d 0b 2a 3a bb 10 05 ab 3d e6 d7 88 bd
       0.039003763 -0.0028406407 0.08350575 -0.06681804
000010 d6 35 77 be 25 e9 a4 bb 8d 63 bf bd 49 47 d1 be
       -0.2414163 -0.005032676 -0.0934516 -0.408747
000020 f3 e8 a3 be a8 96 36 be 0a a1 cb be b8 62 14 bf
       -0.32013664 -0.17830908 -0.397713 -0.5796313
000030 ee ec b8 bd 26 ff 36 3e a2 89 49 3e 52 83 15 bd
       -0.09029566 0.17870769 0.19681409 -0.03650219
000040 5a fa 17 be 14 68 05 be 42 2c 85 bc 21 28 ad 3a
       -0.14841595 -0.13027984 -0.016256455 0.0013210812
000050 d7 4f 83 bd 11 ed 36 3e 83 bb da bd d2 c5 ed be
       -0.064117126 0.17863871 -0.10680296 -0.46439987
000060 5c da 81 bb cd cb a9 3e 0b 90 17 bd c1 29 07 3d
       -0.003962798 0.331633 -0.037002604 0.032998804
000070 00 77 df bb 54 a9 20 3e ec c3 39 bd 1b b1 98 bd
       -0.006819606 0.15689594 -0.04535286 -0.07455655
000080 27 bf 80 3d 86 34 65 bd 61 37 85 3a b8 22 b8 be
       0.062864594 -0.055958293 0.0010163599 -0.35963988
000090 5a ba 4b be 3c e9 13 bd 9c d0 35 be 06 a0 3e bd
       -0.19895306 -0.0361111 -0.1775536 -0.04653933
0000a0 37 ae dd bd c0 b3 cd 3b 60 eb 0a 3f 28 38 8e be
       -0.108242445 0.0062775314 0.54265404 -0.2777722
0000b0 ca 20 10 3c 79 0d bb be a8 6c 94 3d af a2 84 3c
       0.00879688 -0.36533716 0.07247287 0.016190855
0000c0 27 64 e5 be 3d 15 d5 3c eb 57 b3 bd 2b b5 96 3d
       -0.44802973 0.026011104 -0.087570034 0.07358774
0000d0 50 35 3f 3c 6a 32 19 be 69 bd 39 bd ba f4 d2 3d
       0.0116704255 -0.14960638 -0.04534665 0.10300584
0000e0 a7 00 a4 3d d4 e2 3d be fb bc d8 bc 08 02 e8 3d
       0.08007937 -0.1854356 -0.0264573 0.113285124
0000f0 f4 0c a0 bb d9 69 35 bd 82 07 1a be 91 0d c5 bd
       -0.0048843566 -0.044290397 -0.15041927 -0.09621728
000100 1d 90 0b bd b6 77 a0 39 ef 03 25 3d d8 3a 13 3b
       -0.034072984 0.0003060677 0.040286954 0.0022465494
000110 f9 a9 64 be 58 35 ab 3d d6 6e 52 3d 4e 38 4e 3b
       -0.22330464 0.08359784 0.051375233 0.0031466666
000120 b5 c4 6e bb 19 63 ec bd 1e 08 57 bc e9 a7 3a ba
       -0.0036433164 -0.11542339 -0.013124494 -0.00071203575
000130 d3 c8 7a bc cd 08 24 be 5c 68 a1 3e d9 6c be bd
       -0.015306669 -0.16018982 0.31524932 -0.09298105
000140 c6 f8 b2 3a e9 de 7d bd 6e 1f d4 be 85 d2 d4 bd
       0.0013654463 -0.06198016 -0.4143023 -0.10391716
000150 31 2d 29 bd 7b 4c 8c 3d de c7 71 be 82 71 ac be
       -0.041302864 0.06850525 -0.236114 -0.3368035
000160 79 cd 33 3e e5 f7 8c 3e e8 8b 8d be 5c 7c 01 bd
       0.1755885 0.2753288 -0.27645802 -0.03161274
000170 ee ee 0c be a8 53 a1 3d 6d 68 55 3d a8 cd 42 be
       -0.1376302 0.07877284 0.05210154 -0.19023764
000180 b9 16 41 bd a3 8e 0c 3d bf 91 18 be 9f 6c 2e 3d
       -0.04714081 0.034315716 -0.14899348 0.042584058
000190 89 66 ac be f8 61 0f be a0 4f ba 3d 26 bf 27 bc
       -0.33671978 -0.14002216 0.090972185 -0.010238444
0001a0 3d 4b 99 bc 0a 08 fb bd a4 92 99 3e ce 7d a5 bd
       -0.018712634 -0.12257393 0.2999469 -0.08080636
0001b0 a8 69 0d bd 71 9a 9f 3c 47 84 75 3e c4 f6 aa bd
       -0.03452459 0.019482823 0.23976241 -0.08347848
0001c0 f6 1c 8c 3b 1b 0b 8a 3e c3 bc e1 b9 85 6c 0a bf
       0.0042759134 0.26961598 -0.00043055983 -0.5407184
0001d0 23 05 23 bf 0a 0d df 3c 0f a1 5e bf ce d2 1e 3d
       -0.63679713 0.027227897 -0.86964506 0.038775258
0001e0 34 e4 07 bd 02 5d 12 bd 46 93 0f 3d 14 11 79 3b
       -0.033176616 -0.03573323 0.03505256 0.0038004564
0001f0 64 09 e9 be 65 77 37 bc 43 04 a9 3b 53 29 2f bd
       -0.45514977 -0.0111978995 0.0051579787 -0.04276402
000200 bd 98 f3 bc d0 e8 f9 be 5f 7a 4f be a2 cb d1 bd
       -0.029735917 -0.48810434 -0.20261525 -0.10243918
000210 e1 48 a2 3d 9f c9 c6 3d 83 8f 87 bd f8 3f 1d 3d
       0.07924057 0.09706425 -0.066191696 0.038391083
000220 5a 89 30 3a b7 78 cf 3c 16 81 b1 bc b0 54 b6 be
       0.0006734334 0.025326116 -0.021667998 -0.35611486
000230 37 11 1a be 53 58 89 3d 95 45 f6 3d 76 01 b9 bd
       -0.1504563 0.067063 0.120249905 -0.09033482
000240 fa 6c 78 bc 97 d1 57 bd d8 d2 3a 3d 71 04 30 bf
       -0.015162701 -0.052690115 0.045611233 -0.6875678
000250 f8 6d 92 bd f3 0c 88 bd a0 6e 49 be 4c ff 03 3e
       -0.07149881 -0.06643095 -0.19671106 0.12890357
000260 25 5e 30 bc 58 f1 b6 3a e4 03 a3 3d fd 43 57 be
       -0.010764633 0.0013957424 0.079597265 -0.21022029
000270 41 75 30 3c 9f b1 b8 be 5a e2 00 be 6d 86 d7 be
       0.010770143 -0.36073014 -0.12586346 -0.42094746
000280 f6 a3 95 3d 1e 7a 53 3e ef 95 22 be 4b 13 74 3d
       0.07306664 0.20652053 -0.15877508 0.05958871
000290 e9 68 12 3b b4 c3 b0 bd 49 33 bb 3c 3c 5c fb bd
       0.0022340363 -0.086310774 0.022851603 -0.12273452
0002a0 1d ef 96 bc 34 cf 81 3d a9 a9 e3 3e 09 e3 97 3d
       -0.018424565 0.06338349 0.44465378 0.074163504
0002b0 83 6f d3 be 84 82 6e 3d 7b 0e 14 3e b0 f4 7f be
       -0.41296014 0.05822994 0.14458649 -0.24995685
0002c0 02 de a0 bd 75 01 07 3e e2 3a d0 3d 0a 34 8d 3d
       -0.07854845 0.1318415 0.10167481 0.06894691
0002d0 04 20 93 be 42 db 3d bd 21 67 1c bd 5d 98 d7 3c
       -0.28735363 -0.04635168 -0.03818429 0.02631777
0002e0 0a 3b 02 bf ea 17 70 3b e9 c4 8c bd a7 53 d9 bd
       -0.50871336 0.0036635348 -0.06873495 -0.106116585
0002f0 d1 bd c0 3c 36 96 64 3d c2 19 a2 3b 6f 06 1b be
       0.023528012 0.055807315 0.004946918 -0.15139173

net.6.bias f4 [3]
000000 64 cf f6 be 82 1b dc be 11 ff fd be
       -0.482051 -0.42989737 -0.49608663

net.0.weight f4 [64, 8]
000000 a8 ea 47 bf a6 96 ba 3e 0c de 0c 3f ee 8e 60 c0
       -0.7809243 0.3644306 0.55026317 -3.5087237
000010 17 a3 94 40 77 f4 9d bf 6d e9 b6 3e fe b4 2e bc
       4.6449084 -1.234023 0.35724965 -0.010663269
000020 b5 e8 1c be a8 d7 20 be 58 0f e8 bd 76 6f 02 c0
       -0.15323146 -0.15707266 -0.113310516 -2.038053
000030 6b 4c 47 c0 85 8c 3e 40 14 f3 f8 bd b1 a0 84 3a
       -3.1140392 2.9773266 -0.121557385 0.001011869
000040 80 ff 19 bc a6 46 1b 3e e0 e8 48 3d b3 fb 08 be
       -0.009399295 0.15163669 0.049050212 -0.13377266
000050 56 a7 7f 3e f4 7f 03 3e 2d 97 6c be c4 9b a7 be
       0.24966177 0.12841779 -0.23104544 -0.32736027
000060 a2 10 4b be fb 9f 9e be fe f1 1b 3e 9e 47 39 c0
       -0.19830564 -0.3098143 0.15229031 -2.8949962
000070 67 31 08 c0 ee 0f fc 3f 1d 20 d8 3d f5 30 46 3d
       -2.1280153 1.9692361 0.10553 0.048386533
000080 cf ca c0 3b 0c b5 31 3e 25 37 fa bd 01 b0 23 c0
       0.0058835517 0.1735422 -0.12217549 -2.5576174
000090 75 95 54 40 53 07 3c c0 98 5c 16 3f df 84 f1 3c
       3.3216221 -2.937947 0.58735037 0.029482303
0000a0 a7 bd 9b be 02 81 1f 3d b6 b7 85 3e 00 f6 9a 3c
       -0.3041813 0.03894139 0.26116723 0.01891613
0000b0 d1 cb 2a 3b a6 55 4b bf da 1b 62 3e 18 32 00 be
       0.0026061425 -0.79427564 0.22080937 -0.12519109
0000c0 aa a1 23 3b e2 ad ee bc dc 7a 2b be 8d 76 52 40
       0.0024968185 -0.029135648 -0.16746086 3.2884858
0000d0 3e b1 e0 bd dc 2d 26 40 6f 31 3a bf fa 92 41 3d
       -0.10971306 2.596549 -0.7273168 0.04725931
0000e0 16 5d 95 be 7f 77 20 bd 01 3b 85 be 36 04 03 40
       -0.2917258 -0.03917646 -0.2602158 2.047132
0000f0 6f 9b e2 bf 8e 71 1e 40 56 6d d3 be b7 4d 7c 3d
       -1.7703685 2.4756808 -0.41294354 0.061597552
000100 30 9e b2 3e 13 f6 ff 3d 65 fc bb bc 6a 5a 36 40
       0.34886312 0.12498107 -0.0229475 2.8492684
000110 4c 22 b5 3f ab a6 4f c0 26 48 9e 3e 8c 60 a6 bc
       1.4151092 -3.2445476 0.3091442 -0.020309709
000120 aa d2 fe 3d f8 05 73 be da cc db be 07 cc 6c 40
       0.12442525 -0.23732746 -0.42929727 3.6999528
000130 f6 93 4e bf 71 df 97 bf 70 a7 85 bf 1f 33 1b 3e
       -0.8069452 -1.1865064 -1.0441723 0.1515622
000140 ff 46 f7 be fa 72 39 3c 3c 14 a1 be 96 3a 54 c0
       -0.48296353 0.011318916 -0.3146075 -3.3160758
000150 d9 75 60 40 2f a0 85 bf 67 24 c1 be b5 34 ec 3d
       3.5071929 -1.0439509 -0.37723085 0.115334906
000160 46 90 8a be f9 c8 8a be ce 15 d3 3e 45 cd 31 3f
       -0.27063197 -0.27106455 0.41227573 0.6945384
000170 02 77 56 bf 56 35 cf 3f 75 0b 40 be e4 b3 e9 bd
       -0.8377534 1.6188152 -0.1875437 -0.114112645
000180 07 8b 7e 3e ae 4f 0a 3e 6d 4c 3a 3e 52 01 8f c0
       0.24857722 0.13506958 0.18193217 -4.468911
000190 22 a2 47 3f be c4 43 c0 af f7 9f 3f 58 ee 7b bd
       0.7798177 -3.0588832 1.2497462 -0.0615066
0001a0 ae 4f 2a 3e 17 40 22 3e ef cf 2d bf e3 d3 2f 40
       0.16631958 0.15844761 -0.67895406 2.7473075
0001b0 52 52 f0 3f 82 c0 1f c0 e1 90 18 bf e7 08 d7 3c
       1.8775122 -2.4961247 -0.5959607 0.026249362
0001c0 db b7 d2 3c 9c 86 74 be d5 51 a0 be b8 95 72 40
       0.025722435 -0.23879474 -0.31312433 3.790388
0001d0 fe 89 94 3c b8 d3 14 c0 0a a0 35 bf c3 b4 89 3d
       0.018132206 -2.3254223 -0.70947325 0.06723931
0001e0 c2 c0 20 be d5 51 46 3c c4 ba 1f bc 69 a9 81 c0
       -0.15698531 0.012104471 -0.009749118 -4.05193
0001f0 d5 2e 89 bf a0 27 4c 40 76 9a 26 be 8b 96 4d 3d
       -1.0717417 3.1899185 -0.1626986 0.050192397
000200 7f 08 d2 3d eb 16 1b 3e 5f 29 95 bb 51 65 4f c0
       0.10255527 0.15145461 -0.004552051 -3.2405589
000210 eb df 44 c0 9b e7 3e 40 e7 69 12 3e 48 e1 f8 3c
       -3.0761669 2.982886 0.14298211 0.03038086
000220 0a e5 b5 3e f8 2d 85 3d 4d d6 1a 3e 63 aa 63 40
       0.35526305 0.065029085 0.15120812 3.5572746
000230 60 f0 00 c0 46 8b 4b c0 4b 69 8e 3e b0 f6 e2 bc
       -2.0146713 -3.1803756 0.27814707 -0.02770552
000240 34 e5 91 bd 4c ca ae 3d 0c 76 93 3d 31 5e a6 be
       -0.07123795 0.08534679 0.0720025 -0.32493737
000250 6e 13 27 be f0 02 97 bd 5e 17 65 be e4 6e 79 be
       -0.16316006 -0.07373607 -0.22372195 -0.24358708
000260 48 ec 38 3e 5f 0e 6c 3e dd 6d 78 bd 4e 01 e7 bf
       0.18058884 0.23052357 -0.06065165 -1.8047273
000270 3d e2 05 40 e7 6d 4e c0 9f 24 7e 3f b2 e1 14 bd
       2.0919335 -3.225458 0.9927463 -0.036348052
000280 b9 b3 08 bf c9 98 ab be c7 56 49 bd 48 9c 46 c0
       -0.53399235 -0.33515003 -0.049155023 -3.1032887
000290 9f 41 0c c0 0b 2b d0 3f 4c c2 0c 3d e5 5b a9 3d
       -2.1915052 1.6263136 0.034364983 0.082694806
0002a0 4d df 54 3d bb 68 35 3e 3e 03 09 be bb 4f 09 c0
       0.05197077 0.17715733 -0.13380143 -2.1454914
0002b0 a6 78 fe 3f 58 b7 49 c0 f0 c2 15 3f 41 d0 00 3d
       1.9880569 -3.1518154 0.58500576 0.031448606
0002c0 7c 90 33 3e eb 57 4d bd af 74 a0 3e ef 45 73 3f
       0.17535585 -0.050132673 0.31339023 0.95028585
0002d0 a7 b5 78 be 82 c3 76 3e 83 e5 95 be e0 2c 54 be
       -0.24288045 0.24098018 -0.29276666 -0.20720243
0002e0 b0 45 eb 3e da 25 ca bd d5 72 4a bd 3d d3 54 c0
       0.45951605 -0.09870501 -0.04942592 -3.325393
0002f0 55 88 a4 3f a3 5d 3f 3f 61 ff ed 3e 31 86 37 bd
       1.2854105 0.74752253 0.464839 -0.04480571
000300 52 b8 52 3d fe 99 79 3d 47 87 b1 be cb e1 3b 40
       0.051445313 0.060937874 -0.3467352 2.9356563
000310 f1 e0 63 40 01 21 62 c0 fc 15 dd be b8 a7 0d 3d
       3.5606043 -3.5332644 -0.43180835 0.034583777
000320 1a 49 0f 3e cc 88 97 3d 82 4b ae be 2a ae 42 40
       0.1399273 0.07399139 -0.34041983 3.0418801
000330 41 fa 2f 40 b2 13 0d c0 f3 9f 2c bf de c4 1d 3d
       2.7496493 -2.204327 -0.67431563 0.038517825
000340 8b 4a 90 bd 17 c5 a0 3e 2a 6e 8c 3e a9 b6 66 c0
       -0.07045468 0.31400368 0.27427799 -3.6048987
000350 1f eb a5 3f 56 05 19 bf c2 c7 81 3f 83 ed d4 3b
       1.2962378 -0.59773767 1.0139086 0.00649804
000360 31 84 28 3e 28 05 17 bd b6 ad b3 be d7 2e 8d c0
       0.16456677 -0.03687015 -0.35093468 -4.4119678
000370 09 93 2f 40 c4 7b 79 bf 8c 9e 7d 3f 84 2e 14 3d
       2.7433493 -0.97454476 0.9907005 0.036177173
000380 fc b9 23 3d 80 c2 c1 3d e1 59 aa 3e 60 d4 42 c0
       0.03997229 0.09460926 0.33271697 -3.0442123
000390 00 4b 96 3f 8c 2a 15 3f 72 9a fa bb aa 01 dc bd
       1.1741638 0.58268046 -0.007647806 -0.10742505
0003a0 f2 1c b5 be 3c d5 be 3e a5 42 4a be 10 47 cb bf
       -0.35373646 0.3727206 -0.19751985 -1.5881062
0003b0 e7 e7 84 3f 23 05 33 40 ce ad c0 be 52 f6 c4 bd
       1.0383271 2.7971885 -0.37632602 -0.09617294
0003c0 e2 c1 ed 3d 2d 4a 52 3d fe 98 a1 3b 23 99 62 40
       0.11609246 0.05134027 0.004931568 3.5405967
0003d0 38 38 9b c0 4c f2 56 40 da f9 a1 be ed 53 ca bb
       -4.8506126 3.3585386 -0.31635934 -0.0061745555
0003e0 60 5f 18 3d 80 dd 88 bc d8 00 82 bd 99 2d a8 3e
       0.03720033 -0.016707182 -0.06347817 0.32847288
0003f0 08 4b c0 bd 5e 62 dd bd 4a 5d 30 3e 3e 6b a5 be
       -0.09389311 -0.10809778 0.17223087 -0.32308382

net.0.bias f4 [64]
000000 bf 50 06 3f c2 5b 05 3f e8 88 56 bd 68 5d 14 3f
       0.5246696 0.52093136 -0.052376658 0.57955027
000010 04 99 93 be 1c 4b 41 3f e8 d8 1c 3f 51 73 0d 3f
       -0.2882768 0.7550523 0.6126847 0.55254084
000020 52 d2 2f bf a6 f3 49 3f 4b f6 9a be fb 7d 34 3f
       -0.686803 0.78887403 -0.30266032 0.7050473
000030 30 56 a3 bf 04 ac ff 3e d1 c8 5b 3f 12 f2 78 3e
       -1.2760677 0.49935925 0.85853297 0.24311092
000040 71 ac e6 be 29 18 03 bf ae ac d9 bd a8 d1 5d bf
       -0.45053437 -0.5120874 -0.10628639 -0.86648035
000050 5c eb bd be 04 51 a0 bf 66 34 5d be 8c 2c 99 3e
       -0.37093627 -1.2524724 -0.2160202 0.299168
000060 ae 28 89 bd 5c 62 18 3f 4f 01 a6 bf cd 3e 33 3d
       -0.06697212 0.59525084 -1.2969149 0.043761063
000070 3a 74 ae 3e d6 e6 31 3f 09 2f 45 3e 28 f8 84 bd
       0.3407305 0.6949285 0.19256224 -0.064926445
000080 00 7c aa be 4b a3 65 3f 39 c6 04 3f 82 7d cc 3e
       -0.3329773 0.8970229 0.51864964 0.39939505
000090 72 15 12 be de c1 6c 3f aa 57 e6 bd 38 05 92 3f
       -0.14265993 0.9248332 -0.11247189 1.1407843
0000a0 27 6d c5 bd 0e 6f e1 3e c5 a2 c4 be e5 d2 70 be
       -0.0963996 0.4403004 -0.38405433 -0.2351795
0000b0 a7 f0 19 3f 26 2a 4c bd a5 f6 b1 3e 98 79 a8 3f
       0.6013283 -0.049844883 0.34758487 1.3162107
0000c0 46 66 8d bd 76 dc 04 3d 1a c5 85 3e 32 d8 25 be
       -0.06904273 0.03243681 0.2612694 -0.16195753
0000d0 1a 14 67 bc b0 c0 54 bd c5 77 2f bf b3 06 f6 be
       -0.014103914 -0.051941574 -0.6854213 -0.48051986
0000e0 0b 5b 6b 3f 9e ba 9d 3e 0a b3 cc be 6b 79 e4 3d
       0.91935796 0.3080644 -0.39980346 0.11155971
0000f0 c3 ff 00 bf c3 c9 a7 3f 69 26 5e 3d a8 da bc 3e
       -0.5039026 1.3108448 0.05423585 0.3688557

net.2.weight f4 [64, 64]
000000 bd 67 80 3d 17 84 8a be c2 ca b7 bd 4a ac 87 bb
       0.062697865 -0.27053902 -0.0897422 -0.0041404115
000010 c5 82 dc bd 1a 6e 66 3d a2 54 8a 3d dc 81 91 3d
       -0.1076713 0.056257345 0.06754424 0.07104847
000020 75 6a 0b bb 44 c5 32 3d 19 62 03 3e ed d0 09 be
       -0.002127317 0.04364516 0.1283039 -0.13458605
000030 be 93 5d be b4 68 2a 3d 63 04 22 be de e1 b7 3d
       -0.2163839 0.04160376 -0.15821986 0.089786276
000040 e2 a5 63 3d ec 4c a0 be 10 c3 b5 bc 0a d8 41 bd
       0.05557812 -0.31308687 -0.02218774 -0.04732517
000050 18 7b df bd 5b c1 0c 3c 6f 4a 52 bd 5a f8 6d be
       -0.1091215 0.008591021 -0.051340517 -0.2323927
000060 e3 d7 65 3d b0 3c 76 3d 85 fa 91 bd 55 0f 6a 3d
       0.05611409 0.06011647 -0.07127861 0.057143528
000070 58 7d dc bd ed 6c 98 3e e5 33 ef bd c0 1f 4d 3d
       -0.10766095 0.29770604 -0.1167982 0.050079107
000080 6c d9 89 bd f7 d8 a0 bd 68 37 34 bf 82 2c be bd
       -0.06730923 -0.07853883 -0.70397043 -0.09285833
000090 3c da 63 3d 43 fc 5e 3d 04 dd de 3d df 95 fd 3a
       0.055628046 0.054439794 0.10881999 0.0019347033
0000a0 d2 e5 d3 bd 15 ec c6 be b4 f6 2c bf d5 17 f3 bd
       -0.10346569 -0.3885199 -0.6756394 -0.1186978
0000b0 9e c9 8f be 99 b5 24 3d 7e d0 46 3a ff 98 74 be
       -0.2808351 0.040212248 0.00075841683 -0.23886488
0000c0 14 5f 25 be 95 78 13 be 8f 5d 5f be b3 3e b5 bd
       -0.1614955 -0.14401467 -0.21813034 -0.088498496
0000d0 57 e6 b8 3d 60 09 b4 bb 66 9f a8 bd 3e 3e 04 bf
       0.09028309 -0.0054942816 -0.08233528 -0.51657474
0000e0 f5 52 a3 bc b2 75 e6 be eb 2c ae be 7c 9a 2c 3e
       -0.019937018 -0.4501167 -0.34018645 0.16855806
0000f0 29 4d d7 bd d9 e1 86 3e 87 18 c7 be 28 68 1a be
       -0.10512764 0.26344183 -0.388859 -0.15078795
000100 4a 1c 92 3e 0b dd bd be 80 7e 7e 3b 40 73 10 be
       0.28537208 -0.37082705 0.0038832724 -0.14106464
000110 1c 23 69 bd 16 b8 65 3e 5d c5 ac 3b 05 07 5b 3e
       -0.05691825 0.22433504 0.005272551 0.21389396
000120 be d5 93 be 02 2e fc bd 0e 0a 12 3e 5e 2f 5e bb
       -0.2887401 -0.12313463 0.14261648 -0.0033902745
000130 e2 c6 ed be fa 29 48 3e 7e c6 5e 3e 65 33 97 bd
       -0.46440798 0.19547263 0.21755406 -0.073828496
000140 d7 4a 93 be 15 e8 1c bf cc 17 8e bd c2 cc 8f bc
       -0.28768036 -0.6129163 -0.06938133 -0.01755369
000150 3b 15 8a bd 40 6c 2e be 9a 46 fb 3d 47 71 ab 3d
       -0.06742331 -0.17033482 0.122693256 0.08371215
000160 f4 d4 6f 3d 6d 29 bf 3d a5 ae 5e be 3f 18 41 3d
       0.058552697 0.09334073 -0.21746309 0.047142264
000170 58 6b af 3d 3e 29 bd 3e 2e 2a 4a bf f6 61 d6 3d
       0.08565396 0.36945528 -0.7897061 0.10467903
000180 38 28 41 3d 47 33 af be 3e 9b 9d be ab 06 9e bd
       0.047157496 -0.3421881 -0.30782503 -0.077161156
000190 91 bb 6c be 2e 21 ec 3c 94 5b 18 bd 51 de 6c be
       -0.23118426 0.028824415 -0.03719671 -0.23131682
0001a0 56 d3 16 bf 56 20 28 bf 97 af 97 be 77 bc 7f bc
       -0.58916223 -0.6567434 -0.29626152 -0.015608898
0001b0 6d 9d 44 bd 99 8a fe bd a7 ef 30 bf ed 01 bd bd
       -0.048001695 -0.12428779 -0.6911568 -0.09228883
0001c0 7d 70 35 be 3d 1f 9a bc 62 5a 35 be b7 c1 e9 bc
       -0.17718692 -0.018813724 -0.1771026 -0.028534753
0001d0 b9 7f 60 3c 08 1c 70 3d 64 c0 c6 be 26 76 b9 be
       0.013702326 0.058620483 -0.38818657 -0.36222953
0001e0 aa 23 4b 3d 27 aa d4 be 0e 6a 89 be c1 1c 68 3e
       0.04959456 -0.41536066 -0.26838726 0.22667219
0001f0 eb 02 3a bd 1d c0 00 3d d2 4b 4d be 61 17 3f 3e
       -0.04541294 0.031433214 -0.20048454 0.18661262
000200 f8 fd 56 bd b5 d5 12 3e 76 cd b2 3d fd 90 13 bc
       -0.052488297 0.14339335 0.08730595 -0.009006736
000210 bf 41 c3 be f3 45 92 be ba d5 bb bd 68 45 4f 3e
       -0.38136098 -0.28568992 -0.091716245 0.2024132
000220 c1 39 97 bd 09 4b 1d 3d ed 34 08 bd 00 87 1d 3e
       -0.073840626 0.038401637 -0.0332536 0.1538353
000230 bf ac 87 be 1b f2 84 be 23 13 48 3e c6 62 0c bc
       -0.26498982 -0.25965962 0.1953855 -0.008568471
000240 bc 60 43 be 0f 62 11 be 82 69 db bd ed 05 4b be
       -0.1907987 -0.14197563 -0.107134834 -0.1982648
000250 f1 ba e5 bd 01 cf 5e be 2f f9 d9 bd c4 a8 34 be
       -0.11217297 -0.21758653 -0.10643231 -0.17642504
000260 a1 8d 8b bd 3d 60 ec bd 69 64 b8 be df 97 14 be
       -0.06814123 -0.115417935 -0.36014107 -0.14511059
000270 04 4e f3 3c 7c bc af bd 90 98 4e 3d 42 28 f9 bd
       0.029700287 -0.085808724 0.050438464 -0.12165882
000280 e6 99 88 3d 9a 7b 1e 3e 4d a7 40 3d a3 da a3 bd
       0.06669979 0.15476838 0.04703455 -0.08000686
000290 ac 7c d4 bd b2 87 2c be 70 a9 00 bc 6a 8b 28 3c
       -0.10375342 -0.16848639 -0.007852897 0.010287145
0002a0 a3 eb 2f 3d a0 27 01 3e ef ea b7 3a 43 16 96 3a
       0.04294933 0.12612772 0.0014031808 0.0011450726
0002b0 d2 d6 b5 bd 63 b5 92 bd 72 92 8b 3e 3d 37 da be
       -0.08878864 -0.07163503 0.27260166 -0.42620268
0002c0 a0 c4 37 be 5a e2 8f bd 48 e3 a2 3b 2d 72 8a bd
       -0.179461 -0.07025595 0.0049709417 -0.067600586
0002d0 5a 22 b7 bd 2c 42 dc bd 0b ba 0e be 6a 7b 09 3d
       -0.08942099 -0.10754809 -0.13938157 0.033564962
0002e0 3e aa 2b be fb b4 c7 bd b6 93 29 3e 33 43 68 be
       -0.16764161 -0.09751316 0.16560254 -0.22681884
0002f0 98 a8 88 bd ce a8 5e bc 13 35 08 be 35 d1 2a be
       -0.06672782 -0.013590051 -0.13301496 -0.16681369
000300 40 47 1f bd ca b3 e1 bd c6 f3 f9 bd b2 68 f1 bd
       -0.03888631 -0.1102062 -0.12204699 -0.11787547
000310 28 6c 03 bd 30 40 89 3d dc 96 b1 bc a0 92 a3 3c
       -0.032085568 0.06701696 -0.02167838 0.019967377
000320 64 99 63 3c 04 08 08 3d 14 b9 39 3d c0 bf c0 ba
       0.013891552 0.03321077 0.04534252 -0.0014705583
000330 9d 68 11 be a4 2c 87 bd f0 75 fe 3c 34 0f bd 3d
       -0.14200063 -0.066003114 0.031062096 0.092314154
000340 71 62 20 3d b5 98 36 3d 28 36 ee 3d fc 95 1d be
       0.03915638 0.044579227 0.11631423 -0.15389246
000350 44 28 cf bd 2b 2c 97 bd 66 3a a1 3d 78 ae ba bc
       -0.10115102 -0.07381471 0.07872467 -0.022788271
000360 7c e4 96 3d f8 69 84 3c dd 05 22 3d de cc cf 3d
       0.07367799 0.016163811 0.039556373 0.10146497
000370 b9 d9 ea bd 8c 92 03 bd b8 56 e6 bd 50 a0 39 bd
       -0.114673086 -0.03212218 -0.11247009 -0.0453189
000380 40 79 37 3c d8 b8 08 be 98 c0 70 3d 04 08 dd 3d
       0.011198342 -0.13351762 0.05877742 0.107925445
000390 d2 75 14 be 95 36 f7 bd 72 b6 a4 3d 13 85 ae bc
       -0.1449807 -0.120709576 0.08042611 -0.02130369
0003a0 cc e8 37 bd 94 8c b0 3c ba 61 bd bd 14 d4 5f bd
       -0.044899747 0.021551408 -0.092471555 -0.054645613
0003b0 ac 7b ce bc c9 c3 a1 bc 49 a7 a6 bd e2 37 a9 bd
       -0.025205456 -0.019746678 -0.08137376 -0.08262612
0003c0 e8 2a 1c bd e6 b6 d0 bd d1 bf 18 be 8b d2 b5 ba
       -0.038126856 -0.10191135 -0.14916922 -0.0013871951
0003d0 bd 3d a9 bc b0 ce f9 bd c8 52 09 be 02 17 31 3d
       -0.020659322 -0.12197626 -0.13410485 0.043234833
0003e0 63 f7 14 bd 86 16 b5 bd 18 6c 08 bd b0 96 b7 3c
       -0.03636874 -0.08842187 -0.03330621 0.02241072
0003f0 c4 b2 d7 bd 7c 56 a9 bd a0 56 84 bd ba 85 ba bd
       -0.10532144 -0.08268449 -0.06461835 -0.091075376

net.2.bias f4 [64]
000000 49 bd 70 3f 45 58 22 3f 58 2e 4d 3e af 53 10 3d
       0.94038826 0.6341594 0.2003721 0.035236057
000010 a7 75 e9 3e 3f c6 68 3f 56 33 69 3c 6d 57 be bd
       0.45597574 0.909275 0.014233431 -0.09294019
000020 72 68 1c bf 14 37 4e 3f 32 50 9a 3e 4b d2 e3 bd
       -0.6109687 0.8055279 0.3013931 -0.111240946
000030 9a 81 7b 3f 30 2c d3 3d 48 b2 42 3e e6 91 0a 3f
       0.9824463 0.103111625 0.19013321 0.54128873
000040 66 bd f8 3e be ec 8c 3e e7 53 1d 3f 9b 19 2b 3d
       0.48582 0.2752437 0.6145615 0.041772466
000050 ac e6 3c 3d b3 48 4c 3f 58 61 31 3d e6 1f c4 bd
       0.046118423 0.7979843 0.043305725 -0.09576397
000060 5f fa 63 3f 96 41 7e 3e 6f 1f 14 3e 62 bf 58 3f
       0.8905391 0.24829707 0.14465116 0.84667027
000070 85 6f 49 be 4f 0b 03 be e1 01 49 3f 08 ff 75 3f
       -0.19671448 -0.12797283 0.7851849 0.9609227
000080 92 6c 16 be 66 56 5c 3e 24 45 fa 3e a8 b6 0c 3f
       -0.14689854 0.21517333 0.48880875 0.5496621
000090 14 7d f9 3d 88 39 0b 3f 72 b6 97 3e c4 4b 2a 3f
       0.1218206 0.5438466 0.29631382 0.6652186
0000a0 6b ed 86 3e 5e 29 d6 3d 1d ff 2b 3e 1b 57 63 3f
       0.2635301 0.10457109 0.16796537 0.8880479
0000b0 9e f4 4d 3f 46 fe 3d 3e fb 04 75 3e 4e e3 db bd
       0.8045138 0.18554029 0.23927681 -0.10736714
0000c0 90 e2 54 3f 5d 15 ca 3e 67 aa 56 3e f2 68 2a be
       0.83158207 0.39469424 0.20963441 -0.16641596
0000d0 6f 41 22 3f bf 00 8c bd d4 4f 42 3d 80 ea 4e 3f
       0.63381094 -0.0683608 0.04743941 0.8082657
0000e0 36 3f c6 bc 89 6a 45 3f 44 df d2 3e 84 73 0f be
       -0.024200063 0.77115685 0.41185963 -0.1400891
0000f0 22 bc 64 bd 28 18 38 bd 5d 47 b1 3f 56 e0 91 3a
       -0.05584348 -0.044944912 1.3849903 0.0011129479
