runs/ppo_agent.pt (torch, 16355 bytes, 11 tensors)

actor_fc.0.weight f4 [32, 8]
00000000: 70f6 aebc 6085 d33d fea5 3a3e a326 39be
00000010: b0d6 bebd f307 4fbe 3e06 3d3e 6f38 913e
00000020: ecfe 5fbe 746a d53d 9bf0 8c3e 1507 a63e
00000030: cb7d 9a3e 2b38 a53e 4031 f5bc 8742 8f3e
00000040: c695 81be 25cd 39be be98 93be a827 bbbe
00000050: 5f9e 9d3e 23a2 913e 6a41 d33d 19f1 533e
00000060: d53a 1c3e ecc7 8b3e 0474 223e 8e58 65be
00000070: 8714 a7be 11a9 a53e 9792 5f3e 6b26 cabe
00000080: d7a2 983e b6de 81be 04da 8bbd ae3f 3b3e
00000090: 2c4b 8bbe 78a2 c63b 9803 363e dbdb 323e
000000a0: c91b 283e 283d 9fbe a286 713e 06b8 aebe
000000b0: d96f 0bbe a8e2 4ebc baac c6bd 6e74 20be
000000c0: 34a7 75be 3fe5 2bbe e835 8e3d 8059 523c
000000d0: 5440 ea3d 201e e0bc 7dce 96be abe4 7d3e
000000e0: 7fb7 8dbe a9af a8bd 537d 0bbe d859 35bd
000000f0: ec4e a5be a0fd 283d 55e5 753c 7eff d13e
00000100: ea1f e23d 94d4 31be f089 ba3d ea56 663e
00000110: e9aa 9a3e a29e 7dbe 7093 ccbd c6e4 423e
00000120: 98da 10be b7e8 823e e6ce 2c3e 1dcf 843e
00000130: 90ed a63e 9cc5 483e b657 8abe 5ff7 76be
00000140: 7e1f 86be 2747 22be a386 1c3e e07e eabc
00000150: 2ec8 783e 70d7 0ebd 0a46 9abe d2c3 28be
00000160: c5d3 fdbd f905 1e3d 9453 873e ee4e 763e
00000170: 78c5 c7bd 40da 093e 13c7 26be 1f86 b1be
00000180: 5ff7 9abd 61e9 c33b debc aebe 76e5 bfbe
00000190: 94e8 80be b665 4e3d 1da7 733e a3b2 013e
000001a0: 1aa9 9abe 7421 cabd 06fd ffbd d470 c5bd
000001b0: 3393 a93e a86e 10bd 4645 1a3e d9af 44be
000001c0: 7c20 a23e a48a 67be 0f38 d93c 5c92 3d3d
000001d0: 03ad c53c 5e91 69be 36a7 9fbe 48a7 973d
000001e0: 1ca8 f43c 3234 903e bed1 cc3e 51c7 d43e
000001f0: 99e9 42be 45ca 963e 3b16 59bc a87f b6bd
00000200: c46a 90be 3a11 ed3e f880 a83e 1aeb c5be
00000210: 2d75 f03e c053 a3bc 428c b23d e432 28bc
00000220: d4bc 90bd 66ee 393e 8346 a13e 1843 c5bd
00000230: cf20 843e 029b afbe 9c9a afbe 891b 943e
00000240: 9649 483e 46fd 24be ae8f 243e 8499 84be
00000250: e246 7a3e 02f8 513e 9616 95be 988c 5b3e
00000260: 1041 70bd 3d98 883e 8979 d3bd cabd 793e
00000270: 27af 3dbe f006 b83d 02a3 afbe 079c ac3e
00000280: afff 573c 0509 823d 818a bbbd f835 283d
00000290: c6fa 8b3d 9bf2 c6bd ab09 d8bd 50c0 babd
000002a0: 75a0 9f3e 4561 a93d 38f2 8e3c adf9 a03d
000002b0: e9b5 b43e a874 74be e08d 8fbe cc46 0dbe
000002c0: c508 edbd db70 1a3e ed95 1b3e 9338 71bd
000002d0: 181a d63d 4a19 873e ad91 4b3e 625a a0bc
000002e0: e89d 30bd 455c 523e 80ec 303b 500e bb3d
000002f0: e583 18be 1579 843e 7679 5b3e 4209 a5be
00000300: ddf0 42be cb0f 973e ae31 0e3e 7045 1e3d
00000310: e5ea 9d3e 026e 6b3e 8070 c83c 0c0e 963e
00000320: fb4e 853e 1133 a73e 2e97 113e fb4e 963e
00000330: 2041 ee3d 5993 813e 8039 2b3d c499 873d
00000340: 1f55 dfba 19d7 a5bd d5b4 823e 4c80 17bd
00000350: e3e5 5a3e b206 a43d 1640 9e3e 8712 043d
00000360: 9a49 aa3e 58e5 8abb 330a 6fbe 4048 423d
00000370: a99f a93e 00ec 3a3b 00ea de3a 7724 8dbe
00000380: d48c 8f3e f2f7 93bc fad8 2fbe 92e2 d33d
00000390: 0598 d43d df05 37be 68a2 52be 80ea 0eba
000003a0: 04e9 4d3e 52af babe ed76 2ebd 7d8b cfbd
000003b0: 9f1c 14bd 0630 b0bc b4a5 72be 474f 133e
000003c0: e9b8 33be 4224 013e 0320 103e 7796 0f3e
000003d0: 520d a8be d4bf b33e 4fa3 e93e bf3d 173e
000003e0: 6b38 a43e ca9a 4a3e 7e85 593e 2bc8 9f3e
000003f0: 70e4 c03c ce10 9ebe cc07 d23d 809e d23d
-0.021357745 0.10328174 0.18227383 -0.18081145 -0.09318292 -0.20217876 0.18459412 0.28363368
-0.21874589 0.10420695 0.27527317 0.32427278 0.30174097 0.32269415 -0.02993071 0.27980444
-0.2530958 -0.18144663 -0.2882747 -0.36553693 0.3078489 0.28444013 0.10315211 0.2069744
0.15256818 0.27300966 0.15864569 -0.22397062 -0.3263285 0.3235555 0.21833263 -0.39482436
0.29811737 -0.25365227 -0.068286926 0.1828601 -0.2720579 0.0060618483 0.17774808 0.1746668
0.16416849 -0.31101346 0.23586515 -0.34124774 -0.13616885 -0.012627281 -0.09700914 -0.15669414
-0.23989564 -0.16786669 0.069438756 0.012838721 0.11438051 -0.027358115 -0.29454413 0.24794261
-0.2767906 -0.082366295 -0.13622026 -0.044275135 -0.32286775 0.0412575 0.01500829 0.41015238
0.110412434 -0.17366248 0.09108341 0.22494093 0.3020852 -0.24767545 -0.09989059 0.19032583
-0.14145887 0.25568172 0.168758 0.25939265 0.3260312 0.19606632 -0.27020043 -0.24117802
-0.26195902 -0.15847455 0.15285735 -0.028624952 0.24295112 -0.034873426 -0.3013156 -0.1648095
-0.123939075 0.038579915 0.26430953 0.24053547 -0.09754461 0.13462162 -0.16286878 -0.3467264
-0.075667135 0.0059787487 -0.3412847 -0.37479752 -0.25177443 0.050389968 0.23794217 0.12665801
-0.3020714 -0.09869662 -0.12499432 -0.09640661 0.33120117 -0.03526178 0.15065488 -0.19207706
0.3166541 -0.22611481 0.026515989 0.046282157 0.02413035 -0.2280936 -0.3118226 0.07404953
0.029865317 0.28164822 0.4000377 0.41558316 -0.19034423 0.29451194 -0.013249929 -0.08911067
-0.28206456 0.46302205 0.32910895 -0.3865593 0.46964398 -0.019937396 0.08718158 -0.0102660395
-0.07067266 0.18157348 0.3149911 -0.09631938 0.2580628 -0.3429795 -0.34297645 0.28927258
0.19559321 -0.16112241 0.16070434 -0.25898373 0.24441102 0.20504764 -0.29118794 0.21440351
-0.0586558 0.2667865 -0.10325915 0.24388805 -0.18523847 0.08985698 -0.34304053 0.3371279
0.013183518 0.063493766 -0.09157277 0.041067094 0.068349406 -0.09714242 -0.10548719 -0.09118712
0.31177106 0.08270506 0.017449483 0.07860122 0.35295036 -0.23872626 -0.2803793 -0.13796538
-0.11573938 0.15082113 0.15193911 -0.058891844 0.10454196 0.26386482 0.1987979 -0.019574348
-0.04311934 0.2054301 0.0026996434 0.09133589 -0.14894064 0.25873628 0.21433052 -0.32233626
-0.19037195 0.29504237 0.13886139 0.03864044 0.30843273 0.22991183 0.024467707 0.29307592
0.2603682 0.32656148 0.14217827 0.29357132 0.11633515 0.2530773 0.041802883 0.06621125
-0.0017038918 -0.08097667 0.2552859 -0.036987588 0.21376757 0.080090895 0.3090827 0.03224423
0.3325928 -0.0042387657 -0.23343734 0.047432184 0.33129624 0.0028522015 0.0017006993 -0.27566883
0.2803713 -0.018062565 -0.17172614 0.10345949 0.10380558 -0.17873333 -0.20569766 -0.00054518133
0.2010842 -0.36461884 -0.042593885 -0.10134027 -0.036160108 -0.021507274 -0.23696023 0.1438571
-0.17551006 0.12611488 0.14074712 0.14022242 -0.32822663 0.3510729 0.45632407 0.14769648
0.32074293 0.1978561 0.2124233 0.31207404 0.023546427 -0.30872196 0.102553934 0.10284138

actor_fc.0.bias f4 [32]
00000000: 05ac 9e3d ae88 6b3e b09f 85be 1d73 87bd
00000010: 49af 983e 4104 b13e a85d c03e 664c 083d
00000020: 7881 3b3e 4293 4f3a add2 01be 7b9c 8f3c
00000030: 1048 36be b6db 883e e577 a1bd 5575 e63d
00000040: f9b9 3f3e 6bb9 a23e 11a1 523e 9648 00bd
00000050: 430c 053e 1744 67be 92ec 11bc d5ac 3f3e
00000060: fa9d 7abd 25f4 a63e 70a1 643e bfeb 07be
00000070: e82c c83e f727 eebc df16 80bd 5516 a33e
0.07747654 0.23001358 -0.26098394 -0.06613753 0.29821232 0.34573558 0.37571454 0.033275984
0.18311107 0.00079183665 -0.12678023 0.01753067 -0.17800927 0.26730126 -0.07884196 0.11252848
0.18723287 0.31782088 0.20569254 -0.031319223 0.12992959 -0.22584568 -0.0089065 0.18718274
-0.061185814 0.32608142 0.22327209 -0.13273524 0.3909676 -0.029071791 -0.06254362 0.31852975

actor_fc.2.weight f4 [32, 32]
00000000: cd26 423e 67ab 673d be8f 77be 5903 973b
00000010: efb1 e13d 0e11 0a3d 7b78 3d3e a8ab 483d
00000020: 6951 89bd fae1 06bd 851f f73d ae39 06bd
00000030: cbc6 6dbd 81a5 c7bc a6d3 adbd 097c 313e
00000040: 1d0c 99be b630 50bc d04e 193e 01cd 80bd
00000050: 7599 1dbe 831d 9abd 933a 9dbe fbcf 7b3d
00000060: 3945 f1b9 887b 3c3e 5760 b4be f88b ae3d
00000070: 3a6b f23e 37e0 a6bd 1b63 12bb fd14 6b3e
00000080: 7e99 b1bd 81d3 be3d f460 d6bc 56d6 57be
00000090: 0b6e fa3d dd73 113e b9e5 d8bd 790f 5fbd
000000a0: dd05 c23b 9490 293e 6e4f 36be 36e0 b43d
000000b0: d04b 41bc e36a a03d de4b adbc f406 7dbd
000000c0: d0f1 a33d 151c 2fbd b662 473e c834 33bd
000000d0: ef21 0abd b0e0 603d 3103 0dbe 33c7 87bd
000000e0: f692 61bc 08c6 ae3d 0c4f b4be 7fd5 253e
000000f0: 94f2 cc3e efbe df3c 1020 163e 03fe 8cbd
00000100: cf5f ef3d 8014 bd3d c0ad 6fbe 4f92 8cbd
00000110: 7c47 4e3d 8500 233e c777 bf3c 975a 493e
00000120: 5b13 a0bd f7ea 653e 672a c8bd 6a2d 1d3d
00000130: ea2a 53be cb73 3dbe a45a 35bd 4943 2c3d
00000140: b3a9 0b3c 22bc 2e3d 25c1 be3d e17d 8b3c
00000150: 62b7 a23d 23cf 0b3e 24b3 acbd b248 89bd
00000160: c3fb 003e eb42 0e3e 2f40 f9be c045 22be
00000170: 708c 753e deb5 18be 4652 6e3d 5d39 4c3d
00000180: 2f38 01bc ff54 f7bb 97d3 cb3d cf1b 383d
00000190: 2248 09be 7a35 09be 999b e6bd 9940 17be
000001a0: 3392 24be 8cd7 f6bd dfa5 ac3c 99e7 40bd
000001b0: 7e2d 033e ddf2 333e 1f3f 463b 2719 88be
000001c0: fa5b bbbe 0bb7 993b e612 dfbd 87ba 873d
000001d0: faee 33be a86a 5fbe 3b91 9b3e 4a05 a4bc
000001e0: eea4 90bd aa02 f93d d508 e13e 4638 df3d
000001f0: 048b 96be b1a1 413e 8c64 ca3d 4a97 3bbe
00000200: 7340 a13b ea43 fcbc 0e68 c3bd d762 e13d
00000210: 79c7 08be eee5 deba 72d8 003e 7fd7 6dbb
00000220: 5ee8 b9bd a4ca 0dbe 2579 00bb 4972 c23d
00000230: 4441 8d3d 8bfe 3fbd ff0c 0fbb 0516 823e
00000240: 467c e1bd a5dd 023e cbd7 183d f898 aa3d
00000250: bc13 8c3d 19d4 153e c07d 79bc 0904 33be
00000260: d3dd 013e 3708 69bc 55df c6be b18f 9dbd
00000270: 0e17 8f3e 50bf 343e 6ee2 273d bb53 543e
00000280: 48e9 4b3e 4ba2 893d d679 0bbe c499 b23d
00000290: cd7d 533e 1736 11be eb84 05be 32fb c2bd
000002a0: d176 233e 7cd7 92bd 4cf8 a33d 9a13 d8bb
000002b0: a9dd 1a3d 53e1 a1bc 8e46 5fbd e48d 2c3e
000002c0: e958 1c3f b5fe 2d3e e03a 92bd 076c ac3d
000002d0: 9e7a 9c3e 5377 213e b18b 6abd 2b0e 443d
000002e0: ec8c 8dbc b57e 6a3e fa56 9fbe 2528 a23d
000002f0: f94d 003e 78ab 2bbe 9904 c5bc f4ec b63d
00000300: c9c7 483d dd4a 0f3e 9c82 2abd 10b7 df3d
00000310: 5356 153e b30c 0f3d 459b a2bd a345 363e
00000320: 4069 06be 57ed 023e feb2 fabd 62af fa3d
00000330: cd7e d7bb 23b5 6dbd c034 feb9 30c8 493e
00000340: 8983 7fbe 27f9 173e 8a81 1a3e bce6 d93d
00000350: a191 91bd 6e79 d23d 646f 8bbe 9005 3bbe
00000360: 93db c93d ba09 e23c 9efe 0dbf 1e76 863c
00000370: ba84 883e c197 21be 7a10 9e3d ca39 0d3e
00000380: 181e 1abd 5990 4f3c 8bc0 88bd d947 023d
00000390: bf52 db3d 3f3c 433d 99be 30bd 7526 1a3c
000003a0: 45d9 1f3e e5fc 263e 98da cdbd 3553 27be
000003b0: bf9f 37be db3c 48bd 0e93 ba3d 0091 04be
000003c0: 7df1 1f3f bf09 e13d 5a91 d13d fc46 edbd
000003d0: a267 103e 16c0 913e b042 03be 1511 0fbe
000003e0: 8b28 16be 2bab 2a3e 4db2 413c 555c cd3d
000003f0: fd10 efba 14e9 3bbe 3c50 fbbd fd35 4abc
0.18960114 0.056559946 -0.24175927 0.0046085534 0.11020266 0.03370767 0.18502991 0.04899183
-0.06704981 -0.03293035 0.12066559 -0.03276985 -0.058050912 -0.02437091 -0.08487634 0.17332472
-0.29892054 -0.012706926 0.14971471 -0.062891014 -0.1539057 -0.0752516 -0.3070875 0.061477643
-0.00046018677 0.18406498 -0.3522975 0.08522791 0.47347432 -0.08148234 -0.0022336903 0.22957225
-0.086718544 0.09317685 -0.026169278 -0.21077856 0.1222802 0.14204355 -0.10590691 -0.054458115
0.005921109 0.16559058 -0.17803738 0.08831827 -0.01179786 0.07832887 -0.02115434 -0.06177421
0.080051064 -0.04275139 0.19471249 -0.043751508 -0.033723768 0.05490178 -0.13770749 -0.06629791
-0.013767948 0.08533865 -0.35216558 0.16194724 0.40028822 0.027312724 0.14660668 -0.068843864
0.11688196 0.09232426 -0.23406124 -0.06863844 0.05036114 0.15918167 0.023372544 0.19663464
-0.07816192 0.22452913 -0.097737126 0.03837339 -0.20621839 -0.18501203 -0.044275895 0.042056356
0.008524346 0.042659886 0.09314183 0.017027797 0.07945134 0.13653235 -0.08432606 -0.06703319
0.1259604 0.13892715 -0.4868178 -0.1584692 0.23979354 -0.14913127 0.05818393 0.049859393
-0.00788693 -0.007547974 0.09952467 0.044948395 -0.13406423 -0.13399306 -0.11260147 -0.14770736
-0.16071396 -0.12052831 0.021075187 -0.04709587 0.12810323 0.17573114 0.0030250025 -0.2658169
-0.3659361 0.00469101 -0.108922765 0.06627374 -0.17571631 -0.2181803 0.3038424 -0.020022053
-0.07062708 0.12158711 0.4395205 0.10899405 -0.29402936 0.18909337 0.09882459 -0.18319431
0.004921013 -0.030794103 -0.09541331 0.1100518 -0.13357343 -0.001700578 0.12582567 -0.0036291776
-0.09077524 -0.13846833 -0.0019603458 0.094944544 0.06897214 -0.04687361 -0.0021827815 0.25407425
-0.110100314 0.12779863 0.03731517 0.08329958 0.068397015 0.1463169 -0.015227735 -0.17482008
0.12682275 -0.01422315 -0.38842264 -0.076934226 0.27947277 0.17651105 0.040987425 0.20735066
0.19913208 0.06720408 -0.13620695 0.08720735 0.20653458 -0.1418079 -0.13038985 -0.09520568
0.15963294 -0.07170007 0.08006343 -0.0065941336 0.037809048 -0.019760763 -0.054510646 0.16851002
0.61073166 0.16991694 -0.07140136 0.08419042 0.305623 0.15768175 -0.057262126 0.047865074
-0.01727911 0.22899897 -0.31121045 0.07917813 0.12529744 -0.16764629 -0.024050044 0.08931914
0.049018655 0.13993402 -0.041628465 0.10923588 0.14583711 0.03492422 -0.079397716 0.17800002
-0.13126087 0.1278585 -0.12241171 0.12240483 -0.006576395 -0.058034074 -0.00048485957 0.19705272
-0.2495252 0.14841138 0.15088478 0.10639712 -0.07107855 0.10277067 -0.27233422 -0.1826384
0.098563336 0.027592529 -0.5546664 0.016413745 0.26663762 -0.15780546 0.077179864 0.13791576
-0.037626356 0.0126686925 -0.0667735 0.0318068 0.10709142 0.047664877 -0.043150518 0.009408583
0.15610225 0.16307409 -0.10051459 -0.16340335 -0.17932032 -0.04888616 0.0911008 -0.12945938
0.62477857 0.10988187 0.10232802 -0.11585805 0.14102033 0.28466862 -0.12818408 -0.1397136
-0.14663903 0.16666858 0.011822295 0.100273766 -0.0018239316 -0.18350631 -0.12271163 -0.012341973

actor_fc.2.bias f4 [32]
00000000: c7b2 55bd 4cd9 80bd 0cad fabd 514c d5bd
00000010: badc 2f3e 653d 553e 9629 603c 6c76 f83d
00000020: d168 123d 8815 efbd 3666 493e 1bed b7bd
00000030: 7bdb 20be 4703 dabb 8bbc cf3d 8f11 27bd
00000040: 6761 afbd 817b 383e 6d24 903d 50f4 d3bd
00000050: 4215 d4bc 45e7 8f3d ecd5 0b3e 7164 913d
00000060: 13b5 de3c 168e 36bc 2c76 97bd 5c1e bb3d
00000070: 77f8 c33d 4432 fcbc e147 03be 1daa 0ebe
-0.05217245 -0.06291446 -0.12240037 -0.10414947 0.17174044 0.20824201 0.01368179 0.12131962
0.035744492 -0.11674029 0.19667897 -0.08980771 -0.15708725 -0.0066532227 0.101433836 -0.04078823
-0.085635 0.18015863 0.07038198 -0.10349333 -0.025889043 0.07026533 0.13655823 0.07099236
0.027185952 -0.011142274 -0.07395586 0.0913665 0.09568875 -0.030785687 -0.12820388 -0.1393208

action_heads.0.weight f4 [3, 32]
00000000: 7184 09bf 5340 24be 553b 88be 2dd7 8d3e
00000010: 2068 8bbe 8692 07bc bfc9 d3be 3ec5 173e
00000020: b66e 903e 19b2 4bbe fdc1 9e3c a1b7 acbe
00000030: b36d 193f 911e 86be 13d7 83be 6001 093d
00000040: 9883 093f 8196 e9be 83f2 783e 36dc a53d
00000050: c9af 34bd 38ba f13e 084c 923e 334e 0a3d
00000060: d908 58be d957 f3bd fb2a 903d e128 d4be
00000070: 13ce 5e3e 4871 783d 6aea 3ebe ac00 833e
00000080: c26d 323e 818f 0ebe c5bf 86bd dd2a 683e
00000090: b0a8 dfba 25f5 fabe 708f 2a3e 3c60 b5be
000000a0: 3d98 f13d 0b26 5e3e e56a f8bb 4b50 cc3e
000000b0: 84c8 87bd cbf5 f53d 2966 c63e b367 dcbe
000000c0: 49f6 ee3c fe1e f6bc c3bb 133d 0308 b33e
000000d0: 5f9b 643e a061 a2be 782c febe 62bb 99be
000000e0: 9e30 5d3d ef97 9bbe c684 483e cf46 7a3e
000000f0: f6d9 813e 6481 fe3e 9078 583e da11 563d
00000100: 628f 4b3e 7f02 43bc b7ed 5c3e 40af 00bf
00000110: 16ef 733d 617b 0d3f a9a3 a73e 1494 9a3e
00000120: a27f 48be 25e9 823e a76b 953e ed4b 38be
00000130: 878e 57bd f2ea 4e3d bdcc 32be 7718 5f3e
00000140: f469 0fbe 8d34 8c3e f0fb 21be 2078 4abe
00000150: 2b98 c13c edbc 1f3d cc28 af3e 9a8f ef3d
00000160: 5659 a53e 0ae2 9e3e e506 83be 58fc 5a3d
00000170: 32a9 b1be 79bb 1cbe 59eb aebe c4db 93be
-0.53717715 -0.16040163 -0.26607767 0.2770323 -0.2722788 -0.00827468 -0.41364858 0.14821336
0.28209466 -0.19892158 0.01937961 -0.33733848 0.5993301 -0.26195195 -0.25750026 0.033448577
0.5371642 -0.45622638 0.24311261 0.080986425 -0.044112954 0.47212386 0.28573632 0.033765983
-0.21097125 -0.1188199 0.07039448 -0.41437438 0.21758299 0.06065491 -0.1864411 0.2558645
0.17424682 -0.1392193 -0.06579546 0.22672601 -0.0017063823 -0.49015155 0.1665628 -0.35424984
0.11796615 0.216942 -0.007581102 0.3990501 -0.06630042 0.12009772 0.38749817 -0.43047866
0.029170172 -0.030044075 0.036067735 0.3496705 0.22324894 -0.31715107 -0.49643302 -0.30025774
0.054001443 -0.30389354 0.19581899 0.24441074 0.25361603 0.49708092 0.21139741 0.05226312
0.19878915 -0.011902451 0.21575056 -0.5026741 0.059554182 0.55266386 0.3274205 0.301911
-0.19579938 0.255685 0.29183695 -0.17997713 -0.05262616 0.05051703 -0.17460914 0.21786676
-0.14005262 0.27383843 -0.15818763 -0.19772387 0.02363213 0.038998533 0.34210813 0.11697312
0.3229472 0.3103183 -0.25591198 0.05346331 -0.34699398 -0.1530589 -0.3416393 -0.28878605

action_heads.0.bias f4 [3]
00000000: 8e1b dabd 16ab 9f3d 0df4 073d
-0.10649787 0.07796304 0.03319173

critic_fc.0.weight f4 [32, 8]
00000000: e0b1 033e 6355 813e e18f 923e 489f e33d
00000010: 0744 b13e bfaf 9e3e 1859 b1bd 7a94 083e
00000020: 1c78 8c3d 9870 60bd dc59 a7be 0bb6 23be
00000030: d0b7 24bd fb0d b33e 70f6 e2bc 37e5 80be
00000040: 96dc 553e 0cdd 37be f844 943d c8e1 043e
00000050: 60be 443c 2c2b 89bd 9f41 a13e 6482 713e
00000060: 89ce ad3e 84f5 013e 2c98 e4bd 268b 863e
00000070: 572e 5f3e ce6d 723b 9920 61be 7b48 b93d
00000080: 11ab 9cbd 9a6a 283e eb1c 91bd c0e1 97be
00000090: de84 7d3e 1fd7 8e3e 5351 a53e 179d 823e
000000a0: 73ef a1be 006e c53c c28e 753e fd1f 9abe
000000b0: 28b3 21be af40 813e b2ef 8bbe 8576 99be
000000c0: 5557 933e e2a6 8ebe 0c01 50be e4c5 16be
000000d0: 0fab 853e c6e8 133e 608a 4d3e f532 67be
000000e0: 1b5f 84be e039 05be 3a41 2dbe 333f a83e
000000f0: 734d afbe e362 0dbe f014 b1be a54b d33e
00000100: 303e 2e3d 2e2e 173e 0036 acbc 1cb5 f3bd
00000110: bc43 c33d 6e0b 8dbe c988 8dbe 2bb9 383e
00000120: fbe7 a23e a049 b2be 0bbd 87be 0077 f83b
00000130: f2fb 0c3e c83d 593d 25e0 8f3e 4a3a 8abe
00000140: b870 153e f6d6 20be 659b 403e f9e1 ffbc
00000150: 62ad ab3e 7721 bebd 4910 20bd 77d5 2dbe
00000160: e860 ab3e a3a6 a6be 7d24 dcbd b871 f73d
00000170: a07a 7a3c 7476 83bd c0b9 a0bc 16b1 b3be
00000180: 56da 3a3d b5d8 11be 16fd a7be f1c8 61be
00000190: cf85 8fbe c677 25be 00e5 593b 6d77 74be
000001a0: 6db6 15be e270 c4bc 61ac a53d 90f7 e3bc
000001b0: 390a 913e a9d7 88be 21c1 3fbe 6b64 8cbe
000001c0: 2802 b7bd 46cd b0be 1af3 13be efeb 933e
000001d0: 6b0f ad3e 6ab9 133e 8100 68be 126c 7ebe
000001e0: 53b4 893e a52b 23be 2098 bd3d 97bf 01be
000001f0: 8056 d5bb 158e b43e 344a 92bd a3ff 663e
00000200: 967f 693e f2b7 843e fdd6 90be 8349 2d3e
00000210: 1c93 47be 08e7 413e dd86 b3be 18a4 87be
00000220: 5b74 1d3d 8022 e33d ced4 233c 9930 2f3e
00000230: 513b acbe a0a6 b33d 5e1b aa3e d578 0ebe
00000240: b9d7 4e3e aaba 2ebd 795c c03d 135c 9c3e
00000250: afb4 a93e 53b9 323d 2b25 b1be 7b9e 89be
00000260: a23c 0d3e 7668 f2bd e079 ffbd aa86 5b3e
00000270: 92d0 8fbe ff2e b23e 76b5 9dbe 888a 1fbe
00000280: fce3 8d3e ab31 8dbe 8b12 423e aeff 3e3e
00000290: 2de0 8ebe 5584 a8be 8379 713d 5011 5e3e
000002a0: 98df 43bd 4c09 703e 7829 2e3d 77e4 2ebe
000002b0: 3d76 93be af75 ae3e e8fb 0f3e 4b6e b1be
000002c0: ee13 4a3e 8f3f b43e a2d2 253e d8c7 8ebd
000002d0: 926d 7d3e 59fd 58be 1612 9fbe 026f 4a3e
000002e0: 2f1c 9d3e 6fc4 873e 73f0 9f3e 2dfa 04be
000002f0: 91f6 8e3e ee28 5d3e c02e e23b 82cd 5f3e
00000300: 1a56 363e bb2e 8dbe 2810 4bbc 7088 b03d
00000310: afc3 963e 6925 a23e c6b7 463e abd6 a03e
00000320: 0efc 583e 29cc a13e d12f 933e 3a43 6cbe
00000330: 604a dbbd e0d7 813d f25e 783e 3ee6 1c3e
00000340: 13cc 81be f400 a8bd 3e7e 3fbe d2aa 9abe
00000350: 6db4 983e d877 563d d297 93be 2cc0 89be
00000360: 5735 e5bd 2ef5 edbd f25f 193c 5284 393d
00000370: 1b57 09be 19c3 52be 89c8 883e 3af7 083e
00000380: 0cb4 97bd 9e58 423e 4326 a83e f31c 7a3e
00000390: 9d88 1c3e 0b5c d83d f672 60be ce0a 643d
000003a0: ad03 40bd e2da 773e f35f a63e 4720 a83e
000003b0: c0e4 383d 7a81 753e 8156 32be 87ec 563e
000003c0: b825 88bc 4f30 5abe e0ba b1be 82f6 dfbc
000003d0: 4fb6 64be c202 0bbd 675e a2be 9b52 fabc
000003e0: 9f69 04bd b5e1 55be 144f a0bd 00b0 6bbc
000003f0: 4343 aa3e 0350 8e3e 0554 25be a5eb a7bd
0.12860823 0.25260457 0.28625396 0.11114365 0.34622213 0.3099346 -0.086595714 0.1333789
0.068588465 -0.054794878 -0.32685745 -0.15987413 -0.04021436 0.34971604 -0.027705401 -0.25174877
0.20884928 -0.17955416 0.07239717 0.12976754 0.01200828 -0.066976875 0.31495377 0.23584896
0.33946636 0.12691313 -0.11161837 0.26278037 0.21795021 0.0036991718 -0.21985091 0.09047028
-0.07649816 0.16446915 -0.07085594 -0.2966442 0.24757716 0.278985 0.32288608 0.25510475
-0.31627998 0.024100304 0.23980239 -0.3010253 -0.15790999 0.25244662 -0.2733131 -0.29973236
0.28777567 -0.27861696 -0.203129 -0.14723927 0.2610707 0.14444265 0.20072317 -0.22578032
-0.2585381 -0.13010359 -0.16919413 0.32860717 -0.34238777 -0.13807254 -0.34586287 0.4126865
0.042539775 0.1476371 -0.021021843 -0.11899778 0.09534404 -0.27547783 -0.2764342 0.18039386
0.31817612 -0.34821796 -0.26511416 0.0075825453 0.13767985 0.053037435 0.28100696 -0.26997596
0.1459378 -0.15707001 0.18809278 -0.031235682 0.33530718 -0.09283727 -0.03907803 -0.16975962
0.3347237 -0.3254901 -0.10749147 0.12082237 0.015288025 -0.064190775 -0.019619823 -0.35096043
0.045618378 -0.14242823 -0.32810277 -0.2204931 -0.28031775 -0.16158971 0.0033248067 -0.23873682
-0.14620371 -0.023979608 0.08089519 -0.027828008 0.28328112 -0.26727036 -0.18726017 -0.27420363
-0.08935958 -0.3453161 -0.14448205 0.2889094 0.33800825 0.14426199 -0.22656442 -0.24845913
0.2689539 -0.15934618 0.09257531 -0.12670742 -0.0065105557 0.3526465 -0.071430594 0.22558455
0.22802576 0.2592159 -0.28289023 0.16922574 -0.19489712 0.18935788 -0.3506383 -0.2649238
0.038441043 0.11090565 0.009999467 0.17108382 -0.33639005 0.087720156 0.33224005 -0.13913281
0.20199479 -0.042658485 0.09392638 0.30538997 0.33145663 0.04363377 -0.3459867 -0.26878724
0.13792661 -0.118363306 -0.12474418 0.21438089 -0.28088814 0.3480148 -0.30802506 -0.15580189
0.27713 -0.27576956 0.18952386 0.18652222 -0.27905408 -0.3291346 0.058953773 0.21686292
-0.047820657 0.23441046 0.042520016 -0.1707934 -0.28801146 0.3407416 0.14060938 -0.3465446
0.19734165 0.3520474 0.16193631 -0.06971711 0.24748829 -0.21190394 -0.31068486 0.19768909
0.30685565 0.26517054 0.31238136 -0.1298606 0.2792249 0.21597645 0.0069025457 0.21855739
0.17806283 -0.27574715 -0.012393989 0.086197734 0.2944617 0.31669167 0.19406042 0.3141378
0.21189901 0.31601074 0.2874742 -0.2307252 -0.10707545 0.06340003 0.24254969 0.15322205
-0.2535101 -0.08203307 -0.18700501 -0.3020845 0.29825154 0.052360386 -0.28826767 -0.26904428
-0.111918144 -0.1161903 0.009361254 0.045292206 -0.13412134 -0.20582236 0.26715496 0.1337556
-0.07407388 0.18979117 0.3284169 0.24425106 0.15286489 0.10564431 -0.21918854 0.055674367
-0.046878505 0.24204591 0.32495078 0.32837126 0.045140028 0.23975173 -0.17415811 0.20988666
-0.016619548 -0.21307491 -0.34712887 -0.027339224 -0.2233517 -0.033938177 -0.31712648 -0.030556967
-0.03232729 -0.20886882 -0.07827583 -0.014385223 0.33254442 0.2779542 -0.16145332 -0.081992425

critic_fc.0.bias f4 [32]
00000000: 2286 b13e 62a6 6fbe 8385 0e3f 1fcd ce3e
00000010: 84e7 9abd f46d 6ebd ffef 04bf 25fd f53e
00000020: 8bb1 313f 958c cdbe ee3d 193b 8228 2ebf
00000030: 3a0d 69be 2de1 b1bc 8646 27bf 32b2 103f
00000040: 2f97 bebe c219 29bd 67f4 df3d bdc5 bdbe
00000050: e491 2f3c bd9d 04bf b94f 4b3e 2675 4d3e
00000060: 6c1e c73e d6ae cf3e 6d53 44be 4f40 da3c
00000070: 6b95 c13e a056 163f 0ae7 e6bc d544 b8be
0.34672648 -0.23403314 0.5567247 0.4039087 -0.07563689 -0.05821033 -0.51928705 0.48044696
0.69411534 -0.40146318 0.002338286 -0.6803056 -0.22758952 -0.021713817 -0.65341985 0.56521904
-0.3722472 -0.04128433 0.10935288 -0.37064925 0.010715935 -0.5180319 0.1985463 0.2006422
0.38890398 0.40563077 -0.1917245 0.026641993 0.3780931 0.5872593 -0.02818634 -0.35990015

critic_fc.2.weight f4 [32, 32]
00000000: 1b2a 9bbe a55d 943e 7341 d0be d93c adbe
00000010: ee15 41be 59b6 b33e 92c9 bb3e 98a2 39be
00000020: 5bbe b9be 5cc0 ee3e bea4 5b3e 1c9f 283e
00000030: f8b8 ae3e a157 213e ba5f e13d 7d66 bfbe
00000040: 1413 c03e ab18 8b3e 5473 a23e 2815 cd3e
00000050: 8ee9 5dbe 0303 0f3e 800e f3bd 6c33 57be
00000060: 38a4 2fbe c6d9 a0be b99d 743e 977b 2ebf
00000070: 915d 03bf 88b8 20be 60ad 053e b19c 893e
00000080: c393 80be b379 d73d 6058 5bbe 79cf 98bd
00000090: f3bb 02bf 9e3c d53e fd51 823e 08a2 adbe
000000a0: 9299 d9bd 4669 ce3d 4668 88ba 4155 3c3e
000000b0: 3ae1 913e 3aa2 a83e 794b 393e b3d7 c9be
000000c0: 5ba5 8a3e 92e9 213f 33e9 523e 70fe 593e
000000d0: 68d4 26bf 41c7 933e 1c8d b1be 043b b7be
000000e0: cb02 b4be 18c0 4bbe 447b 1d3e fbd7 dfbe
000000f0: 1d36 55be d9a2 c7bd 64eb c33e 2ed1 103e
00000100: af1d cc3d 768b e2be b6ea 373e 8caf 323e
00000110: 3f05 c43e 56ef debe fdbf 92be b74f 7c3e
00000120: 6af2 a33e 5f33 02be 7691 30bc e4da 18be
00000130: 84cc 30be 2dd0 02bf 6bdb 64be d148 e43d
00000140: 5192 aabe 01bf 8abe 96b0 8fbe 5986 89be
00000150: 28a8 003f d1c0 6abe b909 e73e 8519 8f3e
00000160: 37e9 843e 4d1a 853e 1cd9 cfbe 3781 043f
00000170: af8b 6b3e 88ba 413e 6dce 94be cd31 c3be
00000180: ebd1 43be 0bdd 7c3e 6b56 2fbe c57a aebd
00000190: 6b59 a2be 7f40 f43e e31d bf3e ba13 82be
000001a0: 9486 5bbe 65d0 833e 53ec 2c3e 45d6 5d3e
000001b0: 80a8 4d3e 4624 a63e 0d20 383e de43 35be
000001c0: 5594 cc3e 019d c53e d98d 213e 5b3a c63e
000001d0: 2003 01bf 53d3 253e a58a dfbe 2d35 82be
000001e0: e665 60be f0bf 60be 0d24 dd3e 667c 0fbf
000001f0: 543a 31be b85c 4cbe 3a94 d93e d9dc 1a3e
00000200: f75c aebe fbe9 c73d 990c 87be f484 64bd
00000210: 8322 c3be 2126 c63e 95a0 0d3e 2d3d 7ebe
00000220: 6774 7fbe c108 b43e 7156 b33d 0549 e13d
00000230: 002e c73e 7548 753e e8ef a33e 3aea 92be
00000240: 9bab a73e 528a 083f c5ca 5b3e cb16 bc3e
00000250: 1b55 c8be 4935 b03e 5948 bfbe ee35 c8be
00000260: d6aa f2bd 8459 babe 931c a73e 3196 ccbe
00000270: fc8b 7bbe 6228 febd a14c 9d3e 3cb6 7f3e
00000280: 4179 863e 50f0 75be 8a4d 093e 25b6 673e
00000290: e718 7b3e ab49 09be 752c 54be 91b1 653e
000002a0: afd0 973e ed10 2ebe 9972 b7bd 260b 62be
000002b0: 254a 87be 543c b2be 0495 babe b1c5 9c3e
000002c0: 11a7 18be 2701 09bf b632 13be c152 4fbe
000002d0: dc35 0c3f 6b48 c9be f43d 5f3e 8398 8f3e
000002e0: e400 803e 6d77 b13e 9ba7 d9be d7b0 0d3f
000002f0: d361 fd3e c386 4e3e f7f3 67be 3718 1abe
00000300: 10e9 c03e 754f b8be fb49 a73e c46b 5f3e
00000310: a697 063f b057 b0be e218 4fbe 4b00 ab3e
00000320: 5776 9b3e 143d 36be 3c46 c83a 82d5 60be
00000330: cd8f 99be 7ed6 01bf 590d 8ebe d282 ab3d
00000340: b704 cfbe 9c2f d7be 0f8d 78be fbc6 1bbe
00000350: 761c c43e 1d23 66bd b273 843e 9677 973e
00000360: a09c ed3d bc1f c03e efd7 b7be 0ed7 883e
00000370: 9cd5 ec3d 4d07 ba3e 99d3 d9be 6e0c a8be
00000380: 8166 e23d 3c3d 32be 42db ba3e f829 fc3c
00000390: 7c69 4e3e 71b8 a2be 4d4c 6cbe c79c 9e3e
000003a0: 306c 3a3e 7c28 76be 14a7 5cbd b25b 8bbe
000003b0: 8516 8dbe aeed 0cbe d7bd 95be 1835 b43e
000003c0: 35fb adbe 82c0 0bbf 5ff8 15be bd84 bebe
000003d0: d3df c33e 97de 97be 4cf5 453e 0b7f d03e
000003e0: 894a 883e 90e9 c23e 7880 b1be 7e74 ec3e
000003f0: 01d9 d13e 8bed 393e c6ed b3be d4fc bcbe
-0.3030556 0.28977695 -0.40674934 -0.33835486 -0.18856022 0.35100058 0.36677223 -0.18128431
-0.36278042 0.46631134 0.21449563 0.16466945 0.34125495 0.15756084 0.110045865 -0.3738288
0.37514555 0.27167258 0.31728613 0.40055203 -0.21671125 0.13965993 -0.11868 -0.2101571
-0.17152488 -0.31416148 0.23888291 -0.68157333 -0.51314646 -0.15695393 0.13054419 0.2687736
-0.25112733 0.10521259 -0.21420431 -0.07461447 -0.5106804 0.4164781 0.25453177 -0.33912683
-0.10624994 0.10078673 -0.0010407052 0.18391897 0.28492147 0.3293627 0.18095197 -0.39422378
0.2707928 0.63247025 0.20596771 0.21288466 -0.65167856 0.28862956 -0.3467797 -0.35787213
-0.3515838 -0.19897497 0.15379053 -0.43719468 -0.20821424 -0.097478576 0.38265526 0.14142296
0.09966599 -0.44247025 0.17960629 0.17449778 0.38285252 -0.43541974 -0.286621 0.24639784
0.32020885 -0.12714909 -0.010776868 -0.1492725 -0.17265517 -0.510989 -0.22349326 0.11146701
-0.33314756 -0.2709885 -0.28064412 -0.26860312 0.50256586 -0.22925116 0.45124605 0.27949157
0.2595918 0.25996628 -0.4059533 0.51759666 0.23002504 0.18918812 -0.2906374 -0.38123932
-0.19123046 0.24693696 -0.1712281 -0.0851951 -0.31708845 0.47705457 0.3732749 -0.25405675
-0.21438056 0.2574493 0.16887026 0.21663769 0.20083809 0.3244955 0.17980976 -0.1770167
0.39956918 0.38596347 0.15776767 0.38716397 -0.50395393 0.16193895 -0.43660465 -0.25431195
-0.21913871 -0.21948218 0.43191567 -0.5604919 -0.17307407 -0.19957244 0.424959 0.15123309
-0.34055302 0.09761425 -0.263768 -0.055790856 -0.38112268 0.38700965 0.13830788 -0.24828024
-0.24946748 0.3516293 0.08756722 0.110002555 0.38902283 0.23953421 0.3201897 -0.28694326
0.32748112 0.5333606 0.21464069 0.3673614 -0.3912743 0.34415653 -0.37359884 -0.39103645
-0.118489906 -0.3639642 0.32638988 -0.39958337 -0.24565119 -0.12410046 0.30722526 0.2497186
0.26264384 -0.24017453 0.13408485 0.22628076 0.24521218 -0.13407008 -0.20720084 0.22431017
0.296514 -0.16998644 -0.08957405 -0.22074565 -0.26423755 -0.34811652 -0.36441815 0.30619577
-0.14907481 -0.53517383 -0.14374813 -0.20246412 0.5476968 -0.39313063 0.21800977 0.28046045
0.2500068 0.34661427 -0.42510685 0.5534796 0.49488696 0.20168595 -0.22651659 -0.150483
0.37677813 -0.3599812 0.3267363 0.21818453 0.5257515 -0.344419 -0.20224336 0.3339866
0.30363724 -0.17796737 0.001527972 -0.21956447 -0.29992524 -0.50717914 -0.27744558 0.08374561
-0.40433285 -0.4202851 -0.2427256 -0.15212624 0.38302964 -0.05618583 0.2586952 0.29583424
0.116021395 0.3752421 -0.35906932 0.26726574 0.1156418 0.36333695 -0.4254425 -0.32821983
0.11054707 -0.17406172 0.36495405 0.030781731 0.20157427 -0.31781343 -0.23075981 0.30978987
0.18205333 -0.24038881 -0.053870276 -0.27218395 -0.27556244 -0.13762543 -0.292464 0.35196757
-0.33980718 -0.5459062 -0.14645527 -0.37210646 0.38256702 -0.2966201 0.19331855 0.40721926
0.26619366 0.3806882 -0.34668326 0.46182626 0.40985873 0.18157022 -0.35142344 -0.36911643

critic_fc.2.bias f4 [32]
00000000: 8c8d d5bd 8f07 95be 49fa 553e 62e1 96be
00000010: d782 3ebe 0fee ba3e 3169 b93d 586b e63d
00000020: 1c7f 103e 8bb2 cabe 71d1 cf3e b733 7f3e
00000030: b5bd c93e fde6 703e 918d 323e 6704 b4be
00000040: 2b4e 673e a158 bbbe 0eec 2f3e 123b bd3d
00000050: a145 41be f66d cbbc 52ba 64be 5bdf 88be
00000060: 3191 aabd 3cfb b13d 6c49 6c3e 1c7b 263e
00000070: ab6f 853e 7e1f b63e 3d24 be3e 5562 f03d
-0.104273885 -0.2910733 0.20896257 -0.29468828 -0.18604599 0.3650975 0.09053267 0.11250943
0.14110988 -0.39589342 0.4058948 0.24922071 0.39402547 0.23525615 0.17436816 -0.3515961
0.22588412 -0.36591056 0.17179891 0.092397824 -0.18874218 -0.024832707 -0.223367 -0.26732907
-0.08328474 0.08690497 0.23074883 0.162579 0.26061758 0.35570902 0.37137023 0.11737505

critic_fc.4.weight f4 [1, 32]
00000000: 99eb d940 9551 da40 e4ef dbc0 047b d940
00000010: d862 db40 8651 dbc0 f6d3 d8c0 b6e7 dbc0
00000020: 4e55 dbc0 5f5d d940 8760 d9c0 ba60 d8c0
00000030: 126a dcc0 8f1b dac0 3fe7 dcc0 9097 de40
00000040: cf5a d8c0 ebd4 da40 cb3b d8c0 b832 d9c0
00000050: da20 dc40 21be de40 5d15 da40 6aea da40
00000060: e967 da40 2e7c ddc0 2b03 dcc0 4983 d9c0
00000070: ee13 dac0 6276 d9c0 865c dbc0 b464 dcc0
6.8100095 6.8224587 -6.8730335 6.7962666 6.855816 -6.8537016 -6.775874 -6.872035
-6.854163 6.792648 -6.793033 -6.7618074 -6.887948 -6.815864 -6.9032283 6.9560013
-6.761085 6.838491 -6.757299 -6.7874413 6.87901 6.960709 6.815108 6.841115
6.8251843 -6.9214087 -6.8753867 -6.797276 -6.814933 -6.795701 -6.8550444 -6.887293
